python/model_pth/siamesemlp/best_hunet.pth (torch, 96565 bytes, 16 tensors)

fc1.weight f4 [64, 7]
0.28926152 0.31328046 -0.08860983 0.3470847 -0.08283255 0.076157175 -0.18424928 0.22152933
0.33333552 -0.2775478 0.32798088 0.070886 0.27943903 0.05097988 0.18275675 -0.053760633
0.29157427 0.056254633 -0.175721 0.09650634 -0.17430225 -0.04472439 -0.15408279 0.2510475
-0.29790694 -0.1738994 -0.10671805 -0.22753361 0.03496464 -0.37376565 0.34100187 -0.32164803
0.2909022 0.06248353 -0.123345494 0.23382092 0.059188433 0.30500397 0.04133114 -0.12002372
0.10072156 -0.102384545 0.15892796 0.33703464 0.21798806 -0.16547525 0.21825276 0.06762125
0.19242431 -0.2311661 -0.37397707 -0.1467773 -0.29055488 0.30931115 0.108167626 0.15642077
0.12001501 -0.006586026 0.29539475 -0.26891577 0.023538543 -0.25770766 0.116770744 -0.13060077
0.11634946 -0.079071105 0.31312343 -0.2235625 -0.22487141 -0.22580042 0.34033608 0.12691404
0.36402878 -0.31135362 -0.37426025 -0.2956027 -0.2545675 0.1530852 0.13578266 0.3133168
-0.19569689 -0.2576661 0.20054278 -0.15306728 0.22983825 -0.08931292 0.21586742 -0.2938231
-0.19120294 0.11466265 0.079119615 -0.096390404 0.22530507 0.25662094 -0.27455488 -0.20217796
0.34593132 -0.12702076 -0.13302019 -0.36465698 -0.21598841 0.09521148 -0.050897617 -0.27537292
0.008923053 -0.25831836 -0.32101023 -0.2079883 -0.3306736 -0.24065396 0.37781033 0.071082644
0.1161945 -0.35239255 -0.24877588 -0.12618296 0.058832616 -0.33238843 -0.163 -0.22571279
0.0016212893 -0.14018853 -0.025641399 -0.25653678 -0.25983265 -0.22056726 -0.12964779 -0.2984215
0.3169966 -0.074786045 0.3250162 0.11761524 -0.3200441 0.26137328 -0.104274645 -0.14489795
-0.31351095 -0.37633973 0.10751618 -0.08174834 0.14722502 -0.30995986 0.28000587 -0.27798584
-0.06449458 0.07949311 0.19564255 0.3055905 0.34424594 -0.2992265 0.09567617 -0.1626327
-0.041347153 -0.28288856 0.34394538 -0.27821264 0.20203881 0.13243133 0.1234897 -0.20354486
0.34369528 0.08354852 0.048464462 -0.33237293 0.15929112 -0.056712188 -0.17266373 0.325304
0.085144326 -0.20858872 -0.19035064 -0.017099783 0.21196581 -0.096121855 -0.2162665 -0.13010564
-0.28194577 0.1342681 0.2919336 -0.35644153 0.08761562 0.19474009 0.06845956 -0.13456851
0.19662322 0.19799322 0.14133643 -0.066387236 -0.10070869 0.04094005 -0.06637415 -0.11236282
0.24210122 0.32416356 -0.038066167 -0.08454592 0.0052381204 -0.022163322 0.090029314 0.10526807
-0.34397346 -0.14036542 0.31751433 0.14692451 -0.018694408 -0.22762083 -0.23147587 -0.3390364
-0.12292135 0.12719402 0.24164201 0.174873 -0.33351487 -0.22671618 -0.059265845 0.3660313
0.054215103 -0.09764359 0.15638994 -0.14400102 -0.24434945 0.27660203 -0.17136881 -0.07583759
-0.3764461 0.25196686 0.2858239 0.13766745 -0.26443017 -0.37263674 -0.30730274 0.28198814
0.18091054 0.318538 0.19854492 0.09591434 -0.0033380054 -0.2872777 -0.32300314 -0.3540149
0.15532078 -0.18493079 -0.076636426 -0.21811062 -0.06812052 -0.26602444 -0.24641162 0.12511823
-0.11238043 0.23296735 -0.12163036 -0.27769026 -0.06670278 -0.18262267 -0.11533058 -0.3592884
00000000: 161a 943e 4c66 a03e 1279 b5bd 16b5 b13e
00000010: 1da4 a9bd 4bf8 9b3d d8ab 3cbe 96d8 623e
00000020: f4aa aa3e bf1a 8ebe 1ced a73e ae2c 913d
00000030: a212 8f3e 47d0 503d 9624 3b3e 1c34 5cbd
00000040: 3949 953e 426b 663d 35f0 33be 1ea5 c53d
00000050: 4a7c 32be ec30 37bd e1c7 1dbe 4c89 803e
00000060: 4287 98be af12 32be fe8e dabd 92fe 68be
00000070: 1537 0f3d 365e bfbe cc97 ae3e 0daf a4be
00000080: 22f1 943e bbee 7f3d 909c fcbd c06e 6f3e
00000090: 926f 723d 7b29 9c3e d74a 293d ffce f5bd
000000a0: 1b47 ce3d fdae d1bd 03be 223e ce8f ac3e
000000b0: 4338 5f3e 5872 29be a77d 5f3e 037d 8a3d
000000c0: e10a 453e ceb6 6cbe ec79 bfbe ca4c 16be
000000d0: 9cc3 94be 085e 9e3e fd86 dd3d c42c 203e
000000e0: 6eca f53d 97cf d7bb fb3d 973e 54af 89be
000000f0: e7d3 c03c 42f2 83be 8025 ef3d 35bc 05be
00000100: a048 ee3d 08f0 a1bd b751 a03e 91ed 64be
00000110: b144 66be 3a38 67be 8840 ae3e c1f5 013e
00000120: fb61 ba3e be69 9fbe 0a9f bfbe 3d59 97be
00000130: ac56 82be 5ec2 1c3e 9c0a 0b3e 0f6b a03e
00000140: c464 48be d0ec 83be 165b 4d3e abbd 1cbe
00000150: b85a 6b3e b1e9 b6bd 590c 5d3e fb6f 96be
00000160: b4ca 43be 40d4 ea3d 7709 a23d 5568 c5bd
00000170: 5fb6 663e d263 833e 7592 8cbe bd07 4fbe
00000180: e91d b13e bb11 02be 7236 08be 52b4 babe
00000190: 112c 5dbe 3dfe c23d 057a 50bd aefd 8cbe
000001a0: ff31 123c 4e42 84be 745b a4be e3fa 54be
000001b0: 0d4e a9be fe6d 76be 5b70 c13e c793 913d
000001c0: 62f7 ed3d cc6c b4be 1bbf 7ebe 1b36 01be
000001d0: 78fa 703d d12e aabe 79e9 26be 4121 67be
000001e0: 7181 d43a 958d 0fbe e90d d2bc ca58 83be
000001f0: c908 85be 62dc 61be 64c2 04be b4ca 98be
00000200: 614d a23e 6d29 99bd 8668 a63e 42e0 f03d
00000210: d2dc a3be b8d2 853e f28d d5bd 2160 14be
00000220: 8284 a0be 9aaf c0be 7131 dc3d ac6b a7bd
00000230: 28c2 163e 0fb3 9ebe ee5c 8f3e 2954 8ebe
00000240: bc15 84bd 49cd a23d 8556 483e 5c76 9c3e
00000250: 0141 b03e 3734 99be def1 c33d 3089 26be
00000260: a25b 29bd c5d6 90be 9c19 b03e e371 8ebe
00000270: 43e3 4e3e 149c 073e 2be8 fc3d 106e 50be
00000280: d4f8 af3e 7d1b ab3d ac82 463d c92c aabe
00000290: 361d 233e 0a4b 68bd c3ce 30be 3f8e a63e
000002a0: 2660 ae3d 4898 55be 47eb 42be d814 8cbc
000002b0: 910d 593e 89db c4bd f774 5dbe 6a3a 05be
000002c0: 325b 90be 947d 093e 5278 953e 817f b6be
000002d0: d16f b33d f269 473e 8734 8c3d 54cc 09be
000002e0: 9957 493e bcbe 4a3e 7fba 103e 08f6 87bd
000002f0: 5c40 cebd c1b0 273d 2cef 87bd 7a1e e6bd
00000300: 62e9 773e c4f8 a53e 45eb 1bbd 6926 adbd
00000310: 8aa4 ab3b db8f b5bc 4a61 b83d c996 d73d
00000320: 4a1d b0be f4bb 0fbe 3d91 a23e 6173 163e
00000330: 0425 99bc 6f15 69be 0308 6dbe 2e96 adbe
00000340: 30be fbbd 263f 023e 0171 773e e811 333e
00000350: 76c2 aabe 4928 68be bec0 72bd 7468 bb3e
00000360: a810 5e3d 5df9 c7bd af24 203e 0175 13be
00000370: be36 7abe c89e 8d3e 4e7b 2fbe bd50 9bbd
00000380: 8bbd c0be cd01 813e 8357 923e b2f8 0c3e
00000390: 6463 87be 3eca bebe c956 9dbe c060 903e
000003a0: 9d40 393e 6a17 a33e 5c4f 4b3e bd6e c43d
000003b0: 70c2 5abb 1016 93be ab60 a5be 7141 b5be
000003c0: 690c 1f3e 7f5e 3dbe 8ff3 9cbd 6458 5fbe
000003d0: c582 8bbd 5b34 88be 5453 7cbe fe1e 003e
000003e0: b627 e6bd fe8e 6e3e 5719 f9bd 6b2d 8ebe
000003f0: 789b 88bd 7001 3bbe 7032 ecbd a6f4 b7be

fc1.bias f4 [64]
0.29618248 -0.2885991 -0.029221082 -0.3727074 -0.30940843 0.07298939 0.100559525 0.08011006
-0.10285863 0.34870878 0.054046676 -0.22303943 -0.021394726 0.09075941 0.1323556 -0.26725346
0.14165425 -0.19309714 -0.314059 -0.2064476 0.3645036 0.3230978 0.3384592 0.22186847
0.28553787 -0.05059121 -0.20794566 0.18885478 -0.1958631 -0.25505984 -0.1206959 0.0793141
0.19457082 -0.14680825 -0.22244693 0.05099311 -0.22278433 -0.24608101 0.19700186 -0.063489914
0.34537384 0.36768338 0.11305026 0.13008125 0.08703972 0.005923939 -0.027488224 0.0052027944
0.1411483 0.351412 -0.09794656 -0.15978007 -0.091549985 -0.18259045 0.0642843 0.2821194
0.29555956 0.1735386 -0.27815086 -0.20286165 -0.08303957 -0.06967244 0.031100823 -0.34695843
00000000: 3ba5 973e 43c3 93be 0d61 efbc 81d3 bebe
00000010: c86a 9ebe 767b 953d 27f2 cd3d be10 a43d
00000020: 8ca7 d2bd f589 b23e 0c60 5d3d 7364 64be
00000030: fe43 afbc 12e0 b93d 3a88 073e 72d5 88be
00000040: d00d 113e 42bb 45be 57cc a0be 0067 53be
00000050: 37a0 ba3e 136d a53e 864a ad3e 7d31 633e
00000060: 0532 923e bb38 4fbd b5ef 54be 2663 413e
00000070: 5690 48be 3497 82be 692f f7bd 6e6f a23d
00000080: 933d 473e e754 16be 21c9 63be 27de 503d
00000090: 9321 64be a9fc 7bbe dbba 493e 0007 82bd
000000a0: d7d4 b03e ff40 bc3e e586 e73d 0534 053e
000000b0: e141 b23d 9a1d c23b fc2e e1bc 347c aa3b
000000c0: 2e89 103e 46ec b33e 3598 c8bd 639d 23be
000000d0: 8f7e bbbd fef8 3abe 7da7 833d f471 903e
000000e0: 9553 973e 1ab4 313e ca69 8ebe f7ba 4fbe
000000f0: a610 aabd 6db0 8ebd 27c7 fe3c 89a4 b1be

bn1.weight f4 [64]
1.0005074 0.99993485 0.99995583 1.0004194 1.0004665 0.9999616 1.0001724 0.9991933
1.0001929 0.9999625 1.0003906 1.0006862 0.99980336 1.0006989 1.0007622 1.0004548
1.0004674 1.0002095 1.0006799 1.0002887 1.000434 0.9990288 1.0004377 0.9994226
0.9994585 1.0001465 1.0006065 1.000627 1.0006015 0.9991818 1.0003003 1.0003028
0.99926585 0.9992571 0.9990388 1.0001849 1.0001929 0.9997043 0.99961776 0.99995404
0.99925 0.99920315 0.9999741 0.9993405 1.0006183 0.9992086 0.9990433 0.9993363
0.9994789 0.99907094 0.9992648 1.0001302 1.0005645 1.0006231 1.0009143 1.0008259
0.99906963 1.0008693 0.9992548 1.0008254 1.0007974 0.99907935 1.0001575 0.9999059
00000000: a010 803f bbfb 7f3f 1bfd 7f3f be0d 803f
00000010: 490f 803f 7cfd 7f3f a605 803f 22cb 7f3f
00000020: 5206 803f 8bfd 7f3f cd0c 803f 7c16 803f
00000030: 1df3 7f3f e716 803f fa18 803f e70e 803f
00000040: 510f 803f dd06 803f 4716 803f 7609 803f
00000050: 390e 803f 5ac0 7f3f 580e 803f 29da 7f3f
00000060: 83dc 7f3f cd04 803f e013 803f 8c14 803f
00000070: b613 803f 61ca 7f3f d709 803f ec09 803f
00000080: e3cf 7f3f 50cf 7f3f 02c1 7f3f 0f06 803f
00000090: 5206 803f 9fec 7f3f f3e6 7f3f fdfc 7f3f
000000a0: d9ce 7f3f c7cb 7f3f 4dfe 7f3f c7d4 7f3f
000000b0: 4314 803f 23cc 7f3f 4dc1 7f3f 81d4 7f3f
000000c0: d9dd 7f3f 1dc3 7f3f d1cf 7f3f 4404 803f
000000d0: 7f12 803f 6b14 803f f61d 803f 101b 803f
000000e0: 07c3 7f3f 7c1c 803f 2acf 7f3f 0c1b 803f
000000f0: 211a 803f aac3 7f3f 2905 803f d5f9 7f3f

bn1.bias f4 [64]
0.0006534131 -0.00048796987 0.00044798164 0.0006513046 -0.0004936008 -0.00016888486 0.0003490488 -0.0010691063
0.00026880048 -0.0003545828 0.0007242836 0.0007974941 -0.00018255264 0.00039571308 0.00062175386 0.0005988296
-3.031029e-05 0.0007566523 0.0007224392 0.0007206847 0.00012542485 -0.0008629652 0.00018601108 0.00047126072
0.00015651071 -0.0004648423 -6.755644e-05 0.00022111775 -0.00033491614 -0.0007331662 0.0006580639 0.00069900614
-0.0007287711 -0.00039080688 -0.00051742786 -5.2702373e-05 8.872787e-05 0.0002959887 0.00017397727 0.00043001823
0.00055450154 -0.000362218 0.00067045743 0.0004294686 0.0007493456 -0.0005457672 -0.0007714906 0.00027812386
-0.00044441863 -0.00048819947 -6.8473724e-05 4.3297976e-05 -0.00040108338 0.00061314163 0.0009030414 0.00071461644
-0.00068719324 0.000890396 -0.00012250288 0.0008916878 0.00084482005 -0.0005182306 0.00035430232 0.00010240504
00000000: d049 2b3a 35d6 ffb9 14df ea39 50bc 2a3a
00000010: fd64 01ba af16 31b9 8900 b739 4121 8cba
00000020: caed 8c39 4ce7 b9b9 dadd 3d3a ec0e 513a
00000030: 9a6b 3fb9 b677 cf39 32fd 223a c6fa 1c3a
00000040: da42 feb7 145a 463a 1362 3d3a 55ec 3c3a
00000050: 7a84 0339 9d38 62ba f80b 4339 8b13 f739
00000060: 061d 2439 14b6 f3b9 16ad 8db8 d8db 6739
00000070: af97 afb9 f331 40ba ec81 2c3a 823d 373a
00000080: 000b 3fba 36e5 ccb9 ffa3 07ba be0c 5db8
00000090: 6a13 ba38 ee2e 9b39 ab6d 3639 1274 e139
000000a0: f85b 113a 14e8 bdb9 a3c1 2f3a 4d2a e139
000000b0: bb6f 443a d111 0fba dc3d 4aba 27d1 9139
000000c0: dc00 e9b9 06f5 ffb9 8d99 8fb8 d99a 3538
000000d0: 8048 d2b9 3dbb 203a 15ba 6c3a 1955 3b3a
000000e0: c224 34ba 7769 693a 1e74 00b9 28c0 693a
000000f0: ea76 5d3a ded9 07ba a7c1 b939 4ac2 d638

bn1.running_mean f4 [64]
0.33072057 -0.27973494 -0.040202346 -0.36645094 -0.3622116 0.071556166 0.12051048 0.020515556
-0.07772428 0.38686094 0.12635304 -0.21632615 -0.029812248 0.08546717 0.12328619 -0.32699013
0.15677483 -0.15296562 -0.37235078 -0.19196816 0.32337907 0.3936802 0.31676424 0.24677365
0.2814319 -0.10143217 -0.22746344 0.17492548 -0.18681316 -0.21730709 -0.11453247 0.11644511
0.25236854 -0.12968911 -0.24268088 0.028192215 -0.21373281 -0.22906812 0.23464146 -0.018339025
0.35204154 0.46557584 0.12062762 0.1316677 0.054236554 0.053324923 0.07493035 0.03396861
0.18180302 0.33301067 -0.08572947 -0.14969757 -0.0692705 -0.19600542 -0.0016256457 0.27115223
0.3286779 0.16565558 -0.29655215 -0.1301381 -0.11061872 -0.09255316 0.05253855 -0.33304775
00000000: 3554 a93e 6b39 8fbe 37ab 24bd 759f bbbe
00000010: cd73 b9be 0a8c 923d 33ce f63d 3d10 a83c
00000020: e82d 9fbd a312 c63e b162 013e 9a84 5dbe
00000030: d138 f4bc 6909 af3d 787d fc3d 406b a7be
00000040: 9589 203e 05a3 1cbe c3a4 bebe 4d93 44be
00000050: f191 a53e 7490 c93e ec2e a23e 3bb2 7c3e
00000060: d817 903e abbb cfbd 2dec 68be aa1f 333e
00000070: f34b 3fbe c085 5ebe 0090 eabd c67a ee3d
00000080: 7336 813e 39cd 04be 5681 78be 5cf3 e63c
00000090: c6dc 5abe d590 6abe da45 703e b93b 96bc
000000a0: ca3e b43e f55f ee3e 9d0b f73d e6d3 063e
000000b0: 2627 5e3d 3c6b 5a3d 1575 993d ab22 0b3d
000000c0: 922a 3a3e 6080 aa3e ef92 afbd 524a 19be
000000d0: b1dd 8dbd a5b5 48be 9e13 d5ba 77d4 8a3e
000000e0: 7848 a83e 9ea1 293e afd5 97be ec42 05be
000000f0: 118c e2bd 838c bdbd aa32 573d 3c85 aabe

bn1.running_var f4 [64]
0.63297373 0.29962766 0.27451578 0.13749163 0.33656427 0.35799116 0.32415932 1.2442613
0.12562746 0.3586554 0.8011418 0.22188777 0.085672304 0.15010126 0.32914373 1.295483
0.42621773 0.31108603 0.40929386 0.3468566 0.15627564 0.45149404 0.4090939 0.18085094
0.20143671 0.3224191 0.17884918 0.11188412 0.34719458 0.35570142 0.3603491 0.2454767
0.762198 0.85421515 0.38125572 0.33096027 0.5516739 0.29936695 0.3542894 0.4293226
0.36055753 0.7976184 0.17002428 0.5740332 0.5152683 0.5303455 0.7058437 0.23686814
0.108956374 0.34835455 0.8389495 0.24664976 0.28898284 0.25900596 0.3277556 0.1349213
0.26431236 0.1814702 0.41849983 0.27672687 0.19142038 0.1941075 0.11033373 1.2070557
00000000: 910a 223f cc68 993e 558d 8c3e 9bca 0c3e
00000010: 2752 ac3e 9e4a b73e 36f8 a53e f443 9f3f
00000020: 7ca4 003e aea1 b73e a117 4d3f 8c36 633e
00000030: f674 af3d 25b4 193e 8785 a83e 63d2 a53f
00000040: 3639 da3e ab46 9f3e f78e d13e 3097 b13e
00000050: b906 203e 3a2a e73e c174 d13e fd30 393e
00000060: 6d45 4e3e 1e14 a53e 3d24 373e 8023 e53d
00000070: 7dc3 b13e 7f1e b63e ad7f b83e 3e5e 7b3e
00000080: 681f 433f d8ad 5a3f f333 c33e a073 a93e
00000090: 803a 0d3f a046 993e 6c65 b53e 2cd0 db3e
000000a0: ff9a b83e b830 4c3f d81a 2e3e d7f3 123f
000000b0: a0e8 033f b9c4 073f 2cb2 343f 908d 723e
000000c0: 8524 df3d 875b b23e 65c5 563f c191 7c3e
000000d0: 8ff5 933e 6e9c 843e 95cf a73e cf28 0a3e
000000e0: f353 873e 53d3 393e 9c45 d63e 25af 8d3e
000000f0: b403 443e 1ec4 463e a7f6 e13d cd80 9a3f

fc2.weight f4 [128, 64]
0.039099015 -0.09531369 -0.07826441 -0.10334258 0.10881406 -0.11771331 0.09379349 -0.004604956
-0.014928286 0.078827135 -0.011020813 0.0792423 0.09114065 -0.10783981 0.048079267 0.023306554
0.026385304 0.018816322 0.03448628 -0.059652716 -0.016204543 0.118921205 0.08351845 -0.0050613466
-0.1180257 0.0060309493 -0.08528975 0.101216055 -0.07527485 -0.0086394865 -0.028150082 0.02139575
0.11821365 0.011865907 0.07258906 0.09725201 0.10034499 -0.042521838 -0.028692037 0.05989438
-0.033884786 0.058650214 -0.027505763 -0.085348435 0.051536284 0.018955885 0.055946816 0.12486302
0.085069716 0.11891454 0.007503767 -0.10690134 -0.087023124 -0.077927954 -0.1103584 -0.062132504
-0.11427332 -0.11467319 -0.07482101 -0.123821594 -0.076963305 0.047773022 0.10465742 -0.03714393
-0.036325093 0.06635679 -0.06160156 -0.05983603 0.076243624 -0.108870596 0.015508886 0.10985085
0.022029284 0.034712654 -0.07210381 -0.0013556 0.0076371203 0.030161561 0.04800514 0.10792875
-0.0960487 0.0035970996 -0.06338033 -0.09799764 -0.009063014 -0.10942885 0.08818972 0.014850576
-0.06829336 0.06620858 -0.118796095 -0.04909627 -0.023547284 -0.105508596 -0.08001711 -0.021213265
0.09531311 0.1203987 0.078757875 -0.07559686 -0.08198286 0.109286085 0.044233654 0.00266991
0.016024778 -0.09981811 -0.04118073 0.11977165 -0.02986805 -0.0059194113 -0.10294821 -0.06996086
-0.0022405365 -0.07794054 -0.014863129 0.051489793 -0.121786654 0.03782777 -0.08237909 -0.06068805
0.04841897 0.09843028 -0.034041762 -0.050768513 -0.11391075 -0.064197496 -0.11032317 -0.027812324
0.025271252 -0.11725447 0.10932575 0.07778908 -0.121686995 -0.059571475 0.04022189 -0.025348283
-0.014298354 -0.057350077 0.09956331 -0.07008484 0.10339511 0.008116372 0.024584364 0.09792568
-0.020899322 -0.07209859 -0.019483771 0.100686245 -0.092802614 0.027865859 -0.12335933 0.06491984
0.04692073 0.004806963 0.054343693 0.0009847967 0.068464294 -0.09978696 -0.018083256 0.055585172
0.12354187 0.064129464 -0.09122208 0.096613005 -0.027832713 -0.027279418 -0.11417511 -0.01885612
0.08812155 0.016659677 -0.073654085 0.038775295 -0.040581558 0.11351851 -0.109339826 -0.040045183
-0.12130273 -0.049905248 0.03870812 0.11946232 0.020424861 0.12227067 0.025252428 0.07215511
0.09956314 0.10463306 -0.0703593 0.11460036 0.07646991 -0.059031177 -0.060300536 -0.1055812
0.031165227 -0.10161092 0.05263097 0.039548904 -0.10782207 0.033807635 -0.010507494 0.057798594
0.071245454 -0.12428596 0.1146112 0.10460586 0.049914826 -0.114647575 -0.044851795 -0.035647526
-0.032228146 0.070301086 0.045905072 0.09935524 -0.046309836 0.041956324 0.04408541 -0.10450265
-0.12104522 -0.0648696 0.085368864 -0.117911056 -0.10908213 0.07001094 0.06780095 0.10290753
-0.09439538 -0.091855556 0.06416023 0.10900838 0.0748799 0.019298337 0.04093124 0.11835256
-0.080469854 -0.05687159 0.087362915 -0.08517781 -0.0689306 0.090797774 0.039504565 0.040320594
-0.05302381 -0.0021127758 0.11433163 -0.0752717 0.00090190896 0.059910692 -0.0858351 0.12127673
-0.062470663 -0.030012539 -0.03388124 -0.08168055 -0.12189768 0.0702331 0.03317473 -0.11732508
00000000: 4a26 203d d333 c3bd 1749 a0bd 46a5 d3bd
00000010: e8d9 de3d ad13 f1bd cd16 c03d 2ce5 96bb
00000020: c595 74bc 1f70 a13d a490 34bc c949 a23d
00000030: f3a7 ba3d 1edb dcbd c4ee 443d 63ed be3c
00000040: fe25 d83c b024 9a3c 7c41 0d3d 6856 74bd
00000050: 64bf 84bc f68c f33d b90b ab3d a7d9 a5bb
00000060: 75b7 f1bd 459f c53b 64ac aebd 5d4a cf3d
00000070: b329 9abd a28c 0dbc 009b e6bc 2446 af3c
00000080: 001a f23d 3969 423c 93a9 943d 102c c73d
00000090: ad81 cd3d 612b 2ebd 900b ebbc cf53 753d
000000a0: c6ca 0abd 353b 703d c453 e1bc 29cb aebd
000000b0: b617 533d 5f49 9b3c 7d28 653d 2fb8 ff3d
000000c0: 0839 ae3d 7789 f33d 29e2 f53b 17ef dabd
000000d0: 2e39 b2bd b198 9fbd 9603 e2bd a77e 7ebd
000000e0: 2108 eabd c7d9 eabd c23b 99bd 2d96 fdbd
000000f0: f09e 9dbd a5ad 433d a156 d63d 3c24 18bd
00000100: 9fc9 14bd 12e6 873d eb51 7cbd a016 75bd
00000110: 9e25 9c3d 8cf7 debd fc18 7e3c 7cf9 e03d
00000120: c276 b43c db2e 0e3d 2aab 93bd 63ae b1ba
00000130: cf40 fa3b 6115 f73c 0aa1 443d c009 dd3d
00000140: 2eb5 c4bd 51bd 6b3b 8ccd 81bd fdb2 c8bd
00000150: 097d 14bc 3c1c e0bd d09c b43d d54f 733c
00000160: 64dd 8bbd 5d98 873d 5e4b f3bd 2c19 49bd
00000170: 3ce6 c0bc e414 d8bd 03e0 a3bd 71c7 adbc
00000180: 8533 c33d 9893 f63d cf4b a13d 87d2 9abd
00000190: a1e6 a7bd 62d1 df3d 592e 353d a8f9 2e3b
000001a0: 6546 833c 706d ccbd 20ad 28bd d74a f53d
000001b0: d7ad f4bc 9ff7 c1bb 83d6 d2bd a447 8fbd
000001c0: f7d5 12bb 4a9f 9fbd 7b84 73bc f6e6 523d
000001d0: 486b f9bd 4bf1 1a3d 5eb6 a8bd 0894 78bd
000001e0: f852 463d d195 c93d 606f 0bbd a5f2 4fbd
000001f0: 0a4a e9bd fa79 83bd 1df1 e1bd acd6 e3bc
00000200: a805 cf3c 1d23 f0bd 2ee6 df3d e24f 9f3d
00000210: 0837 f9bd 3801 74bd b5bf 243d 34a7 cfbc
00000220: a543 6abc eae7 6abd d9e7 cb3d a488 8fbd
00000230: d1c0 d33d 88fa 043c 2665 c93c 428d c83d
00000240: 0e35 abbc 6da8 93bd 6e9c 9fbc 9734 ce3d
00000250: 4c0f bebd f146 e43c d1a3 fcbd b1f4 843d
00000260: f42f 403d ba83 9d3b 7e97 5e3d 4b14 813a
00000270: 0237 8c3d 1b5d ccbd 5623 94bc 47ad 633d
00000280: 8503 fd3d 4f56 833d a4d2 babd 0add c53d
00000290: 6e01 e4bc 1679 dfbc a4d4 e9bd 2678 9abc
000002a0: 1279 b43d e079 883c f4d7 96bd d8d2 1e3d
000002b0: d938 26bd 647c e83d 8fed dfbd 6b06 24bd
000002c0: 916d f8bd 7269 4cbd 688c 1e3d a9a8 f43d
000002d0: 0a52 a73c 0c69 fa3d 2ede ce3c 0fc6 933d
000002e0: c2e7 cb3d dc49 d63d 8918 90bd 98b3 ea3d
000002f0: 429c 9c3d adca 71bd b2fd 76bd f53a d8bd
00000300: 384e ff3c 6319 d0bd 9293 573d 08fe 213d
00000310: d1d1 dcbd e079 0a3d a027 2cbc 38be 6c3d
00000320: 23e9 913d a389 febd 47b9 ea3d 993b d63d
00000330: 7d73 4c3d 59cc eabd 84b6 37bd 2403 12bd
00000340: a901 04bd 04fa 8f3d f506 3c3d c37a cb3d
00000350: 62af 3dbd 65da 2b3d e792 343d 7c05 d6bd
00000360: 8ee6 f7bd 5ada 84bd dfd5 ae3d 5a7b f1bd
00000370: 7466 dfbd e561 8f3d 39db 8a3d 2fc1 d23d
00000380: 5d52 c1bd c41e bcbd 7066 833d c93f df3d
00000390: a25a 993d 8c17 9e3c 84a7 273d d462 f23d
000003a0: 61cd a4bd 2ff2 68bd 54eb b23d b471 aebd
000003b0: 7d2b 8dbd 2ff4 b93d 8acf 213d 3527 253d
000003c0: 7f2f 59bd 7f76 0abb b426 ea3d 0d28 9abd
000003d0: 166e 6c3a ea64 753d 50ca afbd ef5f f83d
000003e0: 3de1 7fbd dbdc f5bc 0ec7 0abd 2248 a7bd
000003f0: 7ea5 f9bd 5fd6 8f3d 3ae2 073d 2248 f0bd

fc2.bias f4 [128]
-0.119975336 -0.041449632 -0.06647013 0.06770911 0.006283463 -0.08875824 0.100736335 -0.057034973
-0.013811502 0.042180862 -0.08336289 -0.011534023 -0.042104073 -0.029649954 -0.045341216 0.080030344
-0.061442938 -0.084381394 0.054002125 0.040508978 0.0012932238 0.010298486 0.12266419 -0.041858006
-0.111529194 -0.12311679 0.032396868 0.048712596 0.001775157 -0.10387596 -0.0976255 -0.08517054
0.080477685 0.024483994 -0.06961578 -0.118212365 0.071931854 0.0013378456 0.12424532 -0.10240637
-0.10140081 0.021571135 0.08378242 0.08253048 0.12428219 0.07957533 0.05585185 -0.07684733
0.123193026 -0.055324223 0.08038784 0.05143477 -0.07409603 -0.011169419 -0.0104059 0.09438129
0.095624916 0.026804069 -0.0710396 0.035600413 0.10241452 -0.066237286 0.10017548 0.028246
0.0691526 0.04288764 0.07890255 -0.106345184 0.05162678 -0.10838711 -0.008543062 0.09775783
-0.102515884 -0.09512132 -0.054786645 0.0047091786 -0.01728356 -0.09812457 0.016267333 -0.03143123
-0.05839858 0.0013668183 0.042444214 0.02005674 -0.08287392 0.08473806 0.023593787 -0.05117006
0.10822628 0.025167407 0.06501071 0.088376954 -0.0022379055 0.10302317 -0.000540491 0.10001248
0.015171705 0.05754276 0.06293426 -0.06926553 0.109235816 0.003769375 0.04594298 -0.09224542
-0.04668159 0.0814957 -0.07886177 0.017315825 0.10974727 -0.1187211 -0.0013767472 0.020331789
0.08191336 -0.042020604 -0.12215748 -0.077360764 0.037517637 -0.092028365 -0.10699711 -0.0031383252
0.03279597 -0.078370005 -0.048551828 0.068385914 -0.08452806 -0.10285145 -0.037772 0.100417525
00000000: a1b5 f5bd 17c7 29bd 7e21 88bd 13ab 8a3d
00000010: 82e5 cd3b e1c6 b5bd da4e ce3d 819d 69bd
00000020: a349 62bc d7c5 2c3d 2aba aabd 33f9 3cbc
00000030: 5275 2cbd 76e4 f2bc b6b7 39bd f3e6 a33d
00000040: 97ab 7bbd 27d0 acbd 5531 5d3d beec 253d
00000050: 6481 a93a fbba 283c 5d37 fb3d 4d73 2bbd
00000060: 6b69 e4bd a824 fcbd 94b2 043d dc86 473d
00000070: 63ac e83a ebbc d4bd e1ef c7bd e46d aebd
00000080: 7cd1 a43d a892 c83c b892 8ebd 5319 f2bd
00000090: 0251 933d a65a af3a 5574 fe3d 6eba d1bd
000000a0: 3aab cfbd f3b5 b03c 1e96 ab3d be05 a93d
000000b0: a987 fe3d 64f8 a23d e9c4 643d 2262 9dbd
000000c0: a04c fc3d a79b 62bd 61a2 a43d 44ad 523d
000000d0: a9bf 97bd f0ff 36bc 827d 2abc fa4a c13d
000000e0: ffd6 c33d 3594 db3c 367d 91bd bdd1 113d
000000f0: b4be d13d 6aa7 87bd cd28 cd3d 2864 e73c
00000100: e19f 8d3d f3aa 2f3d a997 a13d 81cb d9bd
00000110: 9a76 533d 10fa ddbd 33f8 0bbc 4235 c83d
00000120: d9f3 d1bd f7ce c2bd f667 60bd 744f 9a3b
00000130: 4196 8dbc 89f5 c8bd 1243 853c 09be 00bd
00000140: 5933 6fbd d026 b33a fcd9 2d3d 084e a43c
00000150: cdb9 a9bd 268b ad3d c247 c13c b297 51bd
00000160: bda5 dd3d e12b ce3c 5624 853d fafe b43d
00000170: d3a9 12bb d0fd d23d bdaf 0dba 58d3 cc3d
00000180: be92 783c f5b1 6b3d ade3 803d 16db 8dbd
00000190: 07b7 df3d 9e07 773b b52e 3c3d 2beb bcbd
000001a0: 3235 3fbd 38e7 a63d 4882 a1bd ebd9 8d3c
000001b0: 2dc3 e03d 0c24 f3bd f873 b4ba da8e a63c
000001c0: 31c2 a73d cc1d 2cbd b32d fabd 526f 9ebd
000001d0: 18ac 193d 5e79 bcbd 4d21 dbbd 5cac 4dbb
000001e0: 1155 063d 7480 a0bd 48de 46bd ea0d 8c3d
000001f0: 0c1d adbd c8a3 d2bd d0b6 1abd b4a7 cd3d

bn2.weight f4 [128]
0.9996977 1.0009842 1.0009401 1.0007633 1.0009911 1.0010239 1.0009005 0.99943686
1.000618 0.9995053 0.9989991 1.0010856 1.0009685 0.99955136 1.0010701 1.0009948
1.001018 1.0010577 1.0010412 1.0009739 1.001099 1.0009012 1.0011095 1.0010973
1.0009515 1.0010358 1.0005822 1.0010533 0.9993359 1.000559 1.0010395 1.0010619
1.0009443 1.0010748 1.0005993 1.0006365 1.0011318 1.0010244 0.9999373 1.0011133
1.0009159 1.0010297 1.0010191 1.0010217 1.0009533 1.0009288 1.0008775 1.0006872
1.0010498 0.9990317 1.0010041 1.0011015 1.0007279 0.99986416 1.001026 1.0008162
1.001011 1.0008192 1.000947 1.0008581 1.0010592 1.0010853 1.0009739 1.001027
1.001007 1.000716 1.0008689 1.0010339 1.0010225 1.0003744 0.99929965 1.0009974
1.0008826 1.0010195 1.0011107 1.0011027 1.0010189 0.99925244 0.9993457 1.0010209
1.000904 1.0010996 1.0009611 1.0008491 1.0010599 1.0006778 1.0009625 1.0005181
1.0009921 1.0009654 1.0010873 1.0009788 1.0006869 1.0008236 1.0008855 1.0010566
1.0008739 1.0010505 1.0008295 0.998958 0.99917036 1.0010557 1.001015 1.0010648
1.000989 1.0010673 0.9994511 1.0007994 0.999161 1.000481 1.0011044 1.0010136
0.9995217 1.0010308 1.0009785 1.0008752 1.0009192 0.9991522 1.0001706 1.000338
1.0010728 1.0011033 1.0008283 1.0010602 1.0010897 1.0010697 1.0007133 1.0010734
00000000: 30ec 7f3f 4020 803f ce1e 803f 0319 803f
00000010: 7a20 803f 8d21 803f 821d 803f 18db 7f3f
00000020: 4014 803f 94df 7f3f 68be 7f3f 9323 803f
00000030: bc1f 803f 99e2 7f3f 1123 803f 9920 803f
00000040: 5c21 803f a922 803f 1e22 803f ea1f 803f
00000050: 0324 803f 881d 803f 5b24 803f f523 803f
00000060: 2e1f 803f f121 803f 1413 803f 8422 803f
00000070: 7ad4 7f3f 5112 803f 1022 803f cc22 803f
00000080: f11e 803f 3823 803f a313 803f db14 803f
00000090: 1625 803f 9121 803f e4fb 7f3f 7b24 803f
000000a0: 031e 803f be21 803f 6521 803f 7b21 803f
000000b0: 3d1f 803f 6f1e 803f c11c 803f 8516 803f
000000c0: 6622 803f 8bc0 7f3f e720 803f 1824 803f
000000d0: da17 803f 19f7 7f3f 9f21 803f bf1a 803f
000000e0: 2121 803f d81a 803f 081f 803f 1e1c 803f
000000f0: b522 803f 9023 803f ea1f 803f a721 803f
00000100: ff20 803f 7617 803f 791c 803f e121 803f
00000110: 8121 803f 450c 803f 1ad2 7f3f af20 803f
00000120: ec1c 803f 6821 803f 6524 803f 2224 803f
00000130: 6321 803f 02cf 7f3f 1fd5 7f3f 7421 803f
00000140: 9f1d 803f 0824 803f 7e1f 803f d31b 803f
00000150: bb22 803f 3616 803f 8a1f 803f fa10 803f
00000160: 8220 803f a21f 803f a123 803f 1320 803f
00000170: 8216 803f fd1a 803f 041d 803f 9f22 803f
00000180: a31c 803f 6c22 803f 2e1b 803f b6bb 7f3f
00000190: a1c9 7f3f 9822 803f 4221 803f e422 803f
000001a0: 6820 803f f922 803f 07dc 7f3f 321a 803f
000001b0: 04c9 7f3f c30f 803f 3024 803f 3721 803f
000001c0: a7e0 7f3f c721 803f 1020 803f ae1c 803f
000001d0: 1f1e 803f 70c8 7f3f 9705 803f 130b 803f
000001e0: 2723 803f 2724 803f 241b 803f be22 803f
000001f0: b523 803f 0d23 803f 6017 803f 2c23 803f

bn2.bias f4 [128]
-0.00080913736 0.00094323215 0.0009232457 -0.0002601952 0.0009246306 0.0009659984 0.00028103104 -0.00073815905
0.00034222697 -0.00090773316 -0.0010503393 0.0010465223 0.00086924003 -0.0007136908 0.0010469086 0.00074601575
0.0010140055 0.0010187495 0.000920044 0.0010119542 0.0011103711 0.00043155233 0.0011245928 0.0010942917
0.0008872807 0.0010871121 0.00030667047 0.0010331471 -0.0006947317 0.00047193296 0.0009969773 0.0011140004
0.00088684843 0.0009544394 -5.2549567e-05 -0.00058584445 0.001091825 0.00090436166 -0.00040284306 0.0010945254
0.00079417747 0.0010747758 0.0010213084 0.00093953067 6.0727936e-05 0.0008254603 5.30238e-05 3.6336525e-05
0.0010538572 -0.0010828123 0.0008916191 0.0010824664 0.00042803556 -0.0004980485 0.00096469413 7.699011e-05
0.00093836855 -0.00026126415 0.00063385343 0.000270296 0.0009624563 0.0010722249 0.00096952234 0.0010706417
0.00097093947 0.00012164931 0.00087883294 0.0010144358 0.0009378484 0.0001979779 -0.00082052837 0.00089006027
0.0008474679 0.0010357676 0.0010752816 0.0010995864 0.0009058839 -0.0010449656 -0.00085482135 0.0010168459
0.000891679 0.0010867306 0.00095705624 0.0004979306 0.001047777 2.8713872e-05 0.00083424343 7.7747514e-05
0.0007224886 0.0010125694 0.0007277755 0.00044269444 2.3922871e-06 0.00054867193 0.00046124126 0.0010470046
0.00067069207 0.0010585008 0.0007046851 -0.0010939637 -0.0010524999 0.0010825638 0.0010622062 0.001041165
0.0010463982 0.0010649204 -0.00085869833 0.000532528 -0.0009973759 -0.00089509133 0.0011355911 0.0009988863
-0.0009264904 0.0010089842 0.00030516722 0.0007598013 0.0007141636 -0.00092708785 -0.0002575197 -7.039846e-05
0.0010740904 0.0010200721 0.00042114608 0.0010363252 0.0010051674 0.0010661327 4.471643e-05 0.0011105649
00000000: 4a1c 54ba 3d43 773a f805 723a cf6a 88b9
00000010: e962 723a 0e3b 7d3a 5957 9339 0481 41ba
00000020: ed6c b339 f1f4 6dba 8aab 89ba 762b 893a
00000030: b6dd 633a fb16 3bba 6c38 893a 4590 433a
00000040: 61e8 843a 9087 853a 1c2f 713a 8ca3 843a
00000050: df89 913a f941 e239 1367 933a 566e 8f3a
00000060: 6698 683a 6e7d 8e3a 9dc8 a039 aa6a 873a
00000070: a81e 36ba c56d f739 02ad 823a a703 923a
00000080: 647b 683a 5833 7a3a ab68 5cb8 5b93 19ba
00000090: 911b 8f3a af12 6d3a ae34 d3b9 2e76 8f3a
000000a0: 5930 503a 7edf 8c3a 6cdd 853a d64a 763a
000000b0: 20b6 7e38 b463 583a df65 5e38 0c68 1838
000000c0: 9421 8a3a 27ed 8dba 8bbb 693a 8ce1 8d3a
000000d0: f669 e039 788f 02ba 87e3 7c3a c075 a138
000000e0: d9fc 753a 48fa 88b9 2f29 263a 84b6 8d39
000000f0: 594d 7c3a e689 8c3a 8b27 7e3a c654 8c3a
00000100: a586 7e3a fa1d ff38 7b61 663a d1f6 843a
00000110: f1d9 753a 4a98 4f39 ba18 57ba ef52 693a
00000120: 9c28 5e3a 98c2 873a 77f0 8c3a ff1f 903a
00000130: d778 6d3a 3af7 88ba 1716 60ba b047 853a
00000140: 91bf 693a a170 8e3a f5e2 7a3a 8f87 023a
00000150: 9055 893a 92de f037 21b1 5a3a 610c a338
00000160: 6465 3d3a 31b8 843a 30c8 3e3a 7119 e839
00000170: 2e8b 2036 c0d4 0f3a c1d2 f139 a53b 893a
00000180: 62d1 2f3a 65bd 8a3a 9eba 383a 5563 8fba
00000190: 09f4 89ba d0e4 8d3a ba39 8b3a b377 883a
000001a0: 4c27 893a cd94 8b3a 451a 61ba 5999 0b3a
000001b0: 62ba 82ba 90a4 6aba 1dd8 943a 10ed 823a
000001c0: b8df 72ba e43f 843a dafe 9f39 672d 473a
000001d0: b536 3b3a d007 73ba b603 87b9 e3a2 93b8
000001e0: 7ec8 8c3a f1b3 853a 45cd dc39 4ed5 873a
000001f0: d2bf 833a 7abd 8b3a e78d 3b38 6090 913a

bn2.running_mean f4 [128]
-0.123254016 -0.42228597 0.09716907 0.05217758 0.06710295 0.112437926 -0.1526836 -0.26324934
0.048587505 0.037511952 0.1711312 0.19667524 0.07939349 -0.24506591 -0.11657404 0.34074974
-0.068761356 -0.19146882 0.22955474 0.20384167 0.06771516 -0.013370995 0.01209805 -0.44294316
0.03521206 0.35356653 -0.16316932 -0.4795531 0.020334646 -0.552235 -0.022706287 0.13255617
0.3099325 -0.3287557 0.3975121 -0.25574315 0.28315368 -0.03974855 0.08740212 0.056578375
-0.15384753 0.019254493 0.30641317 -0.25135744 0.046957005 -0.07050209 -0.11381139 -0.25976345
0.12278138 -0.25567526 0.15246356 0.12927884 -0.20535344 0.20149064 0.093819536 0.29306182
-0.06920096 0.14227654 0.043897543 0.1564514 -0.12964022 -0.72680944 -0.12887783 -0.05431777
0.22002143 0.36944416 -0.14876367 0.3066284 0.08543011 -0.06808231 0.49015197 0.33542457
0.2861874 -0.14510302 0.13639027 -0.0667156 -0.1382212 -0.14202942 0.29722744 0.39854696
-0.18301164 0.16913591 0.05499771 0.24742812 -0.19186702 -0.22608677 -0.018171625 -0.433054
0.13277572 -0.41438103 0.21367873 0.006879261 0.06093497 0.5039601 0.18365072 0.16058205
0.30062115 0.33367953 0.046663318 -0.27418622 0.3296788 -0.123353966 -0.11870764 -0.06970358
-0.49305308 0.3767675 -0.18028831 0.089958586 0.3640135 0.09006606 -0.39385545 0.18996347
0.050253265 -0.646684 -0.15147643 -0.14061476 -0.073887914 -0.2509975 -0.18679045 0.107950814
0.111858405 0.08053928 0.15310211 0.23884101 -0.0071597053 -0.24505575 0.07252008 0.02699408
00000000: 9a6c fcbd de35 d8be 9400 c73d 28b8 553d
00000010: 456d 893d db45 e63d 1759 1cbe 9ec8 86be
00000020: b103 473d 22a6 193d 043d 2f3e 3c65 493e
00000030: 0e99 a23d 8ff2 7abe 5fbe eebd c076 ae3e
00000040: c1d2 8cbd 6710 44be 6610 6b3e dfbb 503e
00000050: 3fae 8a3d 0512 5bbc e636 463c 72c9 e2be
00000060: 853a 103d ac06 b53e dc15 27be fc87 f5be
00000070: d894 a63c 465f 0dbf 8902 babc cebc 073e
00000080: 79af 9e3e ab52 a8be b586 cb3e c4f0 82be
00000090: 85f9 903e 60cf 22bd e2ff b23d babe 673d
000000a0: 358a 1dbe 99bb 9d3c 30e2 9c3e ecb1 80be
000000b0: fd55 403d 6663 90bd f215 e9bd b7ff 84be
000000c0: ce74 fb3d dee7 82be 681f 1c3e ac61 043e
000000d0: 2c48 52be 9053 4e3e 7524 c03d 330c 963e
000000e0: 3cb9 8dbd f1b0 113e e9cd 333d cc34 203e
000000f0: 68c0 04be 2f10 3abf 8df8 03be 4f7c 5ebd
00000100: 4c4d 613e c927 bd3e 8155 18be 66fe 9c3e
00000110: fbf5 ae3d bd6e 8bbd 33f5 fa3e c5bc ab3e
00000120: 2887 923e e395 14be e4a9 0b3e 30a2 88bd
00000130: dc89 0dbe 2970 11be 322e 983e 590e cc3e
00000140: 6767 3bbe f731 2d3e 4745 613d cc5d 7d3e
00000150: ca78 44be 4a83 67be a9dc 94bc 41b9 ddbe
00000160: 5cf6 073e c029 d4be 99ce 5a3e 6d6b e13b
00000170: f296 793d 8703 013f ef0e 3c3e 9f6f 243e
00000180: 04eb 993e 0bd8 aa3e 0922 3f3d 2362 8cbe
00000190: a9cb a83e 01a1 fcbd fe1c f3bd c0c0 8ebd
000001a0: 7471 fcbe abe7 c03e 809d 38be 353c b83d
000001b0: fa5f ba3e 8e74 b83d 6ca7 c9be c985 423e
000001c0: 5ed6 4d3d 158d 25bf a31c 1bbe 51fd 0fbe
000001d0: 8c52 97bd bf82 80be ff45 3fbe 5115 dd3d
000001e0: 0516 e53d c7f1 a43d cdc6 1c3e bd92 743e
000001f0: f69b eabb e5ef 7abe 6885 943d b022 dd3c

bn2.running_var f4 [128]
0.09614085 0.128833 0.12243902 0.06571125 0.07001869 0.11345943 0.08492631 0.08028151
0.080101825 0.09938461 0.11580281 0.2871088 0.1423454 0.07324201 0.11512432 0.11970044
0.0334065 0.042190466 0.1936633 0.11290542 0.09885563 0.13397594 0.06331943 0.15081492
0.050126325 0.20509052 0.0845568 0.1241409 0.056138903 0.13005486 0.045274984 0.048800875
0.13948894 0.105303995 0.108656794 0.2231497 0.0434746 0.084311485 0.048766732 0.07647916
0.10834237 0.26304466 0.093908176 0.032013748 0.035381604 0.1812328 0.11753897 0.09928828
0.117197305 0.18931542 0.112493984 0.075803004 0.15723902 0.1267908 0.06649009 0.1325539
0.059468027 0.09526581 0.08141487 0.12321482 0.040073913 0.23761468 0.16812602 0.16766141
0.13000102 0.0814455 0.2034163 0.21799538 0.13589783 0.099903986 0.07495881 0.08093353
0.22083011 0.0893549 0.093596995 0.20952861 0.23250405 0.07763394 0.10149296 0.08479927
0.04475727 0.04396061 0.06123794 0.048974052 0.08961337 0.19376542 0.0748926 0.10968907
0.07211448 0.095489964 0.10721667 0.11061611 0.056420963 0.084897414 0.10617463 0.10503056
0.08836241 0.08299304 0.049394622 0.23043321 0.14815283 0.061126675 0.14984615 0.16738538
0.12208746 0.09102456 0.05899395 0.2048563 0.040672176 0.046063527 0.19525333 0.16073628
0.17220096 0.16548997 0.060983863 0.08977439 0.0880325 0.08620853 0.11409806 0.084913515
0.122996025 0.1447408 0.11928868 0.13305743 0.053605415 0.053764157 0.07286709 0.12289264
00000000: 7ee5 c43d ccec 033e 4fc1 fa3d 9f93 863d
00000010: f565 8f3d 6b5d e83d d8ed ad3d a26a a43d
00000020: 6d0c a43d 298a cb3d 062a ed3d edff 923e
00000030: fec2 113e e8ff 953d 4dc6 eb3d 8125 f53d
00000040: 41d5 083d e9cf 2c3d ac4f 463e f53a e73d
00000050: d274 ca3d fd30 093e 9ead 813d 3a6f 1a3e
00000060: 4351 4d3d 4003 523e 1e2c ad3d 963d fe3d
00000070: e8f1 653d 1a2d 053e 4372 393d 6de3 473d
00000080: 30d6 0e3e 9fa9 d73d 7487 de3d 5b81 643e
00000090: 6c12 323d 80ab ac3d a0bf 473d 1ba1 9c3d
000000a0: 9be2 dd3d caad 863e ee52 c03d d920 033d
000000b0: 4dec 103d 1795 393e 46b8 f03d a757 cb3d
000000c0: 2405 f03d e7db 413e 3f63 e63d 9b3e 9b3d
000000d0: 4403 213e 73d5 013e f52b 883d 36bc 073e
000000e0: bf94 733d b91a c33d d7bc a63d 0d58 fc3d
000000f0: 8b24 243d 4351 733e 3a29 2c3e 6faf 2b3e
00000100: fd1e 053e e6cc a63d 5d4c 503e 2e3a 5f3e
00000110: cd28 0b3e 769a cc3d 0184 993d 7bc0 a53d
00000120: 4a21 623e b4ff b63d c8af bf3d ab8e 563e
00000130: 8b15 6e3e 8bfe 9e3d 8adb cf3d 3dab ad3d
00000140: 6653 373d 0a10 343d a2d4 7a3d 0499 483d
00000150: 3787 b73d 716a 463e 4b61 993d aaa4 e03d
00000160: c2b0 933d 3e90 c33d 6a94 db3d b38a e23d
00000170: ab19 673d b2de ad3d 1672 d93d 431a d73d
00000180: 5af7 b43d 41f8 a93d 0452 4a3d aff6 6b3e
00000190: 60b5 173e f75f 7a3d 4571 193e 1367 2b3e
000001a0: fd08 fa3d 166b ba3d a4a3 713d dac5 513e
000001b0: de97 263d 1cad 3c3d 7df0 473e 0d98 243e
000001c0: 7355 303e 3476 293e 37ca 793d a3db b73d
000001d0: 624a b43d 198e b03d 3eac e93d 23e7 ad3d
000001e0: 57e5 fb3d ef36 143e a04d f43d 3540 083e
000001f0: 5a91 5b3d ce37 5c3d 573b 953d 23af fb3d

fc4.weight f4 [64, 128]
-0.025081431 -0.05895367 -0.06201702 -0.020343877 0.06361184 0.034022607 -0.028540352 -0.07588033
-0.05266743 0.019201286 0.075022705 0.04643645 -0.010781108 0.047715116 0.007037267 0.01277539
0.041965116 -0.020893991 0.026085252 0.008624062 0.02785324 -0.018086879 0.05798034 -0.07867901
0.0596504 -0.0723063 -0.05858709 -0.053435657 -0.0078816945 -0.007878255 -0.085079044 0.047402207
0.022597717 0.08732488 -0.062184107 -0.07019514 0.021894336 0.06868402 0.05984285 0.036435626
0.015810903 0.044836074 -0.03421162 -0.0874348 -0.07269926 -0.0558697 0.020599525 0.08013067
0.05805298 -0.05675701 0.025379725 0.07912217 0.002998536 -0.015640547 -0.047206234 -0.0056891576
0.06731398 -0.023985008 -0.012557707 0.043720335 -0.033064704 -0.040014435 0.015696004 0.06488821
0.010238062 -0.0027479783 -0.069409534 0.053325564 0.0048906035 -0.038089585 -0.077234365 -0.041582175
-0.061309535 0.018989008 0.065753035 -0.016655136 0.054648753 -0.017932542 -0.041580837 -0.08020767
-0.058427155 0.067204006 0.060347464 0.08611815 -0.008557194 0.030768726 -0.009902728 0.088487945
-0.06970472 -0.023022978 -0.08401397 0.009543644 -0.0680723 -0.061241355 0.021166565 0.08878185
0.07408671 0.06156462 -0.020932874 -0.0017146001 -0.07870732 0.060243353 0.025102513 0.07585768
-0.08509583 -0.02072811 -0.05612328 -0.06694562 -0.051783748 0.028688075 0.05962184 0.040815257
-0.029589547 0.039927375 0.08802593 0.005283671 -0.031247033 -0.06899142 0.06343446 -0.01940695
-0.0686508 0.051956836 0.018380791 -0.03491919 -0.086783364 0.011936026 -0.025349168 -0.014356505
-0.02855825 0.073788844 0.047840763 0.07099445 0.034350283 0.026140116 0.08829022 0.0007700014
0.051700115 0.03692813 -0.08371961 0.060928337 -0.007910812 -0.058754683 0.060562905 -0.071056746
0.042337704 -0.07176431 -0.025108939 -0.08201479 0.06423723 0.022632789 0.0731261 0.02804392
-0.04278207 0.014204433 0.060840387 -0.06731441 -0.057914194 -0.021449028 -0.054261796 -0.015076137
0.08454501 0.050190467 -0.07079795 -0.046752248 0.07176431 -0.0060288995 -0.036291044 0.017862806
-0.013111036 0.03052833 0.002586831 0.051331576 0.049520012 0.032104827 0.028409697 -0.021644685
-0.080919564 -0.007423729 -0.06629963 -0.06977233 -0.07676243 -0.021033514 -0.06477287 0.015756356
0.039236978 0.053557646 -0.08442327 0.07523046 0.027215092 0.07282335 0.043787073 0.017121417
-0.016064504 0.07490755 -0.05656632 0.06993498 0.078013055 0.015451993 -0.037002772 -0.070702806
-0.003879576 0.07614183 0.005145059 -0.021173723 -0.042900406 0.007594568 0.049843915 0.018296493
0.016285753 -0.060100533 0.043674663 0.01002353 -0.0862738 0.074551806 0.057230547 0.0016988746
-0.016577097 0.080407865 0.08854447 0.015323089 0.08299027 0.038317397 0.043066822 -0.00431591
-0.0054634907 0.05735288 -0.037878286 -0.06212371 0.056251343 -0.020266475 0.063446485 -0.013620552
-0.05296635 -0.00054647203 -0.0091720605 0.021265218 -0.06722749 -0.073915765 0.0056548878 0.080716155
-0.054854475 -0.043430097 0.009387642 0.067142226 0.06866419 -0.017854119 -0.003624505 -0.06864772
0.08724207 0.05468869 0.023558952 -0.08496372 0.05089023 -0.048799675 0.0044736704 0.043414265
00000000: 9377 cdbc 6779 71bd 8f05 7ebd 34a8 a6bc
00000010: ed46 823d 4a5b 0b3d 75cd e9bc 2567 9bbd
00000020: ceb9 57bd 044c 9d3c 81a5 993d 2634 3e3d
00000030: 3fa3 30bc ed70 433d e098 e63b df4f 513c
00000040: 9de3 2b3d e029 abbc bdb0 d53c f04b 0d3c
00000050: 7a2c e43c ef2a 94bc cb7c 6d3d 7622 a1bd
00000060: fa53 743d 5315 94bd 04f9 6fbd 59df 5abd
00000070: 3922 01bc cc13 01bc ec3d aebd d128 423d
00000080: d91e b93c 63d7 b23d c3b4 7ebd 78c2 8fbd
00000090: c05b b33c 35aa 8c3d c71d 753d 863d 153d
000000a0: de85 813c 08a6 373d 7c21 0cbd 0411 b3bd
000000b0: 5ae3 94bd a0d7 64bd 56c0 a83c 8c1b a43d
000000c0: f6c8 6d3d 0a7a 68bd 24e9 cf3c ce0a a23d
000000d0: 1683 443b 9b20 80bc 535b 41bd 1d6c babb
000000e0: e9db 893d 357c c4bc d7be 4dbc 1814 333d
000000f0: db6e 07bd 2de6 23bd e894 803c 1ce4 843d
00000100: 8bbd 273c 6d17 34bb 9626 8ebd e86b 5a3d
00000110: 5b41 a03b d303 1cbd 0d2d 9ebd 1252 2abd
00000120: b51f 7bbd d68e 9b3c 87a9 863d 5a70 88bc
00000130: 5fd7 5f3d 44e7 92bc ab50 2abd eb43 a4bd
00000140: 5051 6fbd 41a2 893d e72e 773d b65e b03d
00000150: 7933 0cbc b20e fc3c 0d3f 22bc 2b39 b53d
00000160: 59c1 8ebd af9a bcbc 840f acbd f25c 1c3c
00000170: 7d69 8bbd 37d8 7abd 8165 ad3c 42d3 b53d
00000180: c6ba 973d 2f2b 7c3d 6b7b abbc 6fbc e0ba
00000190: 4e31 a1bd bcc1 763d c9a3 cd3c 455b 9b3d
000001a0: b946 aebd ffcd a9bc 86e1 65bd c91a 89bd
000001b0: 321b 54bd 4103 eb3c 0836 743d e62d 273d
000001c0: c765 f2bc e38a 233d f046 b43d a522 ad3b
000001d0: c7f9 ffbc 604b 8dbd ede9 813d 53fb 9ebc
000001e0: ca98 8cbd b1d0 543d 5093 963c 6d07 0fbd
000001f0: 7abb b1bd 528f 433c 0fa9 cfbc 8c37 6bbc
00000200: fef2 e9bc 9b1e 973d adf4 433d 8a65 913d
00000210: e2b2 0c3d cc23 d63c 81d1 b43d ebd9 493a
00000220: 80c3 533d f341 173d 3075 abbd fe8f 793d
00000230: 5a9c 01bc c0a8 70bd cf10 783d 3386 91bd
00000240: 4d6a 2d3d 2bf9 92bd 43b1 cdbc 5ff7 a7bd
00000250: cf8e 833d 6668 b93c 23c3 953d 5dbc e53c
00000260: 403c 2fbd b6b9 683c c533 793d 23dc 89bd
00000270: 6f37 6dbd dfb5 afbc 9e41 5ebd e701 77bc
00000280: ef25 ad3d 8594 4d3d 84fe 90bd 497f 3fbd
00000290: 2bf9 923d 138e c5bb eba5 14bd 0555 923c
000002a0: accf 56bc 8c16 fa3c d387 293b 0f41 523d
000002b0: 7fd5 4a3d 5a80 033d 74bb e83c 3250 b1bc
000002c0: 28b9 a5bd c142 f3bb 1ac8 87bd cce4 8ebd
000002d0: 9f35 9dbd 7a4e acbc a3a7 84bd 7913 813c
000002e0: f4b6 203d 435f 5b3d 1be6 acbd 6d12 9a3d
000002f0: 2ff2 de3c 6924 953d 135a 333d 3742 8c3c
00000300: b599 83bc 2169 993d 16b2 67bd 123a 8f3d
00000310: 4fc5 9f3d 5b2a 7d3c 3890 17bd a2cc 90bd
00000320: 7c40 7ebb 3ff0 9b3d e297 a83b 8474 adbc
00000330: 56b8 2fbd dbdb f83b 2229 4c3d 87e2 953c
00000340: b369 853c fa2b 76bd 34e4 323d bb39 243c
00000350: 51b0 b0bd 9eae 983d 946a 6a3d c6ac de3a
00000360: b1cc 87bc e1ac a43d ce56 b53d b20d 7b3c
00000370: cdf6 a93d b4f2 1c3d d666 303d 7a6c 8dbb
00000380: 1507 b3bb daea 6a3d 4326 1bbd 6e75 7ebd
00000390: cf67 663d e105 a6bc 3bf0 813d bc28 5fbc
000003a0: 3ef3 58bd 1e41 0fba 6946 16bc 6534 ae3c
000003b0: 91ae 89bd 2661 97bd a34c b93b 834e a53d
000003c0: 16af 60bd c2e3 31bd a0ce 193c dd81 893d
000003d0: d09f 8c3d cd42 92bc 1a89 6dbb 2d97 8cbd
000003e0: f8ab b23d 3f01 603d b4fe c03c 7501 aebd
000003f0: 4672 503d 2be2 47bd de97 923b 28d3 313d

fc4.bias f4 [64]
-0.012062907 -0.009251424 -0.06333154 -0.01855058 0.044326093 -0.083697274 0.012262749 0.08515101
0.038933236 0.04494737 -0.022879647 -0.006556478 -0.074684 -0.04182453 0.0233376 0.031141639
0.053188466 -0.048779786 0.026338961 -0.047781438 -0.06420321 -0.03285776 -0.059106205 0.017403618
0.014822121 0.057752043 0.047070365 0.018282358 0.035193484 0.02805158 -0.08263339 -0.03981856
-0.0711337 -0.050442815 0.018632246 0.08434955 0.062287655 -0.035129774 0.021638628 0.06188807
0.019470599 -0.07118076 0.011930684 0.036981974 0.015331973 0.0817755 0.074732855 -0.048379984
0.06826762 -0.078094915 -0.049117256 0.036801998 0.00374629 0.0769948 0.053583253 -0.017792886
0.085570574 -0.062401567 0.017454764 0.02928223 0.07017352 0.08752174 0.04421581 -0.038432688
00000000: 80a3 45bc 4993 17bc f7b3 81bd 63f7 97bc
00000010: 478f 353d 7a69 abbd b2e9 483c a763 ae3d
00000020: 7578 1f3d bc1a 383d 196e bbbc b9d7 d6bb
00000030: edf3 98bd 3350 2bbd 7f2e bf3c c01c ff3c
00000040: 26dc 593d 50cd 47bd cec4 d73c 78b6 43bd
00000050: f97c 83bd dc95 06bd 5919 72bd 0892 8e3c
00000060: 7bd8 723c 688d 6c3d dbcc 403d e2c4 953c
00000070: 0b27 103d 6dcc e53c b23b a9bd c918 23bd
00000080: 8cae 91bd 209d 4ebd a7a2 983c 75bf ac3d
00000090: 5721 7f3d 3de4 0fbd 7e43 b13c 587e 7d3d
000000a0: ce80 9f3c 38c7 91bd ea78 433c 697a 173d
000000b0: f532 7b3c ea79 a73d 8a0d 993d 172a 46bd
000000c0: e5cf 8b3d 3af0 9fbd 2d2f 49bd b1bd 163d
000000d0: 5184 753b 73af 9d3d 1d7a 5b3d 63c2 91bc
000000e0: a03f af3d c998 7fbd 4bfd 8e3c 4ae1 ef3c
000000f0: 22b7 8f3d 993e b33d a31b 353d 986b 1dbd

fc5.weight f4 [72, 64]
0.10107169 0.08698765 -0.0021597806 0.09048592 0.019973168 -0.011092132 0.039458625 0.00016565109
-0.035407856 0.017907353 -0.00027578554 -0.085623965 -0.09175575 0.041360553 -0.049520176 0.0034389505
0.111364655 0.09268215 0.070062675 0.0670083 0.08542565 -0.08412929 0.11706883 -0.09233435
-0.080948696 -0.051717687 0.122892946 0.070641965 0.035853952 0.073241055 -0.11968327 -0.12001162
0.039404646 -0.03424363 0.06047918 -0.08932288 0.11938275 -0.109422445 0.064466216 0.06655453
-0.06736216 0.111218795 0.065774016 -0.057662003 -0.056766726 0.09653162 -0.03052307 0.008913795
0.05800251 0.058396697 -0.063149504 0.09458474 0.038691346 0.0406218 -0.058633775 0.0573082
-0.015692161 0.08939666 0.06475037 0.09104178 -0.01677275 0.08183223 0.097030334 0.027599424
-0.007857719 -0.082545236 -0.06532775 0.072252706 -0.07684532 -0.06239224 0.06414672 -0.06424852
-0.09737214 0.028274447 0.054104175 -0.11365427 0.015859997 -0.09674615 0.053553816 0.068834335
0.04262877 0.12291686 -0.024513599 -0.049540572 0.03385923 0.03726144 -0.05644726 -0.08271284
-0.03885018 0.052426502 0.053147577 -0.056064133 0.105949484 -0.093622014 -0.0141123105 0.031137023
-0.090763606 0.11441224 -0.061888706 0.074817196 0.0049654143 -0.07063396 0.117879935 -0.014149921
0.022548685 0.11837474 -0.11860498 0.10157049 -0.062109414 -0.1021949 0.06921957 -0.038951386
-0.100436285 -0.06111794 0.081713356 0.05519345 -0.006228538 0.06426051 0.02556526 -0.094516166
0.024799883 0.08992725 -0.011576913 -0.01483444 0.12351344 -0.03593397 0.117138706 0.10999639
0.10183089 0.03377972 0.03501643 0.03277737 -0.1148346 -0.050351165 -0.07049273 -0.018805036
-0.06278718 -0.04099555 -0.08590212 -0.0913148 0.040367644 0.12250838 -0.051252596 -0.083316155
-0.0416472 -0.04753111 -0.12258147 0.11072212 0.0856438 0.093487434 -0.06508666 -0.08295451
0.12053874 -0.076300524 -0.10588814 -0.105062254 0.038086955 -0.017134177 -0.07684394 0.106838934
-0.07009504 0.008545199 0.061861515 0.060571477 0.1055821 -0.015178292 0.06529325 -0.010602535
0.016780589 -0.0742075 0.077955425 0.029044542 0.02539478 -0.0092071025 0.051062837 -0.12144685
0.103048295 0.09881969 0.06743148 -0.004701507 -0.117589794 -0.03450782 -0.10086874 -0.060417943
0.09936061 -0.01440181 0.12528594 -0.06370965 -0.058953602 -0.09993014 0.048227306 0.04664365
0.06344154 0.1090824 0.076130465 -0.11521617 0.0035108381 0.10993309 0.087970644 0.048759654
-0.058950946 -0.10611917 0.121447206 -0.040803727 0.042857457 -0.03396233 -0.042882286 0.044841878
0.11647632 -0.030049445 0.05468307 0.050605673 -0.019806087 0.025639782 0.04163503 0.11205656
-0.04737155 0.09671222 -0.007580184 0.049745213 -0.10182958 0.08479694 0.10579377 0.029471062
0.003632018 0.03326307 -0.098747365 -0.10851839 0.09389345 -0.11277528 -0.028552214 -0.077429086
-0.11761807 -0.053771988 -0.0011572391 -0.10094356 -0.09640848 -0.10170279 -0.0043271277 -0.03288465
0.09273022 -0.12022851 -0.11012278 -0.038149625 0.12590979 0.11417329 -0.016540376 -0.033789817
0.017646382 0.005159821 0.012032678 -0.05419965 -0.0058388095 0.024577266 0.075454935 -0.07940163
00000000: adfe ce3d 9526 b23d 1b8b 0dbb af50 b93d
00000010: c59e a33c c6bb 35bc 5e9f 213d a0b2 2d39
00000020: d407 11bd 71b2 923c 4f97 90b9 9e5b afbd
00000030: 70ea bbbd af69 293d abd5 4abd 0460 613b
00000040: 2713 e43d 24d0 bd3d 057d 8f3d a63b 893d
00000050: a5f3 ae3d fa4b acbd c8c1 ef3d cb19 bdbd
00000060: 6ec8 a5bd edd5 53bd 4caf fb3d bcac 903d
00000070: 98db 123d 68ff 953d 811c f5bd a7c8 f5bd
00000080: c466 213d 0c43 0cbd 04b9 773d eaee b6bd
00000090: f17e f43d e018 e0bd dd06 843d be4d 883d
000000a0: 2cf5 89bd aec6 e33d 87b4 863d fe2e 6cbd
000000b0: 3a84 68bd 5fb2 c53d 840b fabc 2b0b 123c
000000c0: 0a94 6d3d 6031 6f3d 8754 81bd a5b5 c13d
000000d0: d17a 1e3d 0b63 263d f829 70bd 01bc 6a3d
000000e0: d98c 80bc 9915 b73d d89b 843d 1d74 ba3d
000000f0: 0267 89bc a897 a73d d7b7 c63d 3018 e23c
00000100: aabd 00bc 7a0d a9bd 8eca 85bd 3af9 933d
00000110: 1461 9dbd 018f 7fbd 5b5f 833d ba94 83bd
00000120: 0b6b c7bd d09f e73c 579c 5d3d 92c3 e8bd
00000130: d3ec 813c d822 c6bd 3f5b 5b3d 04f9 8c3d
00000140: 819b 2e3d d6bb fb3d bed0 c8bc 0eeb 4abd
00000150: faaf 0a3d 749f 183d 3e35 67bd 5965 a9bd
00000160: 5e21 1fbd 2cbd 563d 46b1 593d 81a3 65bd
00000170: 0bfc d83d e6bc bfbd 5237 67bc 1213 ff3c
00000180: 45e2 b9bd f750 ea3d 037f 7dbd c239 993d
00000190: eab4 a23b 8aa8 90bd 096b f13d 12d5 67bc
000001a0: 05b8 b83c 756e f23d 2be7 f2bd 3004 d03d
000001b0: 7166 7ebd 8f4b d1bd fdc2 8d3d 7d8b 1fbd
000001c0: 8ab1 cdbd ce56 7abd 5559 a73d 8712 623d
000001d0: c418 ccbb 049b 833d 3c6e d13c b191 c1bd
000001e0: 2029 cb3c c72b b83d 18ad 3dbc 270c 73bc
000001f0: 9df4 fc3d 802f 13bd 6be6 ef3d ca45 e13d
00000200: b78c d03d 9b5c 0a3d 636d 0f3d 9041 063d
00000210: 672e ebbd 063d 4ebd 7e5e 90bd 050d 9abc
00000220: 9196 80bd f3ea 27bd 73ed afbd 4103 bbbd
00000230: 8b58 253d ace5 fa3d 3eee 51bd a9a1 aabd
00000240: 4196 2abd fbaf 42bd fe0b fbbd 47c2 e23d
00000250: 0466 af3d 5776 bf3d 284c 85bd 0ee4 a9bd
00000260: 04dd f63d 7343 9cbd e2db d8bd e12a d7bd
00000270: 1101 1c3d f95c 8cbc 5b60 9dbd 5fce da3d
00000280: fd8d 8fbd 2a01 0c3c 8062 7d3d cc19 783d
00000290: 6e3b d83d 5fae 78bc 78b8 853d 41b6 2dbc
000002a0: 7277 893c 1afa 97bd 18a7 9f3d d2ee ed3c
000002b0: b708 d03c 63d9 16bc 4427 513d 20b9 f8bd
000002c0: fc0a d33d fa61 ca3d 8419 8a3d 190f 9abb
000002d0: ebd2 f0bd 1258 0dbd 4594 cebd ce78 77bd
000002e0: 937d cb3d 92f5 6bbc f54a 003e 347a 82bd
000002f0: 5579 71bd 2ca8 ccbd ff89 453d 690d 3f3d
00000300: a3ed 813d 9866 df3d 4aea 9b3d 75f6 ebbd
00000310: 1716 663b 9a24 e13d f429 b43d 34b8 473d
00000320: 8c76 71bd 0255 d9bd 50b9 f83d cf21 27bd
00000330: 4d8b 2f3d 161c 0bbd 56a5 2fbd 1eac 373d
00000340: 238b ee3d 412a f6bc 5bfb 5f3d e547 4f3d
00000350: 6040 a2bc 850a d23c 7e89 2a3d e97d e53d
00000360: ac08 42bd 0e11 c63d 3163 f8bb a3c1 4b3d
00000370: 078c d0bd 05aa ad3d 67aa d83d 4c6d f13c
00000380: 2707 6e3b db3e 083d 0f3c cabd e43e debd
00000390: 364b c03d baf6 e6bd 55e6 e9bc 2493 9ebd
000003a0: bee1 f0bd 0440 5cbd 80ae 97ba 7fbb cebd
000003b0: cf71 c5bd 8d49 d0bd 94ca 8dbb 0eb2 06bd
000003c0: 57e9 bd3d 5d3a f6bd 0d88 e1bd c842 1cbd
000003d0: 7fee 003e b0d3 e93d af7f 87bc 3167 0abd
000003e0: 258f 903c b713 a93b b624 453c 7400 5ebd
000003f0: 7c53 bfbb 4356 c93c 1e88 9a3d 529d a2bd
