python/model_pth/siamesemlp/contrastive_siamese_hu.pth (torch, 5875 bytes, 4 tensors)

fc1.weight f4 [32, 7]
0	0xbf75ff12	-0.9609233
1	0xbe97ee3e	-0.29673952
2	0x3e66def2	0.22545984
3	0x3d283e12	0.04107482
4	0xbab182ce	-0.0013543011
5	0xb95ca4ce	-0.0002104223
6	0x3acbea81	0.0015557559
7	0x3e93d6bd	0.2887477
8	0x3eb8065a	0.35942346
9	0xbf4f2af9	-0.80924946
10	0x3eddf113	0.43347988
11	0x3b8851d0	0.0041601434
12	0xbcaaec2c	-0.020864569
13	0xb9a960f8	-0.0003230644
14	0x3f2099a3	0.6273443
15	0x3ebc74af	0.36807773
16	0xbf17acce	-0.59248054
17	0x3e58c6de	0.21169612
18	0xbb49d9fa	-0.003080009
19	0x3c876e0b	0.016531965
20	0x3c4406e7	0.011964536
21	0xbf157aeb	-0.5839068
22	0xbec5d00e	-0.38635296
23	0x3f025064	0.50903916
24	0xbe39254e	-0.18080637
25	0xbc2f6559	-0.0107053155
26	0x3baa5f72	0.0051993662
27	0x3cd467d5	0.025928417
28	0x3f666d10	0.90010166
29	0x3e99154b	0.29899058
30	0xbde7c9ad	-0.113177635
31	0xbe245bd4	-0.16050655
32	0xbbe116bb	-0.0068691648
33	0xbb582b47	-0.003298478
34	0x3b320dda	0.00271689
35	0xbf784ac2	-0.9698907
36	0xbda20133	-0.07910385
37	0xbec9ac02	-0.39389044
38	0x3ea0504f	0.3131127
39	0x3c8ca11d	0.017166669
40	0xbbb4c564	-0.005516695
41	0xbb096b11	-0.0020968358
42	0xbf75c86a	-0.9600893
43	0xbe00d800	-0.12582397
44	0xbe5b7d79	-0.21434583
45	0x3eba6be0	0.36410427
46	0x3b4a998c	0.0030914275
47	0xbc277ce3	-0.010222646
48	0x3c90e7a7	0.017688585
49	0xbf860216	-1.0469387
50	0x3cb9a74d	0.022662783
51	0xbef687f8	-0.4815061
52	0x3eec2e44	0.46129048
53	0xbc1b91c1	-0.0094952
54	0xbc2be839	-0.010492378
55	0xbbe93bc5	-0.007117721
56	0x3eb64ed6	0.35607022
57	0x3eba86bb	0.36430916
58	0xbf2cb6a3	-0.6746618
59	0x3ec51b73	0.38497505
60	0x3bc1be43	0.0059125735
61	0x3c2f551c	0.010701444
62	0xbc14a99d	-0.009073642
63	0xbf811900	-1.0085754
64	0xbea3a67f	-0.31962964
65	0x3e84e223	0.2595378
66	0x3dce6b1e	0.10079025
67	0xbca90405	-0.0206318
68	0xbbdea94e	-0.006795085
69	0x3ba6da12	0.005091914
70	0xbf18699a	-0.59536135
71	0xbe89fc8b	-0.26950487
72	0x3e507d0d	0.20360203
73	0x3d0bd770	0.034141004
74	0x3c30679d	0.010766891
75	0x3c59ad80	0.0132859945
76	0x3bf1a60b	0.00737453
77	0xbf396d8d	-0.72432786
78	0xbea84ab3	-0.3286949
79	0x3d00331e	0.03129875
80	0x3e0b48ba	0.13601962
81	0xbae21cf2	-0.0017251058
82	0x3c60b1f0	0.013714299
83	0x3b9912d9	0.0046714363
84	0xbe50c4a0	-0.20387506
85	0xbe94e95a	-0.29084283
86	0x3f526712	0.8218852
87	0xbf126de1	-0.5719891
88	0xbcb116cc	-0.021617316
89	0xbc1caa55	-0.009562095
90	0xbb8bdbd5	-0.0042681494
91	0x3f359391	0.70928293
92	0x3e7e452c	0.24831074
93	0xbe7645d5	-0.24050076
94	0x3d6396b0	0.05556363
95	0xbbae9b1e	-0.00532855
96	0xbb5b7628	-0.0033487175
97	0x3cac0d8f	0.021002559
98	0xbf56899d	-0.8380373
99	0xbe9c2105	-0.30493942
100	0x3e5bd9fd	0.21469875
101	0x3d83cb64	0.06435278
102	0xbc7cbebe	-0.015426336
103	0xbc5cbc5d	-0.013472644
104	0xba30c96e	-0.00067438825
105	0xbf317013	-0.69311637
106	0x3d1f42d9	0.03888211
107	0xbf1c5b74	-0.61077046
108	0x3efd8927	0.495187
109	0x3cc68c98	0.024236962
110	0x3c1dbf52	0.009628134
111	0xbc636b70	-0.013880596
112	0x3f911252	1.1333716
113	0xbb8d77c6	-0.0043172566
114	0x3f206f2e	0.62669647
115	0xbf0fe5d9	-0.56210095
116	0xbc612c29	-0.013743439
117	0x3ba95717	0.0051678526
118	0x3b5a7afd	0.0033337467
119	0x3f4784d1	0.77937037
120	0x3de2e818	0.110794246
121	0x3ea927d1	0.3303819
122	0xbee08995	-0.43854967
123	0xbce6102e	-0.028083887
124	0xbae8f750	-0.00177739
125	0xbb2da71e	-0.0026497315
126	0x3f28a6e0	0.6587963
127	0x3e92dab0	0.2868247
128	0xbe87e43c	-0.26541317
129	0xbd3b7cff	-0.045773502
130	0xbcc679ff	-0.024228094
131	0xbcb75ac7	-0.022382153
132	0x3c4ab3f9	0.01237201
133	0xbf729290	-0.94754887
134	0xbea14e9f	-0.31505296
135	0x3c7611b8	0.015018873
136	0x3e958029	0.2919934
137	0x3c1feb85	0.009760742
138	0x3b2cc2dc	0.0026361262
139	0x3cab9d80	0.020949125
140	0xbf09f297	-0.5388579
141	0xbead2951	-0.33820584
142	0x3e3bfc1b	0.1835789
143	0x3dd1fd1f	0.10253357
144	0xbd0cda16	-0.03438767
145	0xbd1a62a1	-0.037691716
146	0xbc1eb514	-0.009686727
147	0x3f54abe8	0.8307481
148	0x3e80a4ce	0.25125736
149	0xbdff4bd3	-0.12465634
150	0xbdd55fed	-0.10418687
151	0xbba3deda	-0.005000931
152	0xbc9cf3d3	-0.019159233
153	0x3a1d9e3d	0.0006012654
154	0xbf0e280d	-0.5552986
155	0xbe8f6de2	-0.2801352
156	0x3f29f68b	0.6639182
157	0xbe9c55ea	-0.30534297
158	0xbbb198fb	-0.005419848
159	0xbc44dfa3	-0.01201621
160	0xbb23c6d8	-0.0024990346
161	0x3f153f67	0.5829987
162	0x3e5a67d2	0.21328667
163	0x3e05246b	0.13002174
164	0xbe9bb4d5	-0.304114
165	0xbcba4e9d	-0.022742564
166	0x3c17f1a6	0.009273922
167	0x3b8c9c0d	0.0042910636
168	0xbf770d9d	-0.9650515
169	0xbe301b99	-0.17198028
170	0x3cd04369	0.025422769
171	0x3df904b7	0.121591024
172	0xbbc136a6	-0.005896407
173	0xbc5533d6	-0.013012847
174	0xbaef222f	-0.001824444
175	0xbf280949	-0.6563917
176	0xbeba8965	-0.3643295
177	0x3f340d85	0.7033313
178	0xbea4505e	-0.32092565
179	0xbb4514e1	-0.003007226
180	0xbc6eba2c	-0.014570754
181	0xbb8ae127	-0.004238266
182	0xbf89d1e3	-1.0767177
183	0x3dc1d73a	0.09464879
184	0xbf371b99	-0.71526486
185	0x3f1a5634	0.60287786
186	0x3c80a058	0.015701458
187	0xbaa0ba47	-0.0012262546
188	0xbba7c01a	-0.005119336
189	0x3c96c4eb	0.018404445
190	0x3ea1bd25	0.31589618
191	0xbf3276d8	-0.6971259
192	0x3eea3996	0.4574706
193	0x3c860f43	0.0163647
194	0x3b27eb55	0.0025622447
195	0xbbdef077	-0.006803568
196	0x3e1f4a6f	0.15555738
197	0x3ea487a6	0.32134742
198	0xbf17a648	-0.592381
199	0x3e75230a	0.23939148
200	0xbc426226	-0.011864221
201	0xbc952b46	-0.018209111
202	0x3bce6963	0.006299184
203	0xbebc0bed	-0.3672785
204	0xbe8ce55e	-0.27518743
205	0x3f094d71	0.5363379
206	0xbe7e7d76	-0.24852547
207	0xbc11c0a9	-0.008896031
208	0xbcb4efaa	-0.022086937
209	0xbbb1ad2b	-0.0054222546
210	0x3f7ff307	0.99980205
211	0x3e95c87f	0.2925453
212	0xbe699f7e	-0.22814748
213	0xbd033669	-0.03203431
214	0xbc8364cd	-0.016039276
215	0x3a0a6d39	0.00052805577
216	0x3bfd92f5	0.007738466
217	0xbee1272a	-0.43975192
218	0xbe7a43ee	-0.24439976
219	0xbce43e01	-0.027861597
220	0x3e5ebf9f	0.21752785
221	0x3c646c6f	0.013941868
222	0x3beae7f5	0.0071687647
223	0xb7985319	-1.8158507e-05

fc1.bias f4 [32]
0	0x401f20ec	2.4863844
1	0xbeb40d94	-0.3516661
2	0xbf8151c4	-1.0103078
3	0x3f415761	0.75523955
4	0xbfece212	-1.8506491
5	0x40496590	3.146824
6	0x402b107b	2.672881
7	0x404d10ea	3.2041574
8	0xbe1636ca	-0.14669338
9	0x3fe0aa62	1.7551997
10	0x3fd49133	1.6606811
11	0x3fdc048d	1.7188889
12	0xbe6a697a	-0.22891799
13	0xc002086f	-2.0317647
14	0x3fececbf	1.8509749
15	0x40095a5e	2.1461406
16	0xc053a310	-3.3068275
17	0xc022053f	-2.5315702
18	0xbfd7b8b3	-1.6853241
19	0x4005a529	2.0882056
20	0x3f73e9fd	0.9527891
21	0xbff192aa	-1.8872883
22	0x3f0d934b	0.55302876
23	0xbfcf2ffa	-1.6186516
24	0x4024909d	2.5713265
25	0x3f88b8ce	1.0681398
26	0x40526986	3.2876906
27	0x3f21511d	0.63014394
28	0x3d077acd	0.033076096
29	0x3f01852f	0.5059385
30	0xc01534a9	-2.3313391
31	0x3fc54008	1.5410166

fc2.weight f4 [16, 32]
0	0xbcbd99a4	-0.02314455
1	0xbc9edb83	-0.01939178
2	0xba283164	-0.0006416051
3	0xbc882250	-0.016617924
4	0x3c728d91	0.01480426
5	0xbd499d58	-0.04922232
6	0xbd76a299	-0.06021366
7	0xbca2731e	-0.019830283
8	0x3c9b8f26	0.018989157
9	0xbca4b5c2	-0.0201062
10	0x3c44dc7b	0.012015457
11	0xbc814a4b	-0.015782496
12	0x3a140881	0.0005647019
13	0xbc8883fd	-0.0166645
14	0x3ba74b28	0.005105395
15	0xbd067b07	-0.03283217
16	0x3c8e6202	0.017380718
17	0x3c060512	0.00817992
18	0xbccae5c7	-0.02476777
19	0xbd10da3d	-0.03536438
20	0xbc08ad38	-0.00834208
21	0xbbd03367	-0.006353784
22	0xbb2c9271	-0.0026332403
23	0x3c9bf6ab	0.019038519
24	0xbc6e522b	-0.014545958
25	0x3b9baead	0.0047510476
26	0xbd1f2c5c	-0.038860664
27	0x3ca954a8	0.02067025
28	0xbc65079a	-0.013978863
29	0x3b9aa1d7	0.004719
30	0x3c47d348	0.0121963695
31	0xbcb93363	-0.02260751
32	0xbc7107db	-0.014711346
33	0xbc59c617	-0.013291857
34	0xbc19fe5b	-0.009399022
35	0x3a515438	0.0007985267
36	0x3c88b0a8	0.016685799
37	0x3bbd4f2c	0.0057772603
38	0x3a956687	0.0011398353
39	0xbc33b735	-0.010968973
40	0xbbe53f4f	-0.0069960724
41	0x3c537e5d	0.012908545
42	0xbc09e7db	-0.008417095
43	0xbcb83b09	-0.022489088
44	0x3c0d8f4c	0.008640122
45	0x3c7ad151	0.015308694
46	0xbbf986b9	-0.007614937
47	0xbb067aa1	-0.002051987
48	0x3cab1948	0.020886078
49	0x3cec8698	0.028872773
50	0x3d08dfc9	0.033416543
51	0xbca8bb60	-0.02059716
52	0x3c41a283	0.011818531
53	0x3ca0393d	0.019558543
54	0xbba16a67	-0.004926014
55	0xbb33baca	-0.0027424567
56	0x3c44d448	0.012013502
57	0x3bb5f292	0.0055525983
58	0xbbc62f26	-0.006048101
59	0x3c1f51f5	0.00972413
60	0xbb8be221	-0.0042689
61	0xbb233fbd	-0.0024909817
62	0xbb8a12ff	-0.0042136903
63	0xbc451213	-0.012028235
64	0x3c63ef09	0.013911971
65	0x3c14ab65	0.009074067
66	0x3c53d9dc	0.01293036
67	0xbaec9df1	-0.0018052441
68	0x3b921674	0.004458243
69	0x3c90fa49	0.01769747
70	0x3bc2ea6b	0.005948355
71	0x3c4bd551	0.012440995
72	0xbb810d64	-0.003938364
73	0xbc045e86	-0.008079177
74	0x3ba376ff	0.0049885507
75	0x3c6921d4	0.014229257
76	0xbc761c29	-0.015021362
77	0x3bd954f1	0.0066324403
78	0xbcb7cc4a	-0.02243628
79	0x3d06f3d2	0.03294737
80	0x3c194744	0.00935537
81	0xbc86aa99	-0.01643877
82	0x3c3694f8	0.011143915
83	0x3aacdaac	0.0013187728
84	0xbc049824	-0.008092914
85	0xbc03a307	-0.008034474
86	0xbbf48d83	-0.0074631586
87	0xbc570653	-0.013124066
88	0x3ccbb065	0.024864385
89	0x3b936f9e	0.00449939
90	0x3d2f2ef2	0.04276938
91	0xbc992d29	-0.018698292
92	0xbb7f9489	-0.0038998446
93	0xbc5e571e	-0.013570575
94	0xbc31d6aa	-0.010854403
95	0x3cb7ff46	0.022460591
96	0xbc3b6c92	-0.011439459
97	0x3cafee21	0.021475853
98	0x3bbef18d	0.005827135
99	0xbaf4e66f	-0.0018684397
100	0x3a786208	0.0009475057
101	0xbca68a76	-0.020329695
102	0x3ae2b699	0.001729685
103	0x3c3458fd	0.011007545
104	0x3c160ef0	0.009158835
105	0xbb880bcf	-0.0041517983
106	0xbc3b9011	-0.011447922
107	0x3cb3fd0f	0.021971254
108	0xbce49fdc	-0.027908258
109	0xbccf25df	-0.025286613
110	0x3b37d0b1	0.0028047974
111	0x3c252df1	0.010081754
112	0xbcdb8d08	-0.026800647
113	0xbc5d98df	-0.013525217
114	0xbd542af5	-0.05179878
115	0x3c1be932	0.009516047
116	0xbd025126	-0.03181567
117	0xbc0d5a23	-0.008627447
118	0x3c08e4c9	0.008355328
119	0x3c011d84	0.007880572
120	0xbb63b615	-0.003474598
121	0xbc3de477	-0.011590115
122	0xbc767044	-0.015041415
123	0xbd18ec46	-0.037334703
124	0x3b99eb66	0.004697251
125	0xbcd69532	-0.026194189
126	0x3befe292	0.0073207105
127	0x3c8f6d2c	0.017508112
128	0x3c395731	0.011312292
129	0x3c86b4e6	0.016443681
130	0x3c8d67bf	0.017261384
131	0xbbd5d621	-0.0065257703
132	0xbb018fbc	-0.001976951
133	0xbbf09886	-0.007342401
134	0xbbcaeb30	-0.0061925873
135	0x3c24bfa2	0.010055454
136	0x3bc7e631	0.006100439
137	0xbc70e030	-0.014701888
138	0x3c497786	0.012296563
139	0x3d084f98	0.03327903
140	0xbc851279	-0.01624416
141	0xbc25abb4	-0.010111738
142	0xbc064a16	-0.008196374
143	0x3c67905e	0.014133541
144	0xbc66fd5f	-0.014098494
145	0xbce06cf5	-0.027395705
146	0xbd07ddde	-0.033170573
147	0x3c8bd38a	0.017068643
148	0xbcfa2b91	-0.030538352
149	0xbca7fbc2	-0.02050579
150	0xb91aca0c	-0.00014761853
151	0xbb29661e	-0.002584822
152	0xb93c23ce	-0.00017942415
153	0xbba11b79	-0.004916605
154	0x3b92018d	0.0044557513
155	0xbcefb677	-0.02926181
156	0xbbda3ef7	-0.006660338
157	0xbb0f5acb	-0.0021874185
158	0xb9e46ad6	-0.00043567148
159	0x3c9c48f2	0.019077752
160	0x3ca7c652	0.020480309
161	0xbc945ee7	-0.01811166
162	0x3b8d728c	0.0043166336
163	0x3c65b382	0.014019849
164	0xbaf2b919	-0.0018518298
165	0x3bab3215	0.005224476
166	0xbc21b2e8	-0.009869315
167	0xbca69709	-0.020335691
168	0xbc576824	-0.013147388
169	0x3ba3b507	0.0049959454
170	0x3c214b7d	0.009844658
171	0xb95af9bf	-0.00020883138
172	0x3ccfe02a	0.025375444
173	0x3ab8007a	0.0014038228
174	0x3b7e87ae	0.0038838196
175	0xbcdbfdd0	-0.026854426
176	0x3c1c86c7	0.009553618
177	0x3b0e44ba	0.0021708445
178	0x3c8d2a61	0.017232122
179	0x3c096487	0.008385784
180	0xbc2ec123	-0.010666165
181	0xbb9c601e	-0.0047722002
182	0x3b3f04ba	0.0029147104
183	0xbc620dfa	-0.013797278
184	0xbc72a8a8	-0.014810719
185	0x3c76d9b8	0.015066557
186	0xbc8d7ce9	-0.017271476
187	0x3b1ffa7e	0.002441078
188	0xbd18994f	-0.03725558
189	0x3d010f1f	0.03150856
190	0xbc64039a	-0.013916874
191	0xbc3b3514	-0.011426229
192	0x3bb77463	0.005598591
193	0x3c19c784	0.009385947
194	0x3bfc3c30	0.0076976046
195	0x3bd6d325	0.006555932
196	0x3c2ebf74	0.010665763
197	0xbc859215	-0.016305009
198	0xbbd3ecca	-0.0064674364
199	0x3c39fc30	0.01135163
200	0xb956fe51	-0.0002050337
201	0x3bcb47cb	0.0062036267
202	0xbc84b116	-0.016197722
203	0x3be0fa92	0.006865808
204	0xbbce159b	-0.0062891967
205	0xbba4ee85	-0.0050333166
206	0xba0aaf28	-0.00052903825
207	0x3bdd7e2b	0.006759425
208	0xbbc1c4d0	-0.0059133545
209	0xba0343e0	-0.00050073676
210	0xbb5063ce	-0.003179777
211	0x3bee027b	0.0072634793
212	0xbc9f8d14	-0.019476451
213	0x3bb4db5e	0.0055193147
214	0x3c84a9c0	0.016194224
215	0xbbe721af	-0.007053576
216	0x3c486708	0.012231596
217	0x3bf0f700	0.0073536634
218	0xbc27cb17	-0.0102412915
219	0xbd3b68b3	-0.045754146
220	0xbc151942	-0.00910026
221	0xbcd8b850	-0.026455075
222	0x3a1f5907	0.0006078635
223	0x3c9538b3	0.018215513
224	0xbd04f267	-0.032457735
225	0x3d977fb9	0.07397408
226	0x3d3f8772	0.04676003
227	0xbd232219	-0.03982744
228	0x3d5f634d	0.05453806
229	0xbd95d892	-0.07316698
230	0xbd9d1c6e	-0.07671438
231	0xbbb03428	-0.0053773113
232	0x3d62e4f6	0.055394135
233	0xbd3ec305	-0.046572704
234	0xbd4a2f4d	-0.049361516
235	0xbd40b354	-0.04704602
236	0xbd48be80	-0.0490098
237	0x3ce4b521	0.0279184
238	0xbd1be599	-0.03806076
239	0x397dbb00	0.00024197623
240	0x3cb77ab5	0.022397378
241	0x3d5afe3f	0.053465124
242	0x3d31ba12	0.04339034
243	0xbd9ab077	-0.07553189
244	0xbd13abb5	-0.036052424
245	0x3d052820	0.03250897
246	0xbd0059cb	-0.031335633
247	0x3d1cfd8c	0.03832774
248	0xbd11ee99	-0.035627935
249	0xbd7f4f54	-0.062331513
250	0xbce406f7	-0.027835352
251	0xbcaac375	-0.020845154
252	0x3d2c4c94	0.042065218
253	0xbd76bcac	-0.060238525
254	0x3d6202de	0.055178516
255	0xbce83204	-0.028344162

fc2.bias f4 [16]
0	0xbd985d6a	-0.07439692
1	0x3c089b70	0.00833784
2	0x3d39f4dc	0.04539953
3	0x3d9c07ce	0.07618676
4	0xbd055684	-0.03255321
5	0x3d0e5458	0.034748405
6	0x3dd83c52	0.1055838
7	0xbdc62667	-0.096752934
8	0x3ce43608	0.027857795
9	0x3df44512	0.119272366
10	0xbdfb745c	-0.12278053
11	0xbda04f35	-0.078276075
12	0xbcdcead0	-0.026967436
13	0x3d871640	0.06596041
14	0x3ceb4d00	0.02872324
15	0x3db10962	0.08644368
