python/model_pth/siamesemlp/siamese_hu_trained.pth (torch, 5771 bytes, 4 tensors)

fc1.weight f4 [32, 7]
000000 51 2f 28 bf e9 c4 eb bf ed fb 88 3f 25 66 45 3f
       -0.656972 -1.8419467 1.0701882 0.77108985
000010 59 d0 da bb 38 1a b2 3e 89 fe 4b 3c 4d 6b a5 3e
       -0.006677669 0.34785628 0.012450823 0.32308426
000020 15 33 09 40 16 3e 6c bf 8d 83 6e bf e1 a7 39 bd
       2.1437428 -0.92282236 -0.9316948 -0.045326117
000030 a9 ce 20 3e 03 49 c6 3c 03 f0 1a 3f c4 6c 0a 40
       0.15703835 0.024204737 0.6052248 2.1628885
000040 2a 49 5f bf 24 38 e4 be c1 b4 a7 bd 1e 2f 5e 3d
       -0.87221014 -0.44574082 -0.08188773 0.054244153
000050 8b 21 2b bc d0 c0 36 3e 41 da b1 3e 90 bb 06 bf
       -0.010445009 0.1784699 0.34736827 -0.5262995
000060 ce cf 87 3e 28 24 0f 3b 64 37 4a bc 79 70 24 3c
       0.2652573 0.002184162 -0.012342308 0.010036581
000070 92 5c c8 be 76 45 8b bf 96 66 48 3f 06 7a e1 bd
       -0.39133126 -1.0880573 0.78281534 -0.11009602
000080 30 4b d5 3b 44 19 c0 3c b1 5a cc 3c 87 f1 20 be
       0.006509207 0.023449548 0.024945589 -0.15717135
000090 5b 66 b7 bf ca df 09 3f 17 fb c3 3e 02 f9 73 3c
       -1.4328111 0.538571 0.38277504 0.014890911
0000a0 aa e1 24 3b 05 2f 70 3b 45 62 b8 3e 68 1c f0 3f
       0.002515892 0.003664912 0.36012474 1.8758669
0000b0 c7 cf ce be bb 48 60 bf ae a5 85 bc b1 36 a7 3b
       -0.40392897 -0.8761098 -0.016314354 0.0051029553
0000c0 17 a1 06 3c 12 6c 80 3e 67 4c 7f 3f c9 51 06 be
       0.008217118 0.2508245 0.99725956 -0.13117136
0000d0 83 c7 fa be 87 a7 29 bd ab 8f a2 3c 90 fb 24 3c
       -0.4898034 -0.041419532 0.019843897 0.010069743
0000e0 26 c5 bb 3e c5 da 82 3f c0 13 3e bf 44 63 d2 3d
       0.3667385 1.0223013 -0.74248886 0.1027284
0000f0 fb 2a 37 3b cb cc 5e bc 72 cd d6 ba 1d 7f 01 3e
       0.0027949202 -0.013598631 -0.0016388132 0.12646146
000100 f3 5e 45 3d 8d aa 66 be a9 e2 2f 3e f2 d8 8b bd
       0.048186254 -0.22525997 0.17176308 -0.068284884
000110 f0 d2 13 3d 17 17 3f 3c 2a ff 0a bf bd 6e d1 bf
       0.036089838 0.01166322 -0.542956 -1.636192
000120 4b 66 bf 3e be 42 c6 bd 63 06 59 3e 09 b8 32 3e
       0.3738273 -0.09680699 0.21193843 0.17453016
000130 91 99 7c 3d 19 96 42 bf ab f8 df bf e4 80 50 3f
       0.06166989 -0.7601028 -1.7497762 0.8144667
000140 53 69 26 3e 63 9b 46 3d 76 4e 50 3e b4 f5 07 3d
       0.16251116 0.048488032 0.2034243 0.033193305
000150 60 b7 cd bd 75 56 c5 bd bb 9e d4 3e b6 2c a5 be
       -0.10044742 -0.09635631 0.41527352 -0.32260674
000160 a2 34 c7 3d de 85 bb bd 45 f5 06 3c 6b 8e b4 be
       0.09726836 -0.091563925 0.008237188 -0.35264906
000170 42 38 bc bf 32 45 3b 3f 0e 7c 55 3e 56 de 3e 3b
       -1.4704669 0.7315246 0.20848104 0.0029124222
000180 e3 c1 8a 3c 83 1a 82 3c 9c a4 f5 3e a7 39 01 40
       0.016938156 0.015881782 0.4797715 2.0191438
000190 e2 92 30 bf bf ca 68 bf ca bb bb 3d e6 40 4a be
       -0.68974125 -0.90934366 0.09166677 -0.1975132
0001a0 11 13 b9 ba f6 5e df 3e f1 c7 a0 3f 5f 2f a3 be
       -0.0014120062 0.43627137 1.2561017 -0.3187208
0001b0 d3 85 f7 be 38 57 1f bd 33 17 a1 3c bf ea 96 39
       -0.48344287 -0.038901538 0.019664383 0.0002878513
0001c0 72 36 b6 3e c3 87 1a 40 d3 29 68 bf 9d bf 5c bf
       0.35588413 2.4145362 -0.9068882 -0.8622988
0001d0 1d 02 25 3e f9 c0 9d 3e 3c bd 80 3c 8d a1 c7 bd
       0.16114087 0.3081129 0.015715234 -0.0974761
0001e0 28 81 f6 bd 8f 09 d8 bb 25 b2 8e 3d 1b c5 78 3d
       -0.12036353 -0.0065929363 0.06967572 0.06073485
0001f0 81 58 5f bd b5 64 c0 bb 05 32 84 be 66 78 9c bf
       -0.054527763 -0.00587138 -0.25819412 -1.2224243
000200 5e ad 34 3e 1b 60 32 3f f6 43 9c 3c b1 5d 73 bc
       0.1764426 0.69677895 0.019075375 -0.014853881
000210 ab 02 03 bc 6d 81 04 be 6b 39 65 3e 6f 4c 44 bd
       -0.007996242 -0.12939997 0.22385184 -0.047924455
000220 ea 30 09 be 4c 44 12 3d 91 28 88 bd 1d b0 c9 3b
       -0.13397565 0.035709664 -0.066483624 0.0061550275
000230 e7 47 c6 3e c2 66 8e 3f da 12 e1 bd 37 8d 12 bf
       0.38726732 1.1125109 -0.10989924 -0.57246727
000240 46 68 50 bd 7f 9a 12 3d 56 b3 81 3b a9 d0 15 3f
       -0.050880693 0.03579187 0.003958146 0.58521515
000250 12 b7 fd 3f b5 ce 91 be 7f 1e 14 bf a8 8f 8a bd
       1.9821494 -0.28478017 -0.57859033 -0.067656815
000260 69 71 bc be 4b a9 8c bc fc 09 54 be 00 7e a1 bf
       -0.36805275 -0.017170569 -0.20706934 -1.2616577
000270 43 ce dd 3e 25 db bb 3e fe 2b 02 3d a3 39 aa bb
       0.43321428 0.36690632 0.031780235 -0.005194859
000280 67 e7 c6 3a a2 bd b1 3e 53 16 3f 3f d5 7d be 3c
       0.0015175164 0.3471499 0.7464344 0.02325336
000290 39 f1 f0 be ba 6a 69 bb eb 68 51 bc e8 d2 ac 3b
       -0.47059038 -0.0035616593 -0.012781362 0.0052741654
0002a0 60 9c 16 be 95 19 39 bc 26 88 f3 3e df 6a 6f 3f
       -0.1470809 -0.011297603 0.4756481 0.9352245
0002b0 38 b0 59 bd b5 94 9c bc 39 d0 04 be d5 90 f5 bd
       -0.05314657 -0.019113878 -0.12970056 -0.11990515
0002c0 81 76 1f bf 93 1f d3 3d 9b 83 93 3e 41 bf 70 bd
       -0.622902 0.10308757 0.28811345 -0.058776144
0002d0 a2 bc 78 3d 3c e0 00 b9 9d 4a 6c be ec 43 27 bf
       0.06072677 -0.00012290565 -0.23075338 -0.65338016
0002e0 35 d0 85 3e c3 76 29 3e 03 47 37 3d 75 a5 33 bd
       0.26135412 0.1654921 0.044745456 -0.043858964
0002f0 74 39 97 bc c6 af 1e bf a4 aa 01 c0 52 eb f3 3e
       -0.018460013 -0.6198696 -2.02604 0.47640473
000300 9a c9 d9 3e d0 0c 6c 3e 1a eb bc 3e e6 b4 89 3d
       0.42536622 0.23051763 0.36898118 0.06723957
000310 64 6a 1a bf 40 7f be bf 5b 11 67 3f c4 cf 83 3f
       -0.6031859 -1.4882584 0.9026086 1.029778
000320 ce 8b a1 bd 22 34 02 3e 85 f8 32 bd f7 a4 4b 3e
       -0.07887994 0.127152 -0.043694038 0.19887148
000330 cd 82 dd 3e c2 da a0 be 6f 55 c4 bd fd 40 bd 3c
       0.43263856 -0.314169 -0.09586608 0.023102278
000340 5f 6e f5 bc 40 e2 1d 3c 73 74 cc be 13 87 05 c0
       -0.029959856 0.009636462 -0.39932594 -2.0863693
000350 0e 37 74 3f 80 cf 97 3e b1 19 05 3e de 86 fd bc
       0.95396507 0.29650497 0.12998082 -0.030948099
000360 e0 c6 85 3c 65 0d dd 3e 1f 98 0f 40 35 75 46 bf
       0.016330183 0.43174282 2.2436597 -0.77522594
000370 83 d4 01 bf c0 3d 2b 3d a3 ab a7 3d b1 d0 a7 ba
       -0.5071489 0.041806936 0.08187034 -0.0012803284

fc1.bias f4 [32]
000000 10 19 bb 3f 8e 19 9b bf af e2 ad bf d7 0c f5 be
       1.4617023 -1.2117174 -1.3584803 -0.4786136
000010 02 d1 c5 3f fd e6 36 3f 64 26 c2 bf 48 26 a9 be
       1.5454409 0.7144621 -1.5167966 -0.3303702
000020 5d 39 6d bf 13 2a ec be 00 0e 9a 3f 75 f0 cc 3f
       -0.92665654 -0.4612585 1.2035522 1.6010882
000030 c2 dd d5 3e 82 91 c1 3f 22 cc 93 bf a6 15 a2 bf
       0.4177075 1.512253 -1.1546671 -1.2662857
000040 f4 b7 92 bf ec c0 d4 3c 0b 1b 0a 3f 64 07 13 be
       -1.1462388 0.025970899 0.53947514 -0.14358288
000050 b7 01 83 bf 5d 48 bb bf b6 4d 46 3f 6c d6 46 bf
       -1.0234898 -1.4631459 0.7746233 -0.7767093
000060 55 f5 a7 3d 3a e6 e4 3e 1d 1c 85 bd 11 93 dd 3f
       0.0820109 0.447069 -0.06499503 1.7310506
000070 06 b2 7d 3f 6e 67 51 bf 26 e7 ad 3f 6b 60 b6 bf
       0.9909977 -0.81798446 1.3586166 -1.4248174

fc2.weight f4 [16, 32]
000000 aa 42 1d bf 34 4a 84 3f 86 06 04 3f 9d 21 80 3c
       -0.61429846 1.0335145 0.51572454 0.015641028
000010 52 8e 5c 3e 07 92 d7 3e 20 a9 47 be 27 b9 88 bd
       0.21538666 0.42103598 -0.1949811 -0.0667594
000020 a3 b8 50 be 35 eb cc bc b3 10 9a be 08 22 b8 bd
       -0.20382933 -0.0250145 -0.30090865 -0.08990866
000030 8f 2e 9b bd d0 9f 90 3e 18 01 cf 3e fc 7b 56 be
       -0.0757724 0.28246927 0.40430522 -0.20945734
000040 2f d0 95 3f 5f 85 52 3c 22 b7 9c 3d 1d 23 80 bc
       1.1704158 0.012849181 0.07652117 -0.015641743
000050 72 aa 96 be 09 a7 e4 3e 0c a9 22 3e 21 30 20 3e
       -0.29426914 0.44658688 0.15884799 0.1564336
000060 23 0f ad bd dd 50 87 bd 38 ab 62 bc 97 ad 9b be
       -0.08450153 -0.0660722 -0.013834767 -0.30405876
000070 ab 78 72 bd a4 ce af 3d 58 df a5 be 0e 6d f8 3e
       -0.05919711 0.085843354 -0.3239696 0.48520702
000080 80 00 d9 3e 46 6c f4 be e5 5d 3c bf 39 67 0e be
       0.42383194 -0.47738856 -0.7358077 -0.13906564
000090 1a d8 ab 3d c1 43 ba be 7c d1 f9 3e 41 15 f3 bd
       0.083908275 -0.36379817 0.48792636 -0.11869288
0000a0 bf 48 a2 3d 96 76 b4 bd 86 ab fa bc aa dc 98 3e
       0.079240315 -0.08811681 -0.030599367 0.29855853
0000b0 1a 59 25 bd 8d e8 f2 be 0c 3a 86 be f3 36 8d 3e
       -0.040368177 -0.47443047 -0.2621616 0.27580985
0000c0 70 32 3b bf 67 7e 3d bd 77 36 24 bf ca ce c0 3c
       -0.73123837 -0.046263125 -0.64145607 0.023536105
0000d0 0d 5b 95 3e 34 90 1d be 9a 18 87 be a1 19 88 3d
       0.2917103 -0.1538704 -0.26385957 0.06645513
0000e0 fa 85 dd 3c ac d2 bd bc 3a 4a 27 3d 3c 26 67 3e
       0.027041424 -0.023171745 0.040842272 0.22573179
0000f0 ea 72 d5 3d 2d b1 39 3d 27 1b c6 3e a0 7e b8 be
       0.10422309 0.045334984 0.3869259 -0.36034107
000100 56 79 4a 3e a0 3d 52 bf c1 e4 c1 bf 90 86 67 3d
       0.19772848 -0.8212528 -1.5147935 0.056524813
000110 f2 0c dd 3d a3 13 0f bd eb e5 16 bf 2c 9b 4a be
       0.10793485 -0.034930836 -0.58944577 -0.19785756
000120 c4 be 5f 3d 0d 2c c0 3d e6 5a 40 3f d6 24 20 3f
       0.054625288 0.09383402 0.751387 0.6255621
000130 ea 91 e4 3b 3e de b5 3e 01 b8 18 bf 87 d8 8a be
       0.006975402 0.3552112 -0.5965577 -0.27118322
000140 29 2d e0 bf c5 65 d3 3c 74 5c 0e 3d b7 fc 59 3d
       -1.7513782 0.025805363 0.03475614 0.053219523
000150 aa 03 0b be b6 4f 53 bf cd 13 de 3d 1b 70 51 3d
       -0.13575616 -0.82543504 0.108436204 0.051132303
000160 17 cf bd be 13 6e 15 3e 7e 0a 9e bd da 98 45 3f
       -0.3707206 0.14592771 -0.07716845 0.7718636
000170 7c 20 3a bd dd bf 6b 3b de f2 91 3f f4 1e a5 bf
       -0.045441136 0.0035972514 1.1402242 -1.2900071
000180 c9 cd 95 bb c4 fd 7a 3e 98 41 d2 bd 8d cf 2d bd
       -0.0045716506 0.24510866 -0.10266417 -0.042434264
000190 a4 08 b1 3d eb bc 05 3e 54 52 c2 bc d7 0e 13 bb
       0.08644226 0.13060348 -0.023720898 -0.0022439265
0001a0 54 3c 5e bc 83 c9 6e be 04 3f b4 bd 59 f3 65 3d
       -0.013564188 -0.23319058 -0.08801082 0.056140278
0001b0 d0 80 04 3d f0 64 a5 3e 52 18 38 be 01 c2 ac bd
       0.032349408 0.32303572 -0.17978027 -0.08435441
0001c0 3d a9 89 3e df c3 0b 3d 7b 02 e9 3d ed 3b 5f 3b
       0.2688693 0.034122344 0.11377426 0.0034062818
0001d0 bc 66 ea bd ba b3 91 3e 17 af 89 3d d5 ba f9 3d
       -0.11445376 0.28457433 0.06722849 0.121938385
0001e0 f0 86 13 bc 36 e3 50 bd 01 3c 0d 3d fb 41 18 be
       -0.00900434 -0.050997935 0.034481052 -0.1486892
0001f0 7c da 75 3d 6c 14 20 be 51 be 49 be d4 a5 1c be
       0.060022816 -0.1563279 -0.19701506 -0.15297633
000200 93 30 63 3e 1b a0 7a 3f 7f 7d d3 be a6 94 4e bd
       0.22186498 0.9790055 -0.41306683 -0.05043473
000210 fe 9a 11 3e ee 07 9d bc 71 93 a1 3e b1 32 d9 3d
       0.14219281 -0.01916882 0.315578 0.10605372
000220 9e 94 c2 bd a2 20 b2 bb ea ad 42 3f bd 65 19 3f
       -0.09501003 -0.005436019 0.7604662 0.59920865
000230 14 10 99 3d fc 2b 12 bd f5 c7 14 3e 12 51 0d 3e
       0.0747377 -0.035686478 0.14529403 0.13800457
000240 8f dd 88 3f 10 fa a8 bc 68 f9 60 be 79 f0 48 bc
       1.0692614 -0.020627052 -0.21970141 -0.012264364
000250 82 5e c1 3d 05 92 20 bf d9 33 99 3d cf de 91 bc
       0.09441854 -0.6272281 0.07480592 -0.017806439
000260 a1 d2 e7 be 9c 13 ed bd c8 61 b0 3d c6 ce 44 3f
       -0.45277885 -0.11576006 0.086124 0.7687801
000270 4c c9 bd be 5a 8a e1 3b 0b 74 87 3e c7 a2 e4 3c
       -0.3706764 0.006882948 0.2645572 0.02790965
000280 0f aa 43 bf eb e7 ba 3f f6 db 66 3f d2 e8 92 bd
       -0.76431364 1.4602026 0.90179384 -0.07173313
000290 2e f4 28 be 07 63 50 be 0a a8 2b 3f ea a4 35 3d
       -0.16499397 -0.20350276 0.6705328 0.044346727
0002a0 6c 4c 18 3e 4a ad a0 bd 72 73 cf 3d cc 9c bf be
       0.14872903 -0.07845552 0.10129441 -0.37424314
0002b0 11 2f 7a bc 03 7e ba bd bf 1f 22 3f e9 fa d2 bd
       -0.015270011 -0.09106066 0.6332969 -0.103017636
0002c0 a4 5f ea 3f f6 36 ce 3d c3 dd 3a 3c b1 ce 84 3d
       1.8310437 0.10069077 0.011405411 0.06484736
0002d0 ea b7 2b 3d 50 47 51 3e c8 c4 bf bd 22 cd 21 3a
       0.04192344 0.2043736 -0.09363705 0.000617223
0002e0 04 50 ae be 28 ea 04 3e 6b 1b a0 bd e9 3e 7b be
       -0.34045422 0.12979949 -0.078177296 -0.24535717
0002f0 a8 41 4a bf 2d 02 0b bc 3b d2 12 bf 8d 35 61 3f
       -0.79006433 -0.008484405 -0.57352036 0.87972337
000300 05 35 63 bf 42 b2 ec 3f 44 b1 e9 3f b1 7b cb bc
       -0.88752776 1.84919 1.8257222 -0.024839254
000310 e6 05 27 be d8 82 9e be 19 85 42 3f cc 73 c3 bc
       -0.16310844 -0.309592 0.7598434 -0.023858927
000320 f7 30 8a 3d 6c e4 34 3b 46 13 f2 be 69 c4 0c bf
       0.067476206 0.002760197 -0.4728033 -0.549872
000330 9d 55 98 3d 1a 09 98 be cd a6 90 3f 8e 60 56 3e
       0.074382044 -0.29694444 1.1300904 0.2093527
000340 cf ca 11 40 64 48 30 3d 5e 16 88 be 5e f0 be bc
       2.2780035 0.043037787 -0.26579565 -0.023307975
000350 62 79 26 3e 29 86 6e 3f ab 63 43 be 7d b8 54 3c
       0.16257241 0.9317346 -0.19080989 0.012983439
000360 e9 48 c5 bc 92 20 f8 bd 27 59 a3 3d 66 df 35 bf
       -0.024082618 -0.12115587 0.07975989 -0.71044004
000370 ee a4 0e bf 0a 9b 46 bd ed 4c ac bf 86 4e d0 3f
       -0.5572041 -0.0484877 -1.3460976 1.6273963
000380 3f ac 8e bf b7 d5 f2 3f ff 59 e4 3f 3b 3f 4f bd
       -1.1146315 1.897147 1.7839965 -0.05059741
000390 0e 51 1f be 22 24 33 be 66 ed 04 3f b3 da 29 3d
       -0.15558264 -0.17494252 0.5192474 0.041468333
0003a0 93 cd 12 3e 10 56 4d 3d cc 7d 92 be b6 20 11 bf
       0.14336233 0.050130904 -0.286116 -0.5669054
0003b0 c9 29 5c 3d 0b 59 82 be 08 bc 8f 3f 0c 63 2f 39
       0.053750787 -0.2545856 1.1229258 0.00016726198
0003c0 fb 06 06 40 4d 60 b4 bc fc dc 7f be c9 15 90 3c
       2.094176 -0.022018576 -0.24986643 0.017588513
0003d0 70 2d 1d 3c 56 3d 61 3f 30 0c 1b be 64 75 a0 3d
       0.009593353 0.87984216 -0.15141368 0.078348905
0003e0 37 a9 f2 bd fa f6 b9 bb dc dd f9 bb 49 e7 40 bf
       -0.118486814 -0.005675194 -0.0076253247 -0.75352913
0003f0 da b8 60 bf ca bc d6 bd 62 31 97 bf 05 99 a9 3f
       -0.8778206 -0.104852274 -1.1811945 1.3249823

fc2.bias f4 [16]
000000 99 ee 51 bf 88 f4 7c 3f 52 fe 91 bd 1f fa 2d 3d
       -0.82004696 0.98810625 -0.07128586 0.042474862
000010 5c b2 bb 3e 02 27 73 bf 4b 09 2a bf cc 6f ba bf
       0.36659515 -0.94981396 -0.6642043 -1.4565368
000020 2e 91 64 3f 75 43 83 bf a5 cd 26 3f da a8 79 3f
       0.89284027 -1.0254961 0.6515754 0.9752327
000030 04 fd 0a 40 85 85 b2 3e 85 fc 70 bf d9 18 5c bf
       2.1716928 0.34867492 -0.94135314 -0.85975415
