python/model_pth/jus_cnn_se/best_model4.pth (torch, 998159 bytes, 134 tensors)

mobilenetv3_like.first_conv.conv.weight f4 [16, 3, 3, 3]
000000 00 8f a3 3e 39 81 d5 3e 9b 4d d6 3e 80 3f d5 3d
       0.31945038 0.41700152 0.41856083 0.10412502
000010 2a f1 6b 3e 77 c6 4a be 10 c6 5f 3e 1a ea 03 3f
       0.23041216 -0.19802271 0.21852899 0.51529086
000020 69 f2 bb 3d 47 26 9d 3e 58 d6 03 3f a6 f7 4f 3e
       0.091770954 0.30693266 0.5149894 0.20309314
000030 7a 04 34 3d 2d b0 89 3e 0f 30 19 be 92 c5 58 3d
       0.04394958 0.26892224 -0.14959739 0.052922793
000040 e3 2e 9f 3e 5b 2e 5b 3e f0 44 da 3e c0 bc 04 3f
       0.3109046 0.21404402 0.4263072 0.5185051
000050 2d d3 5a 3e 16 7c 50 3e b0 c1 c1 3e 48 e0 4b bd
       0.2136962 0.20359835 0.37843084 -0.04977444
000060 90 93 72 3d ec 13 f4 3e 30 37 4d 3e 42 2a 72 3e
       0.059222758 0.4767145 0.20040584 0.23648933
000070 46 27 07 3f 85 89 06 3e ac 59 92 bd 42 c6 28 3f
       0.527943 0.13138397 -0.0714601 0.6592752
000080 9c 2d 84 be 03 bc c3 3d 85 ac 12 3f 9c 93 f2 bc
       -0.25816047 0.09557345 0.57294494 -0.029611401
000090 d4 8f b6 3e ae 78 b4 3e 38 d0 eb 3d b4 a1 ed 3d
       0.35656607 0.3524832 0.11514324 0.11603108
0000a0 60 bb 3d 3f d5 2d 87 bd cb 0f 56 3e d4 c0 25 3f
       0.74114037 -0.06600539 0.20904462 0.6474736
0000b0 74 3b af 3c 04 66 2c 3e 77 ba 9f 3e fd b1 01 3e
       0.021390654 0.16835791 0.3119695 0.12665553
0000c0 b6 c7 1d 3d 3b 42 f2 3e aa 26 19 bd 69 ea 1f 3e
       0.038520537 0.47316155 -0.03739039 0.15616764
0000d0 bc 2b 18 3f 7d 05 7c bd 76 fc f9 be b7 3e 9d bf
       0.59441733 -0.06152867 -0.48825425 -1.2284764
0000e0 e9 e2 79 be f9 d5 dc bd a0 3b 47 bf f7 d3 f0 be
       -0.24402966 -0.107829995 -0.77825356 -0.47036716
0000f0 69 f1 04 3e 52 fe a4 be 61 34 f0 bd b8 10 fa be
       0.12982716 -0.3222528 -0.117287405 -0.4884088
000100 f9 8c 93 bf cf 25 d7 be 28 ac 74 be 9b 72 25 bf
       -1.1527396 -0.42021033 -0.23893797 -0.64628
000110 32 cf 04 bf c3 56 dd 3d 0a 9b a8 be 79 12 46 be
       -0.51878655 0.10807564 -0.32930785 -0.19342984
000120 fc 6a ac be 24 5b 9d bf b9 45 9b be a1 9f ca be
       -0.33675373 -1.2293439 -0.30326632 -0.39574912
000130 ac 84 0b bf c8 53 80 be f0 d9 5c 3e cc 04 c8 be
       -0.54499316 -0.2506392 0.21567512 -0.3906616
000140 bf 4e 52 be 22 00 08 bf be 1b 24 bd 73 ae 56 bf
       -0.20537852 -0.531252 -0.04006552 -0.8385994
000150 a2 04 61 be c9 94 93 be 00 2d 09 be 92 e8 e2 3e
       -0.21974424 -0.28824452 -0.13396072 0.44318062
000160 cf 60 d5 be d6 0d 1e 3e a5 27 28 bf dc 70 2b be
       -0.41675422 0.15434965 -0.6568549 -0.16742271
000170 49 3d 14 bf 17 2b 37 be 73 0f 8b be 37 0f 3a be
       -0.57906014 -0.17887531 -0.27160224 -0.18169867
000180 2f 5c bd 3e 3e cb 9b be 38 65 77 3b 26 60 34 bf
       0.36984393 -0.304285 0.003774954 -0.7045921
000190 d2 12 20 be 78 ae 4a bf ce bf 5e be 57 07 ea bd
       -0.1563218 -0.7917247 -0.21752855 -0.11427181
0001a0 53 e4 7c 3d 5a 6c 81 3e e5 2d 7c be de fd 36 3d
       0.061741184 0.25277978 -0.24626882 0.0446757
0001b0 de b6 ac 3e 9e e3 1c 3e a4 52 81 3e e9 8a b9 3e
       0.33733267 0.15321204 0.25258362 0.36238793
0001c0 4c 34 e2 3e 28 8b a6 3e 81 b5 b1 3d d2 c7 27 3e
       0.44180524 0.32528043 0.08677197 0.16384819
0001d0 ae d7 14 3d 89 d5 30 3e 83 9d a0 3e 9e 88 84 3e
       0.0363385 0.17268957 0.31370172 0.2588548
0001e0 45 7b e9 3e 9b 66 bb 3e ef cb 7d 3e 1d 72 28 3e
       0.4560186 0.3660172 0.24784826 0.16449781
0001f0 20 68 0b 3e f7 43 38 be cf cd af 3e 9e c5 1b 3e
       0.1361394 -0.17994677 0.34336707 0.15212104
000200 d6 5f bc 3e 21 5a 0c 3f 80 c5 9e 3e a8 a0 d0 3e
       0.36791867 0.54825026 0.31010056 0.4074757
000210 ad 59 15 3e 6d 65 43 3e 2d 37 42 3a e1 3b db 3d
       0.1458499 0.1908166 0.00074087345 0.1070478
000220 15 16 ad bd e2 82 02 3e 3a fe 3f be e7 26 e3 3c
       -0.084514774 0.1274524 -0.18749323 0.027728511
000230 c4 67 ab be 70 ff 02 bf 8e 14 1d be bc 08 47 bf
       -0.33477604 -0.51171017 -0.15339872 -0.777477
000240 e1 d8 2f 3e 4f 95 0f be f8 3f 19 3e 45 7e 80 be
       0.17172576 -0.140218 0.14965808 -0.25096336
000250 de c7 32 3c f2 82 bd be 0b 56 d8 be f4 db 8f be
       0.01091191 -0.37013966 -0.42253146 -0.28097498
000260 2b dc 1f bf ed 98 a5 3e 94 0e 4c 3d f0 68 3a 3e
       -0.62445325 0.32343236 0.04981859 0.18204093
000270 3b 56 f0 bd d3 c2 aa bd 35 2e bb be 57 eb 10 bf
       -0.11735197 -0.08337941 -0.3655869 -0.566091
000280 44 af 84 be 28 e8 35 bf 47 a4 a4 be f3 13 0a bf
       -0.25914967 -0.7105737 -0.32156584 -0.5393669
000290 e0 d2 de be 7e 33 8f be 31 60 4b be cd 70 b5 be
       -0.4352026 -0.27968973 -0.19860913 -0.35437623
0002a0 fa e5 90 3d 13 59 f3 be a7 ac 99 be 13 7b c0 be
       0.070751145 -0.47528896 -0.30014536 -0.37593898
0002b0 34 73 e7 be 94 c4 92 be 14 16 cb be 98 0d c0 be
       -0.4520508 -0.28665602 -0.39665282 -0.3751037
0002c0 cd af 68 be 4c c4 90 3d a6 9b 89 be 84 f8 67 bd
       -0.22723313 0.07068691 -0.26876563 -0.056633487
0002d0 fd ca 11 bf 1c f3 d1 be f0 ee 5f be 99 d0 87 be
       -0.5695036 -0.4100579 -0.21868491 -0.26526335
0002e0 d4 7c 8c be ef 72 c5 be d7 23 64 3d 93 e5 c3 be
       -0.27438986 -0.3856425 0.055698242 -0.3826109
0002f0 ab 91 4f be e8 ec 17 bf fe 6d 21 be 2e 06 63 be
       -0.20270412 -0.59345865 -0.15764615 -0.22170326
000300 86 33 b5 be 2a 72 69 be 89 8b 02 be 8d 87 55 3d
       -0.35390872 -0.22797456 -0.12748541 0.052131224
000310 10 3d 5a be 17 16 fe 3d 8a e2 05 bf e0 6d ba 3d
       -0.21312356 0.12406557 -0.52298796 0.09102988
000320 2c a0 73 be ec 92 93 be 93 0c b2 be 3f f0 25 be
       -0.2379157 -0.2882303 -0.34775218 -0.16204928
000330 fa fd 60 3e e4 08 3c be dd ac c5 3c 6b 85 22 bf
       0.21971884 -0.18362767 0.02413028 -0.6348483
000340 a8 df e7 bd 32 c1 87 be 44 6b 18 be 23 f6 36 be
       -0.11321956 -0.26514584 -0.14884669 -0.17867331
000350 f5 1f 78 3d 85 8f 9d 3e d4 d7 99 be 60 4d 99 bd
       0.06057735 0.3077356 -0.30047476 -0.07485461
000360 33 7f 0a 3f 2e 19 1d 3e a0 02 04 3f 27 5f 82 bd
       0.5410034 0.15341637 0.51566505 -0.06365805
000370 75 8c 4b 3c f7 cb 07 3e 43 2c fd be bd af 40 3f
       0.012423624 0.132614 -0.49447832 0.75268155
000380 4a 25 04 3d 73 16 0a 3f ff 45 82 3e a6 40 ba 3e
       0.032262124 0.53940505 0.25444028 0.36377448
000390 39 a5 03 be 8b 26 16 3d 73 cf 8e 3e 54 52 dd be
       -0.12855996 0.03665785 0.27892646 -0.43226874
0003a0 2b 15 49 3f 19 a5 bb 3b 9c 37 cc 3e 99 49 b3 3e
       0.78547925 0.0057264683 0.39886177 0.35017088
0003b0 9f 9d 98 3e 84 55 23 bd b0 ba 2a 3e 8b 63 e9 3d
       0.29807755 -0.039876476 0.16672778 0.113959394
0003c0 11 e3 17 bf e8 78 27 3f fc 91 33 3d 63 c4 33 3e
       -0.5933085 0.65418863 0.043840393 0.17555384
0003d0 11 92 13 3f a6 ae 39 3f b0 32 89 3e e7 85 f2 3e
       0.57644755 0.7253212 0.26796484 0.47367784
0003e0 66 24 bc 3d 61 2b 82 3c 8c b3 da 3e 44 22 8a bd
       0.0918663 0.015889825 0.42715108 -0.06744817
0003f0 56 55 ba 3e c6 59 2c 3f a3 f9 2a 3f 05 0e b4 3e
       0.3639323 0.67324483 0.66787165 0.35166946

mobilenetv3_like.first_conv.bn.weight f4 [16]
000000 6e 7f 59 3e ee c2 c8 3e 6b e7 4b 3f 0a 40 83 3f
       0.21240017 0.3921122 0.7964999 1.0253918
000010 66 ad 07 3f 55 87 a6 3f c7 e9 6e 3f b4 be 37 3e
       0.5299896 1.301005 0.93325466 0.17943841
000020 a2 e0 93 3f b4 6c 92 3f e5 05 75 3f d8 52 7e 3f
       1.1552927 1.1439424 0.9571212 0.9934516
000030 ea 0d b8 3f 1a 57 ed 3e 6d e2 af 3f e5 61 28 3f
       1.4379246 0.46355516 1.3740975 0.65774375

mobilenetv3_like.first_conv.bn.bias f4 [16]
000000 61 29 7a be 59 29 09 bf cc 77 b3 3d ad ee 72 3e
       -0.24429847 -0.53578717 0.08763084 0.2372386
000010 dc 81 be be be 01 01 3d 3f e0 34 3e 3b 76 5b 3f
       -0.3720845 0.031495802 0.17663668 0.8572728
000020 cd cd 09 3f 8c fc 5f be 74 bf f6 3e d4 cb e9 3d
       0.5382965 -0.21873683 0.48192942 0.1141583
000030 f9 0d 93 3d a0 2f bf be 87 57 f2 be 48 bd 70 be
       0.071803994 -0.37341022 -0.47332403 -0.23509705

mobilenetv3_like.first_conv.bn.running_mean f4 [16]
000000 12 da dc 3e 31 71 d5 3e 55 9d 3f bf 42 84 c8 be
       0.43135124 0.4168792 -0.74849445 -0.39163405
000010 6b 61 e5 3e d9 d7 b3 be 4e 66 09 bf 0d bf 9c be
       0.44800887 -0.35125616 -0.5367173 -0.3061451
000020 4c e1 a0 3e 73 10 16 3f b7 7f 9a be bc e4 c7 3e
       0.31421888 0.5861885 -0.30175564 0.39041698
000030 27 98 6e 3e 07 24 ad 3e 68 40 e1 3e ca 18 e5 3e
       0.23300229 0.3381655 0.4399445 0.44745475

mobilenetv3_like.first_conv.bn.running_var f4 [16]
000000 c8 11 1d 40 c0 68 13 40 eb 91 ed 40 46 69 02 40
       2.4542103 2.3032684 7.4240623 2.0376754
000010 11 af 29 40 c3 b5 d2 3f 68 4b 73 40 e9 0c 9f 3f
       2.6513102 1.6461719 3.8014774 1.2425815
000020 e5 4b a8 3f f5 44 91 40 14 ab 9f 3f 05 98 01 40
       1.3148161 4.5396676 1.2474084 2.0249035
000030 ca f0 40 3f b6 cd c1 3f c5 7f 24 40 b7 da 28 40
       0.75367415 1.5140903 2.5702984 2.6383493

mobilenetv3_like.block1.depthwise_conv.0.conv.weight f4 [16, 16, 1, 1]
000000 97 bf a8 3d cd be 8d 3e b7 a7 d9 bd 4e 20 b7 bd
       0.08239668 0.27684632 -0.10627692 -0.089417085
000010 b7 a4 7f 3c 48 f0 1d 3e c6 b3 14 3e 73 a1 99 3d
       0.015603236 0.15423691 0.14521703 0.07501497
000020 88 4e 6c 3e b0 31 7c 3d f2 b2 74 3d 1d f2 1d 3e
       0.23076832 0.061570823 0.059740968 0.1542439
000030 87 5c 44 3d dd d5 91 bd cc ba 36 3d ce 68 8f 3d
       0.047939803 -0.07120869 0.044611737 0.07002412
000040 b3 04 f0 3e 05 7b aa 3e c4 bc 2c bf 7e 31 9d be
       0.46878585 0.3329698 -0.67475533 -0.30701822
000050 e5 11 0b 3f f1 a2 6a be 60 79 ee be 1a 2e e8 be
       0.5432418 -0.2291372 -0.46576977 -0.45347673
000060 c8 81 fe bd 13 35 e6 3e 6a 5a fd be d9 0b b9 bd
       -0.124270976 0.44962367 -0.49483043 -0.09035463
000070 08 fe a1 3e cb bb 75 bd 61 81 ba 3e 05 d7 35 3e
       0.31639123 -0.059993546 0.36426833 0.17757805
000080 19 ec dd bd ae d7 5d ba f3 4c d5 bd 46 20 7e bd
       -0.10836048 -0.000846262 -0.104150675 -0.062042497
000090 3b de bb be 34 54 8f 3b 15 f3 b7 3e 8e 18 f3 3c
       -0.36692986 0.0043740515 0.35927644 0.029674795
0000a0 de 9e 43 be 5c a3 09 bf fa e9 2c bd fe 7d b8 be
       -0.19103572 -0.5376489 -0.042215325 -0.36033624
0000b0 f1 91 d0 be 8b d8 94 be 0b 5c c8 bd 43 82 89 be
       -0.40736344 -0.2907146 -0.09783181 -0.26857194
0000c0 78 ed 48 be c2 48 23 be 96 c0 54 be 7a 13 33 bf
       -0.19621837 -0.15945724 -0.2077659 -0.69951594
0000d0 4f 1c 6c be 49 a0 a6 3e dc f4 0d bf 2d e7 c2 be
       -0.23057674 0.32544163 -0.5545175 -0.38066998
0000e0 f3 8b 72 3d 2a f5 d7 be 38 04 aa 3e eb 4c 4e be
       0.059215497 -0.42179233 0.33206344 -0.2014653
0000f0 f1 ae 97 3e 46 1c f0 be f8 a6 4e bf b5 e5 22 bd
       0.29625657 -0.4689657 -0.80723524 -0.039769847
000100 5f 73 1d bd e8 32 a5 bd 7a f8 c5 3c 4a c0 94 be
       -0.038440105 -0.0806635 0.024166334 -0.29052955
000110 98 a7 ad 3e 04 8e a1 be 87 d7 99 3e d9 8d fa be
       0.33916926 -0.31553662 0.30047247 -0.48936346
000120 34 4b 6e be 30 e8 42 3d 95 c1 9c be 6b 3a 1f 3e
       -0.23270875 0.047584713 -0.3061644 0.15549628
000130 90 06 ec 3e 46 36 95 3e c9 87 ba 3f fd cd 42 be
       0.46098757 0.2914297 1.4572688 -0.19023891
000140 1d 07 9a 3e 0a d9 98 3c 20 2a 57 bd 07 c0 3b 3d
       0.30083552 0.01865818 -0.052530408 0.04583743
000150 c2 dd 75 3d d3 54 07 be 7f 3b 67 3e b7 19 27 be
       0.060025938 -0.13215952 0.2258129 -0.16318403
000160 98 85 13 3e af 63 d4 3e ae 8a 12 bf e1 be fd 3d
       0.1440643 0.41482303 -0.5724286 0.12389923
000170 95 f9 f9 3d ab 4c 08 3e 72 e4 38 3e bd 20 4f 3d
       0.12205807 0.13310497 0.18055895 0.05056833
000180 e6 4a a1 3e 3f de 72 3e 0c 01 4a be 82 fa 84 be
       0.31502455 0.23717593 -0.19726962 -0.25972372
000190 13 6f 88 3e 91 18 c8 3a 48 bb 8a be b3 9a 11 be
       0.26647243 0.001526611 -0.2709601 -0.1421917
0001a0 6f ec 48 bd ba 6a 2c 3e e6 79 e6 3d 2d 97 9d 3d
       -0.049053606 0.16837588 0.11253719 0.0769485
0001b0 8c 5d b4 3d 94 c6 b8 3d ad fd 1f be e8 d6 0a bd
       0.08806905 0.09022251 -0.15624113 -0.033896357
0001c0 b1 8f 22 be b4 17 a1 bd b7 e2 e9 3e 62 fb c0 3d
       -0.15875126 -0.07865849 0.45680782 0.094229475
0001d0 ae 93 8a be 31 eb ec 3d f2 74 bb 3e c9 79 63 3d
       -0.27065796 0.11568297 0.3661266 0.055536065
0001e0 68 61 9e bf 73 a1 ae be 9d 17 c6 be 60 ca 84 bf
       -1.2373476 -0.3410755 -0.3868989 -1.037426
0001f0 43 cf 52 be bd 92 10 be 1a b2 74 bd 68 ba 2a bf
       -0.20586877 -0.14118476 -0.059740163 -0.66690683
000200 21 e1 cb 3e 54 41 65 3e e8 fa 30 3e 15 bb 1a 3c
       0.39820197 0.22388202 0.17283213 0.009444018
000210 da a4 0f 3f 0f aa 22 3e 60 d2 ba 3e 8d b8 0d bd
       0.5611092 0.15885185 0.36488628 -0.03459983
000220 c3 bf b0 3e 3b 8e 16 3f dd 63 8e be 3c 38 2c 3e
       0.34521303 0.58810776 -0.27810565 0.16818327
000230 76 a6 7b 3e 7d cd d7 3e c0 69 11 3f 2b a6 5a 3d
       0.24575219 0.42148963 0.56801987 0.053381126
000240 1f e3 b6 3d 80 81 1e 3d 38 f5 c9 be c9 e1 2c bf
       0.08930039 0.03869772 -0.394449 -0.6753202
000250 2d c2 f9 3d fd a8 0a 3e d4 43 43 bf 6b 44 e4 be
       0.12195239 0.13541026 -0.7627537 -0.4458345
000260 30 00 18 3e c4 09 84 3e 02 23 d0 3e 09 91 e3 bd
       0.14843822 0.257887 0.4065171 -0.11111648
000270 eb ef 97 3e ba 06 84 3e b6 13 90 3e f2 16 50 3e
       0.2967523 0.25786382 0.28140038 0.20321253
000280 32 bb cd 3e db ef 0a bd e0 c3 c3 3e cc 9d 7c 3d
       0.4018188 -0.03392015 0.38235378 0.061673924
000290 59 e6 85 bd 79 06 27 bb 77 bc 9b 3e b9 8c 04 3e
       -0.06538076 -0.0025486036 0.30417225 0.12944306
0002a0 ce 84 f7 3c fb 19 dd 3e 4b 21 1b be 81 d5 12 bc
       0.030214693 0.43183884 -0.15149419 -0.008962036
0002b0 70 6d 75 bd 75 00 26 3d 18 82 7c 3e 6e c8 1a 3e
       -0.05991882 0.04052778 0.24659002 0.1511552
0002c0 e4 bf 37 be 36 cc d1 bd e5 c2 59 be eb 44 a0 be
       -0.17944294 -0.10244028 -0.21265753 -0.3130258
0002d0 0e c5 5e bb 15 d5 94 3e 89 45 b1 be 47 21 f2 be
       -0.0033991965 0.2906882 -0.34623364 -0.47291014
0002e0 bc 60 c5 3e c0 00 2b 3e 54 8d ed 3e fd 00 60 3d
       0.38550365 0.16699505 0.46396887 0.054688442
0002f0 27 4f c0 3e 9d 15 5d bc eb 75 20 3e 35 a1 17 3e
       0.37560388 -0.013493923 0.15669982 0.1480759
000300 5a 62 60 bd a7 3d ef bd 8a 66 d9 3e dc cc 4d 3f
       -0.054781295 -0.11681681 0.42461044 0.80390716
000310 44 1c aa 3d 39 4c 0e bf 32 8a bd 3e 5f d8 fd 3e
       0.083061725 -0.55585057 0.37019497 0.4957914
000320 1f 82 25 bf 3f d2 1a 3d 20 07 b4 be e5 2a 9e be
       -0.64651674 0.037798163 -0.35161686 -0.308921
000330 38 7f 4d bf 22 1d 2d 3c d1 2d 70 3d 6b 34 d6 be
       -0.80272245 0.010566028 0.058637444 -0.41836867
000340 52 96 47 be c1 d7 de be 3d 83 c4 bd b1 3c 39 3d
       -0.19490936 -0.43523982 -0.09595344 0.045223895
000350 5b 52 6b be 4c a9 41 bf a8 34 29 be 1b f5 41 3e
       -0.22980635 -0.7564895 -0.16523993 0.18941157
000360 70 b9 77 be d2 bb e1 be 2b fb 2a bf c9 d0 c8 3d
       -0.24191833 -0.44088608 -0.667895 0.098054476
000370 de d9 6c bf b0 d1 b1 be 86 3f ba be ed 08 a8 3d
       -0.9251994 -0.3473029 -0.3637659 0.082048275
000380 c6 cc 3b 3f de d4 52 3f a0 4a 94 3d 03 f3 14 3e
       0.73359334 0.8235606 0.07240796 0.14545827
000390 3d d2 16 3f 08 c2 71 3e 5a b6 19 3f ff e8 68 3d
       0.5891455 0.23609173 0.6004387 0.056862827
0003a0 7b 76 18 3f 47 1e be 3f 41 25 b6 be 87 a4 fc 3d
       0.59555787 1.485299 -0.35575297 0.123360686
0003b0 fd 7a 9c 3e 6d 85 a2 3e f1 76 0b 3e 63 88 b9 3e
       0.30562583 0.3174242 0.13619591 0.36236867
0003c0 69 da 3a be 35 9b 86 be 59 45 94 be d3 cc 8d be
       -0.1824738 -0.2629029 -0.28959158 -0.2769533
0003d0 d3 ed ef be bd d1 13 3d 4b 75 84 3c 01 77 86 be
       -0.46861133 0.036088694 0.01616921 -0.26262668
0003e0 16 0c a7 be b3 e4 9f be d1 11 ec 3d 39 c5 38 bf
       -0.32626408 -0.3122917 0.11526836 -0.7217594
0003f0 1d 33 06 be 86 17 75 be 62 6e 45 be 53 b1 ad be
       -0.13105436 -0.23934755 -0.19280389 -0.3392435

mobilenetv3_like.block1.depthwise_conv.0.bn.weight f4 [16]
000000 0e c5 4f 3f 73 0e b9 3f 63 fc 59 3f 27 25 85 3f
       0.81160057 1.4457535 0.85150737 1.0401963
000010 c0 3c 09 3f 56 cc 4c 3f e6 a4 3f 3f cc b5 28 40
       0.5360832 0.7999929 0.7486099 2.636096
000020 c5 7f 6f 3f a4 24 25 3d 3c c9 86 3d ef f5 86 3f
       0.93554336 0.040318146 0.06581351 1.0543803
000030 f8 d2 be 3f 95 5c 9b 3f ad ee 38 3f b7 4a c9 3e
       1.4908133 1.2137629 0.7223919 0.39314815

mobilenetv3_like.block1.depthwise_conv.0.bn.bias f4 [16]
000000 69 cd 8d b8 68 a5 86 bc 30 2e 99 3d d1 d4 b1 be
       -6.7616646e-05 -0.016436294 0.07479513 -0.3473268
000010 50 d0 00 bf 8e 63 aa be b1 bb cf bc 68 8c b2 3d
       -0.5031786 -0.3327908 -0.025358053 0.087181866
000020 cd 78 0f bf a2 a7 ba be 90 de 73 bf 50 64 88 3c
       -0.560437 -0.3645602 -0.9526148 0.016649395
000030 fd 92 ba bb f2 8f d2 3d c9 94 0e bf cf 68 08 3f
       -0.005693792 0.10281362 -0.5569578 0.53284925

mobilenetv3_like.block1.depthwise_conv.0.bn.running_mean f4 [16]
000000 e8 68 c5 3e 3b fd 77 bf 30 c0 0b bf dc c4 77 bf
       0.385566 -0.96870774 -0.5459013 -0.9678476
000010 4d 87 34 be 59 87 06 be af 0e 82 be f1 35 90 bf
       -0.17629738 -0.13137569 -0.25401828 -1.1266462
000020 90 d1 52 3f 58 83 d1 be 74 df f8 3e 43 12 08 3e
       0.82351017 -0.4092052 0.4860798 0.13288216
000030 a1 ee 02 be 7b fb b3 bf d2 f8 ac 3f 41 46 86 bf
       -0.12786342 -1.4061121 1.3513434 -1.049019

mobilenetv3_like.block1.depthwise_conv.0.bn.running_var f4 [16]
000000 e1 ee d7 3e e0 60 59 40 04 3c 98 40 a3 b7 cc 3f
       0.42174438 3.3965378 4.757326 1.5993541
000010 06 6d cb 40 44 c0 e1 3f fd 07 38 3e 0f e3 5b 41
       6.3570585 1.76368 0.17971797 13.742934
000020 5e 30 da 40 cd 27 12 40 ce 40 03 3f ea e1 07 40
       6.818404 2.2836792 0.5127076 2.1231637
000030 74 9f b8 40 12 e0 ab 40 5a 50 53 41 78 99 9d 40
       5.7694645 5.3711023 13.207117 4.924984

mobilenetv3_like.block1.depthwise_conv.1.conv.weight f4 [16, 1, 3, 3]
000000 96 f4 f4 3d ee 81 71 bd 7b ec 01 be a4 f9 b0 be
       0.119607136 -0.0589618 -0.12687866 -0.3456546
000010 a9 27 f9 3c 6b 1f 41 be 25 68 84 be b8 58 1e bd
       0.03041442 -0.18859641 -0.25860706 -0.038658828
000020 f3 ec 0a be fb 90 5b 3e 82 b4 e9 be c7 a9 29 3e
       -0.13566951 0.21442024 -0.4564553 0.16568671
000030 21 90 f1 bd 30 15 3f bf 13 49 14 be 63 07 3e be
       -0.117950685 -0.74641705 -0.14481 -0.18557505
000040 14 8d 9c bd 9e 97 48 3e b7 92 9a be 01 ff 52 bf
       -0.07644096 0.19589087 -0.3019006 -0.82420355
000050 ee fc 2e be e8 dc 12 3d fd 30 7c 3e e7 7d ab be
       -0.17088673 0.035855204 0.24628063 -0.33494493
000060 bf a4 6d 3e e0 18 43 be 41 a9 11 bd 86 8a 97 be
       0.23207377 -0.19052458 -0.035561804 -0.29597872
000070 43 2e 82 be d8 ad ab bd 12 76 4f 3d 19 51 ca 3e
       -0.2542592 -0.083827674 0.05064971 0.39514998
000080 50 3d 8a be a7 90 1c bf c7 0f 56 bf 82 3f 34 bf
       -0.26999903 -0.6115822 -0.83617824 -0.70409405
000090 3b 41 0c 3f 19 fa 8a be dd bd 86 3e ae 0d 8f bd
       0.54787034 -0.27143934 0.2631673 -0.06985031
0000a0 49 df 2a bf 54 a5 7a 3d 29 8d 0c 3f ea 75 90 3e
       -0.66746956 0.061192825 0.54902893 0.2821496
0000b0 6e b0 69 3f 4d 85 b3 3e a7 2e b9 bd f0 13 4a 3d
       0.91284835 0.35062638 -0.09042101 0.04933542
0000c0 69 2c 98 3e 6a c0 fd 3e af 62 63 3e 65 1a 27 3d
       0.29721382 0.49560863 0.22205614 0.040796656
0000d0 a5 ab 83 3e 81 b8 b7 3e dd 25 78 be b0 67 37 be
       0.25716892 0.35882953 -0.24233194 -0.17910647
0000e0 b1 39 8b 3d b8 80 b5 be 9a 90 94 bd a7 93 7b bd
       0.06798113 -0.35449767 -0.07254143 -0.06142011
0000f0 62 58 85 be b4 30 5d be d2 a6 b2 3c d6 84 51 3c
       -0.26043993 -0.2160061 0.021808062 0.012788018
000100 bf e2 da bd af 36 10 3f 76 5d 5b bc fc ef 61 bf
       -0.1068778 0.5633344 -0.013388982 -0.8825681
000110 94 17 be bd c6 45 80 3d d7 9d b1 bf 6f 6a b4 3d
       -0.09281841 0.06263308 -1.3876294 0.08809363
000120 5b 3c b9 3e 50 33 13 3f fa a2 84 3e 93 9f f2 3e
       0.3617886 0.5750017 0.2590559 0.4738737
000130 af ad 35 3f 5a 46 1f 3e 7e 4c b7 3e a0 6b 34 3e
       0.70968145 0.1555418 0.35800546 0.1761918
000140 d0 ed d3 3e f0 7e 3d 3f 55 d6 1c 3f 28 7c 01 3e
       0.41392374 0.74021816 0.61264545 0.12645018
000150 68 2e 4e 3e d7 7a ab bc dc 02 3e be e9 6c bc 3e
       0.2013489 -0.020932598 -0.18555778 0.36801842
000160 47 68 22 3d 0d 60 60 bc c1 e7 a0 3d e6 2c c0 3e
       0.039650228 -0.013694775 0.078567035 0.37534255
000170 b7 b0 a6 bc a0 c6 69 3e c8 71 4b 3e 71 56 0b 3e
       -0.020347936 0.22829676 0.19867623 0.13607194
000180 b3 6c d5 3e 1f 57 f2 3e 29 b4 58 3e 7f 9a 68 bd
       0.41684493 0.47332093 0.21162476 -0.056787964
000190 88 74 23 3f 2b c7 51 be 63 3c 47 3e be dd b1 3e
       0.6384969 -0.20486133 0.1945663 0.34739488
0001a0 9c 1b 19 3e 3c 6c 7d 3e f8 44 30 bd 69 66 4c bc
       0.14951938 0.2474832 -0.043034524 -0.012475588
0001b0 d4 dd c4 bc 6c 17 f3 be d7 0b 71 3e 29 6f 1f 3f
       -0.024031557 -0.47478807 0.23539673 0.6227899
0001c0 2b 73 17 bf de 4f c4 be 59 4d 03 bf e6 65 d0 3e
       -0.5916011 -0.38342184 -0.512899 0.40702742
0001d0 64 57 22 bf 03 fe 45 be 38 9d 7c bf 45 90 6c be
       -0.634146 -0.19335179 -0.98677397 -0.2310191
0001e0 83 71 58 3f f8 94 0b be 7c a1 33 3e 02 a8 8e 3e
       0.84548205 -0.13631046 0.1754207 0.27862555
0001f0 bd eb 0d be 97 d0 e3 bc da c0 27 3b 1b a1 54 3f
       -0.13859458 -0.027809424 0.0025597126 0.8305833
000200 80 de b2 3e 01 31 f1 3e df aa b8 3f 0c da bf 3d
       0.3493538 0.471077 1.4427146 0.09367761
000210 87 62 81 3e 4c 5b 34 3f 6d c2 d5 3d 27 c4 dd 3d
       0.25270483 0.7045181 0.104374744 0.10828429
000220 6f e0 02 3f ce 21 ca bd ee a6 01 3f 9a a4 3d 3e
       0.5112371 -0.09869729 0.5064534 0.18519822
000230 1d 84 e9 3e e9 db a0 3e 8f 94 05 3f 03 38 91 3e
       0.45608607 0.31417778 0.5217981 0.28363046

mobilenetv3_like.block1.depthwise_conv.1.bn.weight f4 [16]
000000 fc 41 fd 3e 13 d7 30 3f 8e c3 87 3e 76 a2 b9 3e
       0.49464405 0.6907818 0.26516384 0.3625676
000010 36 61 94 3f d2 a1 34 3e d9 c9 f6 3e ae 9a 80 3f
       1.1592166 0.17639855 0.48200873 1.0047204
000020 17 4c 2d 3f a6 38 0e 3f 2e a3 79 3f 84 01 c9 3e
       0.6769423 0.5555519 0.9751462 0.3925897
000030 fd 78 6b 3f 4b 14 3b 3f b8 d0 89 3f 22 c2 4a 3f
       0.9198149 0.7307784 1.0766821 0.79202473

mobilenetv3_like.block1.depthwise_conv.1.bn.bias f4 [16]
000000 19 b4 71 be 42 c8 e1 be c5 6b ae bd 02 8d 8b be
       -0.23603858 -0.44098097 -0.08516649 -0.27256018
000010 bd ac fb 3b 1c 25 42 be 04 e6 6c be 52 c4 ec bd
       0.007680504 -0.18959469 -0.23134619 -0.11560883
000020 ec e9 8d be 4b d5 dc 3d f8 61 9a be 27 a1 6d 3e
       -0.2771753 0.1078287 -0.3015287 0.23206006
000030 12 2a b6 3e 29 13 15 be 7e 60 b5 be 1b aa 0c 3e
       0.35578972 -0.1455809 -0.3542518 0.13736765

mobilenetv3_like.block1.depthwise_conv.1.bn.running_mean f4 [16]
000000 a3 02 53 be 3f d1 d5 be c8 da c6 be 5b 11 be bb
       -0.20606475 -0.41761205 -0.38838792 -0.005800409
000010 32 08 26 3e be 3c b5 3e 0f e3 79 be 10 89 ab bf
       0.16214064 0.35397905 -0.24403022 -1.3401203
000020 5d ed 2d 3f 04 00 00 00 04 00 00 00 90 ea ab 3e
       0.6794031 6e-45 6e-45 0.33577394
000030 b8 b3 05 bf 30 6a 14 be 98 5f 1a 3f 8d a4 d5 3f
       -0.52227354 -0.14493632 0.60302114 1.6690842

mobilenetv3_like.block1.depthwise_conv.1.bn.running_var f4 [16]
000000 70 ab 10 3f 68 15 17 40 1e c6 5b 3c 3a 7b 20 3c
       0.5651159 2.3606815 0.013413934 0.0097950045
000010 bf 4d b7 3e 68 e6 d9 3f 84 a4 4a 3f 3a c1 18 3e
       0.35801503 1.702344 0.7915728 0.1491746
000020 6d f1 c9 40 04 00 00 00 04 00 00 00 5d c2 bf 3f
       6.310721 6e-45 6e-45 1.498119
000030 05 63 bb 3c 44 ae 01 3c 78 b5 a0 40 41 48 57 3e
       0.022874365 0.007915083 5.022152 0.21023656

mobilenetv3_like.block1.depthwise_conv.2.fc.0.weight f4 [4, 16, 1, 1]
000000 4b 0c 7f bd fe 8b 0a 3e ec 94 c6 bd 96 2c 0d 3d
       -0.062267583 0.13529965 -0.09696373 0.03446635
000010 89 64 cf 3d 2f 04 cd 3d fb bb a6 bc 64 c1 0a bd
       0.101265974 0.100105636 -0.020353308 -0.033875838
000020 e7 75 20 be f3 21 dc bc dd a1 9f 3c 74 84 95 bc
       -0.15669976 -0.026871657 0.019486362 -0.018251635
000030 cc 9d 5b 3d 8e 7b 56 3d 92 52 02 be 7e 2d e4 3d
       0.053617284 0.052363925 -0.1272681 0.111414894
000040 1f 05 b4 bd 86 33 0d bc 78 11 26 3e c2 59 90 bc
       -0.08790039 -0.008618241 0.16217601 -0.017620925
000050 7f 9c 2b 3d 97 2b ba 3c e5 de 39 bd b0 e6 32 3c
       0.041897293 0.022725863 -0.045378584 0.010919258
000060 98 5d cb bd 60 b9 ee bd 3e 59 3c bd 65 06 8c 3d
       -0.09929961 -0.11656451 -0.045983545 0.06837157
000070 75 44 aa bc 4d 09 c9 bd 3d f1 de bd 7d a0 ea bd
       -0.020784596 -0.09816227 -0.10885856 -0.11456392
000080 2a 62 10 3e 9c bb 76 be 54 c1 4b be b5 c5 29 be
       0.14099947 -0.24095005 -0.19897968 -0.16579325
000090 b8 70 f4 bd 94 a9 ba be 29 40 b3 3d 49 4c bb be
       -0.11935562 -0.36457503 0.08752472 -0.36581638
0000a0 1a a2 ae be 13 33 0c be fb 7a 6d bd 36 d4 98 bd
       -0.3410805 -0.13691358 -0.05797861 -0.07462351
0000b0 f8 bd c7 be f2 3d 01 bd 37 45 93 be c7 da e5 bc
       -0.39012122 -0.031553216 -0.28763744 -0.028058423
0000c0 63 37 41 bd 77 30 84 bd d8 8e 87 3e ad 76 7d 3e
       -0.04717196 -0.064545564 0.2647617 0.24752302
0000d0 a7 7a ab 3e f7 10 9d 3d 8f 74 0c bd 23 7e 3c 3e
       0.33492014 0.076692514 -0.034290846 0.18407492
0000e0 e1 97 89 3e c6 34 5a 3e ef d8 e5 bd a0 7a 62 3e
       0.26873687 0.21309194 -0.112230174 0.2211709
0000f0 9b 3c d7 3e e6 73 95 3e db 7e dd 3c 46 76 04 bf
       0.42038426 0.29189986 0.027038028 -0.5174297

mobilenetv3_like.block1.depthwise_conv.2.fc.0.bias f4 [4]
000000 86 9f f4 bd c4 f1 ee bd 57 27 83 bb 6a b9 20 3e
       -0.11944489 -0.11667207 -0.0040024924 0.1569573

mobilenetv3_like.block1.depthwise_conv.2.fc.2.weight f4 [16, 4, 1, 1]
000000 54 49 8b 3e 25 ad 9a 3e a4 41 d8 bd ce e5 67 be
       0.27204382 0.30210224 -0.10559395 -0.22646257
000010 ec c4 a0 be b2 53 35 3e d8 8e c1 3d 87 da 8c 3e
       -0.3140024 0.17707708 0.094510734 0.27510473
000020 6e 2f ab 3e 56 3e 8b be da a2 19 be be 16 d2 bd
       0.33434623 -0.27195996 -0.15003529 -0.10258244
000030 0a 03 9b 3e 20 10 cd 3c 73 dd 46 3d e9 24 f2 be
       0.30275756 0.025032103 0.048551034 -0.47293785
000040 79 9a c1 bd 9d 25 95 bc 64 dd bd 3e b1 80 fc be
       -0.094532914 -0.018206412 0.3708297 -0.49316934
000050 f0 98 14 bd 7e 15 7a 3e f4 f4 43 be bd 19 35 be
       -0.036278665 0.24422261 -0.19136411 -0.176856
000060 ed cf e0 bd ef 80 9e be 83 b4 4b 3e 50 48 9b 3e
       -0.10977159 -0.30957744 0.19893079 0.30328608
000070 c9 d6 3a 3e 91 6e 91 be 19 e1 bb be 0c e1 76 be
       0.18245997 -0.28404668 -0.36695173 -0.24109286
000080 32 54 31 be f6 5a af 3d 0a ef aa 39 eb 16 21 be
       -0.17317274 0.08562271 0.00032603025 -0.15731399
000090 81 66 2c bd 1d 57 72 3c df 3d 2d 3e 7c 70 88 be
       -0.042089943 0.014791277 0.16918133 -0.2664832
0000a0 0a 7b 52 bd df 74 80 3e 30 4d 6f 3d 38 ac ab 3d
       -0.05138687 0.25089166 0.05842322 0.083824575
0000b0 b4 9e a1 3e 42 10 b9 3e 91 36 b1 3e 54 77 45 be
       0.31566393 0.36145216 0.34611943 -0.19283801
0000c0 8e 01 74 3e 58 75 a7 be 29 8b 70 3e 9a 39 cf be
       0.23828718 -0.32706714 0.23490585 -0.40473634
0000d0 d1 35 dd 3d 58 3b 35 3d b3 42 bf 3e 9d 49 20 3e
       0.1080128 0.044246048 0.37355575 0.15653081
0000e0 81 56 6c 3e 56 87 b7 be 7a 37 e8 3e 16 19 b6 be
       0.23079874 -0.3584544 0.45354825 -0.35566014
0000f0 af db 9d be a7 7d 47 be 76 09 8c bd 19 5c 09 3f
       -0.30831668 -0.19481526 -0.06837742 0.53656155

mobilenetv3_like.block1.depthwise_conv.2.fc.2.bias f4 [16]
000000 dc 9b 84 bd 17 cd 38 bd e6 9d 1d bf 5f f4 f0 be
       -0.0647504 -0.045117464 -0.6156906 -0.4706144
000010 b9 df 36 3e ce e7 8e be 52 bc 4b be e3 c5 9b 3f
       0.17858781 -0.27911228 -0.19896057 1.2169765
000020 fa 83 02 3d 89 31 d2 be 6d da eb 3e f8 6e 4f bb
       0.031864144 -0.41053417 0.46065083 -0.0031651836
000030 55 8d fb 3e 79 26 a8 be 3a 52 51 3f 93 e1 1b be
       0.49131265 -0.32841852 0.8176609 -0.15222768

mobilenetv3_like.block1.depthwise_conv.3.conv.weight f4 [16, 16, 1, 1]
000000 4e c5 35 be 40 69 6c 3e ab d2 b8 3e b0 d0 c8 bc
       -0.17751047 0.23087025 0.36098227 -0.024513572
000010 70 93 b5 3e 3a 6c d9 3d a6 36 4c bd a1 b9 f4 be
       0.35464048 0.10616346 -0.049856804 -0.47797874
000020 81 76 c7 3e 55 c3 59 3e 43 92 a8 3e bb 0d 9b 3e
       0.389576 0.2126592 0.3292409 0.30283913
000030 0b 1d 0d 3b db db 18 3f 24 be 80 3f 88 1a 9e be
       0.0021532204 0.5971047 1.0058026 -0.30879617
000040 85 e5 bb bd e9 20 cd bd 19 5e bc 3d a6 f8 f5 bd
       -0.09174637 -0.10016043 0.09197635 -0.120103166
000050 d6 2a 63 bd 9b 3c 45 be eb eb 93 3d 0e d7 27 3e
       -0.055460773 -0.192614 0.07222732 0.1639063
000060 eb a9 f2 be f1 78 0a bf 07 ff 4f be 59 94 1c bf
       -0.47395262 -0.5409079 -0.20312129 -0.6116386
000070 17 61 be be 01 0d eb bc 73 8e 3e bf db 6d 48 bd
       -0.3718345 -0.028692724 -0.7443611 -0.04893289
000080 4a 79 02 be af 21 16 3e 93 96 b9 be 93 85 18 3e
       -0.1274158 0.14661287 -0.36247692 0.14894705
000090 5f b1 c5 be a5 56 b5 be 7c 20 80 bd d4 fd 91 3e
       -0.38611886 -0.35417667 -0.06256196 0.28513968
0000a0 67 6e 18 bf 25 d0 22 be 9c 3d 98 be 84 ca 97 be
       -0.5954346 -0.15899713 -0.29734504 -0.29646695
0000b0 f7 e6 0e be 3f 2b f8 bd 62 e0 44 bf db 20 a6 3e
       -0.13955294 -0.121176235 -0.7690488 0.32446942
0000c0 27 15 c0 3d 83 d6 c7 3c 2e b2 0b 3e 8a c3 f1 bc
       0.093790345 0.02439428 0.13642189 -0.029512186
0000d0 89 dc 18 bf 8d 43 c3 3c 06 78 3b bd c2 83 e9 be
       -0.5971151 0.023835922 -0.04576876 -0.45608336
0000e0 af 85 01 bd f4 58 21 bf 2b c6 80 be 69 aa 07 bf
       -0.03162163 -0.63026357 -0.2515119 -0.529944
0000f0 31 e5 ff be 17 dd 3d 3c 1b fa cd be bc ec 46 3d
       -0.49979547 0.011588356 -0.40229878 0.04856561
000100 f9 92 c0 bd 3e a1 87 be 68 f1 49 3e 5a e0 36 3b
       -0.09403033 -0.26490206 0.19720995 0.002790472
000110 35 bb a7 be d5 06 6e 3d 38 1f c0 bd e7 bd e2 be
       -0.32760015 0.058111984 -0.093809545 -0.4428551
000120 bd c9 54 be 6d 27 16 be 85 7d a4 be b4 94 a7 be
       -0.20780082 -0.14663477 -0.32127014 -0.3273064
000130 23 e1 17 bf ad 9d b4 bd 1b 75 a8 be 3a 4d 9b bc
       -0.59327906 -0.08819137 -0.32901844 -0.018957723
000140 19 e2 cc bd c2 83 89 bd 24 2c c0 bd 27 4e d5 3d
       -0.10004062 -0.06714584 -0.09383419 0.10415297
000150 7a 71 2f bf 08 c8 50 be ad 86 1f 3e 2c 22 10 bf
       -0.68532526 -0.20388806 0.15578718 -0.5630214
000160 25 64 48 3e 3c dc d8 bd 83 8a 11 bd 68 b8 c5 be
       0.19569452 -0.105888814 -0.035532486 -0.38617253
000170 de 5e c1 be 7f fc 8a be d7 59 af bd f2 48 e5 3d
       -0.3776769 -0.27145764 -0.085620575 0.11195554
000180 38 66 08 be 22 71 12 3e 98 a2 82 be 61 14 cf bc
       -0.13320243 0.14300969 -0.25514674 -0.025278272
000190 a7 f6 6c 3e fa 1e 1e be 62 6b 21 be bf 5d 6a 3f
       0.23140965 -0.15441504 -0.1576362 0.91549295
0001a0 15 bf af be cf a5 0d 3e 76 70 2c be e2 fe 44 bd
       -0.34325472 0.13832782 -0.16839775 -0.048094638
0001b0 b8 98 0a 3f 0e e0 26 be 86 0b 93 be 32 a6 70 be
       0.5413928 -0.16296408 -0.2871973 -0.23500898
0001c0 5c a2 84 3d b2 2e 30 3e ac 3a 68 3e 46 2f ce 3d
       0.0647628 0.17205313 0.22678632 0.100676104
0001d0 0a 8f 2c 3f a2 07 ef 3e 6c 90 b0 3d 1f 9f 83 be
       0.6740576 0.4668551 0.08621296 -0.25707337
0001e0 c9 d2 1b 3f 5e 36 48 3d 9a 35 a4 3e 5a 8b 32 3e
       0.6086851 0.048879974 0.32072145 0.17435971
0001f0 1f a2 10 3e 27 7b 2a 3f c7 61 1e 3f 92 70 93 be
       0.14124344 0.66594166 0.61867946 -0.28796822
000200 e6 74 85 bc d4 e5 1b 3e 37 a6 61 be da aa d1 3e
       -0.016291093 0.15224391 -0.22036062 0.40950662
000210 e7 c7 77 3e 4c e5 b2 3e 60 fd 98 bd 57 0d 74 3f
       0.2419735 0.34940565 -0.074702024 0.95332855
000220 26 75 24 3d 5e 3b 23 be ef b8 0c bb e3 d4 35 be
       0.040150784 -0.15940616 -0.0021472534 -0.17756991
000230 51 6b f8 3e 1b e0 bf be c9 ae a5 3c f3 2d 5f be
       0.48519376 -0.37475666 0.020224946 -0.21794872
000240 03 66 d0 bc c2 7b d2 bc 64 28 0f 3f b8 7e 36 bf
       -0.025439268 -0.025693778 0.55921006 -0.7128711
000250 3d c0 bf be b2 6b b8 bd 03 c5 1c 3e e9 2b 12 bf
       -0.37451354 -0.09004916 0.15309529 -0.5709825
000260 e8 a4 1b be 82 cf 0e be fc cd 41 be 9d a5 2a 3e
       -0.15199625 -0.13946345 -0.18926233 0.16664739
000270 fe a7 fa be ba 8d e1 3e 64 04 01 be b4 98 29 3e
       -0.48956293 0.4405344 -0.12599331 0.16562158
000280 3e 78 a2 3d 1d 17 6a 3e 3f 6d f4 3d 0e 11 85 3e
       0.079330906 0.2286038 0.119348995 0.25989574
000290 ad d7 0a 3e bd 78 73 bc 52 a2 7f 3d eb b6 e8 3e
       0.13558836 -0.014860329 0.06241066 0.45452055
0002a0 c8 5d a8 3e a5 bd be bc f7 ef bc 3d ea 73 58 bd
       0.3288405 -0.023283789 0.09225457 -0.05284492
0002b0 51 88 a1 3e 78 d1 27 bf 50 f0 99 3e a0 91 bd 3d
       0.31549314 -0.65554 0.30066156 0.092562914
0002c0 ae fe 25 3c db 11 f9 bd fa 03 9a be 78 b8 38 be
       0.010131521 -0.12161609 -0.3008116 -0.18039119
0002d0 0b ad ca bd 4d 77 17 3e dd a1 df bc 18 e0 33 bf
       -0.098962866 0.14791603 -0.027298862 -0.70263815
0002e0 c1 9a 54 3e 01 c8 d8 bd 61 4a d3 3e fa aa eb bd
       0.20762159 -0.10585023 0.41267684 -0.115072206
0002f0 20 04 b7 be e9 ee a0 be bf 34 0f 3f d7 14 ac 3e
       -0.35745335 -0.31432274 0.5593986 0.3360965
000300 f0 25 d2 bd da f4 ce be e9 aa a0 be 69 94 aa 3e
       -0.10261142 -0.40421182 -0.31380394 0.33316353
000310 43 d3 5c bf 5c 15 55 be 0d bf c2 3d dc 3f 54 3d
       -0.8625986 -0.20808929 0.09509096 0.051818714
000320 88 62 94 bc ed 23 d5 be e2 e4 e8 3c ff 98 77 be
       -0.01811339 -0.41628972 0.028429452 -0.24179457
000330 02 c5 d4 be 43 08 cd be b3 d1 ef be 15 49 3b 3e
       -0.41556555 -0.40045366 -0.46839675 0.18289597
000340 27 f5 f3 bc a5 fd 3a be 47 cf 8d bd e0 52 9e be
       -0.029779984 -0.1826082 -0.06924301 -0.30922604
000350 a6 ac 85 be a0 52 ab bd 06 80 34 3d 42 81 2d bf
       -0.26108283 -0.08365369 0.044067405 -0.67775357
000360 34 7b 0c be ff 72 b5 3d c1 93 19 3e 8f b6 3b be
       -0.13718873 0.088598244 0.1499777 -0.1833136
000370 eb bc a3 be 56 86 4c 3e 2f 69 09 3e 0d 4e 67 3e
       -0.3198007 0.1997312 0.1341903 0.22588368
000380 87 43 03 bc 32 02 e6 be d6 4a d7 bc d4 93 44 be
       -0.008011705 -0.4492355 -0.026280802 -0.19197017
000390 1f 36 37 bf 79 2f 84 3d d0 8d 5d bc a4 78 1b bf
       -0.7156696 0.06454367 -0.01352258 -0.6073096
0003a0 36 87 85 be e6 db 83 be cc db 34 be 77 11 88 bd
       -0.2607972 -0.25753707 -0.17661971 -0.06643956
0003b0 21 09 03 bf 6f a4 cc 3e 77 08 82 bd 85 ac 2e be
       -0.51185805 0.39969203 -0.06349271 -0.17057998
0003c0 e9 f1 2d 3c fd 38 50 3c 1a 8a b9 be a3 81 de be
       0.010616758 0.0127089 -0.36238176 -0.4345828
0003d0 19 75 13 be 32 6e 11 3e 00 07 14 3e 72 7b 56 bf
       -0.14400138 0.14202192 0.14455795 -0.8378211
0003e0 c2 0e 8d 3d d7 55 98 be 2e 9c cd 3e 5b c5 ef 3c
       0.068875805 -0.2975299 0.40158218 0.029268911
0003f0 9e 65 cb be 06 b5 0b 3f 58 ef 8a 3e ba 5a 2e bd
       -0.39725965 0.54573095 0.2713573 -0.042566992

mobilenetv3_like.block1.depthwise_conv.3.bn.weight f4 [16]
000000 56 1d 49 3f 7c e3 3a 3f cd f4 36 3f d0 36 15 3f
       0.7856039 0.73003364 0.71467286 0.5828676
000010 d2 00 82 3e 8a 60 2e 3f 98 e5 82 3f 47 5e 85 3f
       0.2539125 0.68116057 1.0226316 1.0419396
000020 af f6 42 3f 87 3a 84 3f 94 57 9a 3f 1b 27 96 3f
       0.7615766 1.0330361 1.2057977 1.1730684
000030 4c 26 1d 3f 42 7a 9f 3e 80 db 84 3f 7f b6 38 3f
       0.6138656 0.31147963 1.0379486 0.72153467

mobilenetv3_like.block1.depthwise_conv.3.bn.bias f4 [16]
000000 d1 a4 15 3c f5 54 37 bf 14 7d e9 3c a6 d0 4a bf
       0.009133534 -0.7161401 0.028502025 -0.7922462
000010 00 23 01 be 90 5d 68 be b3 8c 99 3e 67 ff 67 3e
       -0.12611008 -0.22691941 0.29990157 0.22656022
000020 44 23 92 3e 19 e9 8f bd 78 75 db 3d 83 1d f6 be
       0.2854253 -0.07026882 0.10715765 -0.4806939
000030 b2 45 be be 81 13 54 be c0 10 c5 bc 75 fb 15 be
       -0.37162548 -0.20710565 -0.024055839 -0.14646704

mobilenetv3_like.block1.depthwise_conv.3.bn.running_mean f4 [16]
000000 87 1f 31 3e dd a0 97 be 52 ac 42 be 20 2a ca be
       0.17297183 -0.29614916 -0.19011047 -0.39485264
000010 a2 70 b1 be 0b 3b a1 be 56 70 32 3e 6f 8f 6c 3e
       -0.34656245 -0.3149036 0.17425665 0.2310159
000020 d7 30 5b 3e 9d e4 4b be eb 90 4e 3e 45 90 c4 bd
       0.2140535 -0.19911428 0.2017247 -0.0959783
000030 26 29 9e be 29 60 35 be 36 bc b7 be 77 05 44 be
       -0.3089077 -0.17712463 -0.3588578 -0.1914271

mobilenetv3_like.block1.depthwise_conv.3.bn.running_var f4 [16]
000000 72 22 0a 3f bc 15 10 3f fc 06 24 3f 41 c6 a1 3f
       0.5395881 0.56283164 0.6407316 1.2638627
000010 6a 91 7e 3f 9b 16 7c 3f 40 e1 dd 3e dc bf 5d 3f
       0.99440634 0.98471993 0.43335915 0.8662088
000020 24 49 4b 3f ab 7d 17 3f 67 ed e5 3e d3 87 3e 3e
       0.7940848 0.5917613 0.44907686 0.186065
000030 fd c6 80 3f 3c 52 f7 3e 38 b9 88 3f 93 ad a3 3e
       1.0060726 0.48304927 1.0681524 0.31968364

mobilenetv3_like.block2.depthwise_conv.0.conv.weight f4 [72, 16, 1, 1]
000000 0e 6f f2 3d b0 fd 5e 3d 6a 21 42 be 49 96 dc be
       0.11837588 0.054441154 -0.18958059 -0.43083408
000010 85 45 aa be 8c e5 1a bf f5 e2 d0 3e d0 47 fc 3c
       -0.33256164 -0.6050651 0.40798154 0.030795962
000020 74 ac f6 3e 48 03 94 be 99 c6 77 3f 00 8f 82 bd
       0.48178446 -0.28908753 0.9678741 -0.06374931
000030 b4 5d 34 be 60 0d 8e be be 66 2c bf 13 f0 e5 be
       -0.1761387 -0.2774458 -0.6734427 -0.44909725
000040 8c cb 12 be 71 7f 79 3e d7 63 c5 3e 62 f5 d7 3e
       -0.1433546 0.24365021 0.38552734 0.421794
000050 47 e3 76 3e a5 81 1f 3f c2 f2 6f be a1 9e 8b be
       0.24110137 0.62307197 -0.23432449 -0.27269462
000060 00 5e 6a be 0a 48 fa bc d2 8b b5 ba d2 ee 06 3f
       -0.2288742 -0.030551929 -0.0013850874 0.5270816
000070 c0 f7 1e 3f da 4b 8c 3e c3 6f 31 3e 5a ef 01 3f
       0.62096786 0.2740162 0.1732779 0.50755847
000080 61 90 8d bd e2 2a 06 3d 54 80 37 bd 14 9b a7 3d
       -0.06912304 0.03275574 -0.044800118 0.08183876
000090 b7 61 16 be 5a a8 8e be 32 66 bb 3e 2d 53 25 3d
       -0.14685713 -0.27862817 0.36601406 0.040362526
0000a0 bf 68 90 3e cc 67 fa be ec 2c bf 3d 1a bc 48 bf
       0.28204915 -0.48907316 0.0933474 -0.7841202
0000b0 13 81 11 3e cb 74 d2 be da 18 93 bc 40 fc db be
       0.14209394 -0.4110473 -0.017956186 -0.4296589
0000c0 83 42 46 3d 44 38 a8 3e e0 0c 22 be 68 47 95 3e
       0.048403274 0.32855427 -0.15825224 0.2915604
0000d0 72 cf 7a bd d6 13 91 3e ce aa 8f be c0 ac b4 be
       -0.06123299 0.28335446 -0.2806 -0.35288048
0000e0 4e 1a e4 3c 79 63 a5 3d 3f 03 d8 bc 59 c8 07 3e
       0.027844574 0.080756135 -0.026368735 0.1326002
0000f0 74 3d 59 3e de d3 2b 3e d5 c5 b5 3a 94 9b de bd
       0.21214849 0.1678004 0.0013868163 -0.10869518
000100 9f c2 6b be 2c 03 4a be 83 78 b1 3d 7e b3 5c be
       -0.23023461 -0.19727772 0.08665564 -0.21552846
000110 60 75 e9 bd 64 2d bd bb c5 ed 6d 3e 92 41 8e be
       -0.11399341 -0.0057732332 0.23235233 -0.277844
000120 f2 11 42 3e 72 26 99 be 6d 38 de 3d 6b 1b 4b be
       0.18952158 -0.29912144 0.10850606 -0.19834678
000130 85 78 67 bb 13 d5 67 be 3e d8 c2 bd 6d 93 31 be
       -0.0035319638 -0.22639875 -0.09513901 -0.17341395
000140 1f 9d da 3c 4c 56 d5 3d f4 ba f9 bd 2b 5e 85 3e
       0.02668625 0.104168504 -0.121938616 0.26048407
000150 12 30 e5 3e 80 ef 63 3e b1 68 19 be f1 95 b2 be
       0.44763237 0.22259331 -0.14981343 -0.3488002
000160 7a 17 e2 3b 08 d0 36 bc f7 33 e7 bc 01 d9 a8 3e
       0.0068997713 -0.011157997 -0.028223021 0.3297806
000170 58 3d b6 3e ed 6d 67 3d 6a 28 11 3f dd 25 c3 bc
       0.35593677 0.056501318 0.5670229 -0.023821766
000180 9a 2e 82 3e fe ee 24 3e 0a a4 8f 3e 9d de b8 be
       0.2542618 0.16106793 0.2805484 -0.3610734
000190 40 c7 20 be ce 7b 63 be 45 ba 85 3e 66 a8 e8 3e
       -0.15701008 -0.22215196 0.26118675 0.45440978
0001a0 4d 77 c7 3e 65 35 7d be bb c4 8f be f1 42 d5 be
       0.38958207 -0.247274 -0.2807978 -0.41652635
0001b0 b4 53 0f be 0f cd 14 3e 7d b6 8a be fb 6e d7 be
       -0.13996774 0.14531349 -0.27092353 -0.4207686
0001c0 39 9e e2 3d d1 1f 9b be 3f e1 83 3e df 14 d7 be
       0.11065335 -0.30297711 0.25757787 -0.4200811
0001d0 78 85 fb be b4 b4 d0 be 98 5a d4 3d e5 07 c5 3e
       -0.49125266 -0.40762866 0.10368842 0.38482586
0001e0 b7 d0 da 3d 0d 2b 49 3d 6c e4 9b 3d d0 e5 06 bf
       0.106843404 0.049113322 0.076119274 -0.52694416
0001f0 ac d3 d9 be 70 27 f6 be d5 b5 f9 be cf b6 08 be
       -0.42544305 -0.48076963 -0.4877154 -0.13350986
000200 b2 77 ff bc 4c f2 a9 3e b2 7d 20 3d f0 f1 f6 3d
       -0.031185005 0.3319267 0.039182372 0.12057865
000210 67 14 d1 3d 95 0c bc bd d7 e1 cf 3d 8c 4b 2d be
       0.102089696 -0.09182087 0.101504974 -0.1692335
000220 9c 44 1d 3d b4 f6 a2 bd ec 2b bc be 51 f2 34 be
       0.03839551 -0.07957211 -0.3675226 -0.17670561
000230 54 a9 8d 3d b7 97 7d 3e e7 23 3c 3d 1c 7a 11 3e
       0.069170624 0.24764906 0.045932677 0.14206737
000240 ea 42 02 be fe 7e 50 bd 99 ac 39 bd ea ea 8b bd
       -0.12720838 -0.05090236 -0.045330618 -0.06831916
000250 58 29 6c be a7 30 03 be 2c 6a 4c 3c 5b aa 81 be
       -0.23062646 -0.12811528 0.012476485 -0.25325283
000260 82 6a c5 3d 3e 1f 06 bf c4 0c 0f 3e 03 2b 6b be
       0.096394554 -0.5239142 0.13969713 -0.22965626
000270 f1 22 af 3e 6c 1d 23 be 70 30 18 be d4 9a cf be
       0.34206346 -0.15929192 -0.14862227 -0.40547812
000280 9b 20 83 be d7 ca d5 3d b7 01 39 be 95 a6 2e 3e
       -0.25610813 0.10439079 -0.1806706 0.17055734
000290 ae 60 9b 3d 75 86 3d 3e 35 56 0c bd eb b8 88 be
       0.075867996 0.18508323 -0.0342619 -0.2670358
0002a0 fc 4c 6e bc ac 1f 28 bd 46 06 14 bd 97 ae af 3d
       -0.014544722 -0.04104583 -0.036138795 0.08578222
0002b0 44 0e 35 3d 10 26 58 3e 83 7f e1 3d 6a 72 f6 bd
       0.044203058 0.2110827 0.11010649 -0.120335415
0002c0 11 28 d4 be 44 2e b2 be f1 35 b7 3e 44 1a 28 3e
       -0.41436818 -0.34800923 0.35783342 0.1641627
0002d0 40 42 26 be 7e 98 59 3e d0 6a b3 3e 9d 52 6e bd
       -0.1623621 0.21249577 0.3504243 -0.058184255
0002e0 14 f9 98 3e b1 2c 91 be 20 08 3b 3e 0f 0e ee 3c
       0.29877532 -0.2835441 0.18264818 0.029059438
0002f0 aa 32 db 3d 55 cc 83 be 65 f7 ff bc c3 8f aa bd
       0.10703023 -0.2574183 -0.031245897 -0.083282016
000300 df d3 25 3f 6d f1 14 bf 46 76 39 bf 94 00 47 be
       0.64776415 -0.58180887 -0.72446096 -0.19433814
000310 b9 8d aa be 2a a0 88 bd 8a 57 b4 bd b2 5b 3b 3f
       -0.3331125 -0.06671174 -0.08805759 0.7318679
000320 ba 3e 0a 3d b1 61 a7 be 3b 2d 8a 3e 40 46 a7 3e
       0.033751227 -0.3269172 0.26987633 0.32670784
000330 a1 80 84 be 2f 22 c9 3d d7 55 4b 3b 19 90 b0 3d
       -0.25879386 0.09820973 0.0031026506 0.086212344
000340 e8 26 28 bf ff 1b aa 3e 0b 06 1e 3e be 85 a5 3c
       -0.65684366 0.33224484 0.15431993 0.020205375
000350 f2 d3 78 be 73 bd 83 be 75 48 0c 3f 7e a4 81 be
       -0.242996 -0.25730476 0.5479806 -0.2532081
000360 3c 3d 15 be 70 ff 34 3e 99 ce 47 bd 33 be 89 bf
       -0.1457414 0.17675567 -0.04878101 -1.0761169
000370 af 50 0e 3e de 1b 01 be 09 b0 0d be e5 5e f4 be
       0.13897966 -0.12608287 -0.13836683 -0.4772865
000380 e2 6b a7 3c 1e 5c 57 be 94 19 22 be e4 87 b9 be
       0.020437185 -0.21031234 -0.1583007 -0.3623649
000390 9f a4 47 be 53 84 b0 be bb 2b 03 3e 34 47 da 3e
       -0.19496392 -0.34475955 0.1280965 0.4263245
0003a0 0b 9c 2b be a8 04 df bd 97 85 7d 3e 02 e2 a7 3d
       -0.16758744 -0.1088956 0.24757992 0.081974044
0003b0 4f 17 5a be 42 24 67 bd 09 1c ec bd 2c 68 6f 3e
       -0.21297954 -0.056431063 -0.11528785 0.23379582
0003c0 d2 51 2c 3d 0f 89 e8 bd 6f 9c 5a bd 79 6d 46 3e
       0.042070217 -0.11354267 -0.053371843 0.19377698
0003d0 2b 46 3f be 84 52 d1 3d bd 83 b9 bc f3 92 44 3e
       -0.1867911 0.10220817 -0.022645826 0.19196682
0003e0 7d b9 d5 3e 6c e7 8b bd 9f fa 44 3e 2f 46 9e bd
       0.4174308 -0.068312496 0.1923623 -0.0772823
0003f0 01 1e 60 3d d0 ad a2 be 06 45 df bd df 19 ff bd
       0.054716114 -0.31773233 -0.10901837 -0.124561064

mobilenetv3_like.block2.depthwise_conv.0.bn.weight f4 [72]
000000 92 d4 87 3f ea 5c 8d 3f 89 97 36 3f b2 7d 7b 3e
       1.0611746 1.104398 0.71324974 0.24559668
000010 4a a2 96 3f 98 fe 60 3f 5c 7c 5d 3f eb ed 5c 3f
       1.1768277 0.8788848 0.8651788 0.86300534
000020 57 ea 2c be 62 3c 09 3f f2 20 13 3f 14 d4 76 3f
       -0.16886269 0.5360776 0.57472146 0.96417356
000030 33 4f 73 3f b6 09 b5 3e 8f 25 25 3f 67 31 54 3f
       0.95042723 0.3535897 0.64510435 0.8288788
000040 4e 30 47 3f 7f 5f 21 3f 39 a3 f1 3e 23 e7 1d 3f
       0.7780808 0.6303634 0.47194842 0.6168081
000050 a9 83 61 3f e1 04 6f 3f 90 f8 8a 3f f6 45 74 3f
       0.8809152 0.9336682 1.0857105 0.9541925
000060 54 8b 0c 3f 85 8c be 3d 6d 35 92 3f 79 f3 7e 3f
       0.549001 0.09304146 1.1422554 0.9959026
000070 22 3a 18 3f 84 2f 5b 3f 5a ec f3 3e 5a 39 6f 3f
       0.59463704 0.8561938 0.4764126 0.93446887
000080 dc b3 c4 3f 8a 26 d1 3e 9f dd 42 3f 65 70 3b 3f
       1.5367389 0.40849715 0.76119417 0.73218375
000090 8e 9c af 3e 78 0c 3e 3f 13 d6 d1 3e d4 67 ed 3e
       0.3429913 0.74237776 0.40983638 0.46368277
0000a0 99 17 9a 3f 11 e3 66 3f 27 c5 00 3f 80 6b 0a 3f
       1.2038451 0.90190226 0.5030083 0.5407028
0000b0 0d 52 8a 3f b6 6c 5b 3f 39 e7 21 3f eb 86 71 3f
       1.080629 0.85712755 0.6324344 0.94346493
0000c0 f2 64 5a 3f a0 73 13 3f 11 51 a5 3f e3 84 42 3f
       0.8531028 0.57598305 1.2915365 0.7598402
0000d0 b6 90 3e 3f 49 51 50 3f 3d 57 43 3f c3 60 5e 3f
       0.7443956 0.8137403 0.7630499 0.86866397
0000e0 25 7e a4 3f 6a 97 a3 3f f9 39 53 3f 64 25 63 3e
       1.2850996 1.2780583 0.82510334 0.22182232
0000f0 66 d1 95 3e 91 4d 95 3f d1 9e a7 3f ed e5 8e 3f
       0.2926132 1.1664296 1.3095342 1.1163918
000100 6f b9 ca 3f cb 7c 3d 3f 0c ee 17 3f c7 7c 4f 3f
       1.583784 0.74018544 0.59347606 0.8104977
000110 ca 5d 94 3f 7e 3a 3c 3f b9 52 f4 3e 2d d8 c9 3d
       1.1591122 0.7352675 0.47719362 0.098556854

mobilenetv3_like.block2.depthwise_conv.0.bn.bias f4 [72]
000000 dc 0e a8 3c 85 95 53 3e d0 ef c2 3e cd c3 f5 be
       0.020514898 0.20662506 0.38073587 -0.48000947
000010 61 6f 14 3d 45 4b aa 3e 09 00 07 bd 13 7c c8 bb
       0.03623903 0.3326055 -0.032959018 -0.0061183064
000020 0f 72 ef 3e 92 55 0e 3f 83 a9 2e 3e 4f c3 fa 3d
       0.46766707 0.5559932 0.17056851 0.122442834
000030 90 03 47 be 57 b0 00 3e eb 23 1e 3e b8 60 cb 3b
       -0.19434953 0.12567268 0.15443389 0.006206598
000040 5a d0 7a 3c 8b d6 5e bf 89 b4 fc 3e ec 74 5c be
       0.015308464 -0.87046117 0.49356487 -0.21528977
000050 fc 78 cc 3e c8 2e c2 be d3 d6 3c be d8 ba 8b be
       0.39936054 -0.37926316 -0.18441324 -0.27290988
000060 02 1e cc be 84 9a 8a 3f 4e a6 2b be 4a e2 b9 3e
       -0.39866644 1.0828404 -0.16762659 0.36305457
000070 09 75 da bb e8 e5 0b bf 0b b7 d7 be 52 b9 af 3e
       -0.0066667837 -0.54647684 -0.42131838 0.34321076
000080 f1 ca 6f 3b ea ee c0 be d0 48 06 3e ff e0 bf 3e
       0.0036589468 -0.37682277 0.13113713 0.37476346
000090 f6 1f 75 3f ac 9e 3c 3d 7a d5 05 3f 3c c8 13 3f
       0.95751894 0.04604976 0.52278864 0.5772741
0000a0 41 3f 5d bd 08 18 f1 3e ea b8 7a 3e d3 18 85 be
       -0.0540154 0.47088647 0.24484602 -0.25995502
0000b0 c6 b9 34 bd 0d 62 ad 3e d9 bc d8 be cf a6 a0 3d
       -0.04412248 0.3386387 -0.4233158 0.07844316
0000c0 8c bf 9f bd 4a f9 04 3f e5 e9 21 bc 2b 1c 10 be
       -0.078002065 0.51942885 -0.009882425 -0.14073245
0000d0 f9 6b 9d 3c 4a 28 0a bf 48 b0 d4 3e 32 be 0f 3f
       0.019216524 -0.53967726 0.41540742 0.5614959
0000e0 1d d5 25 3e af 6d 03 3e 1f cf a7 3e 40 f1 86 3f
       0.16194578 0.1283481 0.32775208 1.0542374
0000f0 42 65 3a 3f 75 8b 36 3d 2d 83 22 bd c4 3b 5a 3c
       0.7281076 0.04456659 -0.03967588 0.013319913
000100 00 38 6d 3d 45 18 c8 3e bb 1e a8 be 8a be 28 3e
       0.057914734 0.39081016 -0.32835945 0.16478935
000110 df 7d 27 3d 4c ba c4 be ca 63 f8 3e d3 a8 82 bf
       0.040891524 -0.38423383 0.48513633 -1.0207771

mobilenetv3_like.block2.depthwise_conv.0.bn.running_mean f4 [72]
000000 49 03 8d 3f 67 15 be bf ff 91 34 3f 57 3c 59 bf
       1.1016628 -1.4850281 0.7053527 -0.84857696
000010 4c 6e 16 3f 02 54 51 bf 35 81 50 3f f7 d2 b2 3f
       0.5876205 -0.8176881 0.81447154 1.3970631
000020 bd 0d bd be a9 aa 7f 3e 58 06 db be 14 13 a5 3e
       -0.36924544 0.24967445 -0.42778277 0.32241118
000030 33 c2 36 3f be 8a ce 3e 08 f3 2c 3f 9f b1 56 3e
       0.71390074 0.40340227 0.67558336 0.20966195
000040 94 77 9d bf a5 db dd 3e 0e 5e 97 bf 2b 43 f3 3e
       -1.2302117 0.43331638 -1.1825578 0.47512183
000050 07 02 68 bf 52 76 1d bd 04 f3 bc 3f 03 e6 a3 3f
       -0.90628093 -0.038442917 1.4761662 1.2804569
000060 4e 25 fb be 2b 02 15 bf 36 49 96 3e 9b 83 15 40
       -0.490519 -0.58206433 0.2935273 2.3361576
000070 1b 4b 2a 3f c1 4d df 3e b7 8f 5c bf 05 49 d1 3f
       0.6652085 0.4361401 -0.8615679 1.6350409
000080 c8 17 82 bf b5 ac ba be 30 8e b6 3e 54 ad fd 3e
       -1.0163507 -0.3645989 0.35655355 0.495463
000090 66 b3 d6 bf 62 ab 8a 3e a8 fd 0b bf 30 df e7 be
       -1.6773498 0.2708388 -0.54683924 -0.45287466
0000a0 d1 51 a0 bf 3a ef cb 3f 03 16 3f 3f 8e e2 b5 be
       -1.2524968 1.5932381 0.7464296 -0.3552441
0000b0 78 c2 6b bf aa 82 9e be ef ad 59 3f 8c cc 0c 3f
       -0.9209361 -0.30959064 0.85031027 0.54999614
0000c0 ca 50 8a 3f c8 05 be bf d8 8e 97 bf 76 b4 b8 3e
       1.0805905 -1.4845514 -1.1840467 0.3607518
0000d0 3f c5 8a 3e fa a9 4f 3f ac b6 88 3f d7 86 45 c0
       0.27103612 0.8111874 1.0680747 -3.086355
0000e0 a2 db 88 bf 7e 3a 95 bf cc 0d 04 40 a8 df 51 3f
       -1.0692027 -1.1658475 2.063342 0.819819
0000f0 4a e9 6e bf 87 21 9e 3e 29 8b 29 bf 03 3e 64 3f
       -0.9332472 0.30884954 -0.66227967 0.8915712
000100 0d a5 ad bf 73 09 5f 3f e6 c2 a8 3e 12 ac 71 3e
       -1.3565995 0.87123793 0.32961196 0.23600796
000110 d6 5a 1f 3f 6a 11 47 3f e5 b9 55 bf dd 39 85 bf
       0.6224798 0.77760947 -0.8348678 -1.0408283

mobilenetv3_like.block2.depthwise_conv.0.bn.running_var f4 [72]
000000 f0 8c 9f 41 01 16 48 41 94 02 dd 40 03 28 01 40
       19.943817 12.505372 6.9065647 2.0180671
000010 e8 b5 a6 3f 4a f8 86 40 a4 20 a9 40 8e 63 0a 41
       1.3024263 4.2178087 5.2852345 8.649305
000020 5a f5 2b 3f c6 78 ca 3f 4b 39 5a 3f c6 9f e7 3e
       0.6717125 1.5818107 0.8524367 0.45239085
000030 85 09 f1 40 cb 40 a9 3f 98 3a 2b 40 ae 85 aa 3f
       7.532412 1.3222898 2.6754513 1.3322046
000040 4a 72 45 41 5d a9 e4 40 b0 1d 07 41 2c 5e d4 3f
       12.340403 7.145674 8.444748 1.6591239
000050 f7 68 09 41 d4 7a bc 3f d2 3e a6 41 c9 5a 63 41
       8.588126 1.4724984 20.780674 14.209664
000060 30 dc c0 3f b8 d6 f5 40 61 92 0a 41 02 ca e9 41
       1.5067196 7.682461 8.660737 29.223637
000070 61 74 c4 40 9b 5d 9d 40 ed 0f 29 41 7f fa aa 41
       6.1392064 4.9176764 10.566388 21.372313
000080 0e c1 63 41 bd 03 39 3f 21 d4 01 3f 34 ed e4 3f
       14.2346325 0.7227133 0.5071431 1.7884889
000090 2c a1 a9 41 8e 57 33 3f 2c 96 a7 3f a2 99 9b 40
       21.203697 0.7005547 1.3092704 4.862504
0000a0 4e e2 2a 41 b0 9b 9a 41 05 27 9f 40 14 3f 55 3f
       10.68025 19.32602 4.973513 0.83299375
0000b0 f1 72 e5 40 74 f3 bd 3f 66 e0 c6 40 f5 f9 90 40
       7.170281 1.4839921 6.2148924 4.5305123
0000c0 75 54 99 41 5b 9c 85 41 7a cf 94 41 bd c7 3f 3e
       19.166239 16.701345 18.601307 0.18728538
0000d0 52 aa 2a 3f 42 b8 74 41 5a ab cb 41 d2 ed 15 42
       0.6666614 15.294985 25.458668 37.482246
0000e0 4a 4b a9 40 77 c3 01 41 7d d9 94 41 c4 92 98 40
       5.2904406 8.110221 18.606195 4.7679157
0000f0 3c e1 f2 40 62 a2 92 3f ae 31 b0 3f be cb dd 40
       7.5899944 1.1455805 1.3765161 6.931121
000100 d7 e0 aa 40 c6 5d 03 41 49 d3 46 3f e4 48 45 3e
       5.3399463 8.210394 0.77666146 0.19266087
000110 3a d5 7c 40 47 f5 8d 40 7e a7 bd 40 b6 25 e0 40
       3.9505143 4.436191 5.926696 7.0046034
