python/model_pth/jus_cnn_se/best_model2.pth (torch, 998159 bytes, 134 tensors)

mobilenetv3_like.first_conv.conv.weight f4 [16, 3, 3, 3]
0.059898533 0.408895 0.3812098 -0.7654279 -0.12709217 -0.020483939 -0.48866042 -0.47910625
-2.2808237 0.28590682 0.48444614 0.106279686 -0.63333035 -0.021382961 0.09023632 -0.5494945
-0.23266289 -2.204958 0.12947343 0.29344884 0.2763615 -0.8987623 -0.08631672 0.049327895
-0.71323794 -0.36155516 -2.19621 -0.21132648 0.5712144 1.1244093 1.0166739 0.13471314
-0.2940943 0.4389313 -0.15024225 0.57074785 -0.12074478 0.38739112 1.1249486 0.9487008
0.0039837994 -0.43160203 0.14543502 -0.24937621 0.40778965 -0.1948086 0.3477001 0.92262805
0.8659386 0.11850785 -0.1624354 0.41656628 -0.22945145 0.455854 -0.080085225 0.7025498
0.7482979 0.2524851 0.055875733 -0.3015317 1.2250806 -0.28166872 0.004835445 -0.23148762
0.55972856 0.6629797 0.18421 -0.017034862 -0.28940868 1.3377881 -0.3040899 0.06280662
-0.16746797 0.78233767 0.6919155 0.19994545 0.017170394 -0.6118317 1.2771565 -0.3803513
0.12302745 0.41690877 0.60401106 -0.07432592 -0.5300443 -0.4614578 -0.87242 0.9249096
-0.62906104 -0.35379034 0.48098984 0.3878436 0.069248274 -0.56131184 -0.1961575 -0.75554746
0.7519076 -0.57958794 -0.30791935 0.31319615 0.37916058 -0.14155138 -0.6019821 -0.30741096
-0.935868 0.9245436 -0.53228104 -0.32303247 -0.22235586 0.08653341 0.8941173 0.7276258
0.38063398 -0.09725535 0.12430305 -0.032336216 0.5446484 -0.09849341 0.24916337 0.8461448
0.5738682 0.100394346 0.01672821 0.11742472 -0.28218096 0.58889925 -0.24011675 0.37851876
1.0514169 0.5552216 0.22727092 0.102378346 0.15566936 -0.010178858 0.55060506 -0.1528994
-0.6419788 0.5204793 1.1019408 -0.046776358 0.18496612 -0.75931454 0.5564501 0.37999928
-0.05078353 -0.35483384 0.4797116 0.9069496 0.17344004 0.1538059 -0.86626565 0.2733383
0.4630446 -0.07055273 -0.44384468 0.45939052 0.9255796 0.13010532 0.3699959 -0.7900754
0.28286347 0.5570936 -0.18561977 0.109164864 1.3481685 0.2911847 0.13628249 1.0379993
0.1661286 0.072563164 0.4583953 -0.34350932 0.010462343 1.319329 0.25344336 0.19797783
1.1669836 0.045843437 0.030569252 0.44525012 -0.17171644 -0.025895128 1.3261625 0.257139
0.2508806 1.2000326 0.27900615 0.08733046 0.31847626 -0.19166249 -0.28769073 -0.009160094
0.79381853 -0.07274467 0.4658046 -0.06402219 0.31909505 1.9003847 -0.11803953 -0.25018293
0.21275598 0.93318975 -0.26696664 0.6369753 0.095067814 0.29789734 1.9447038 0.038332675
-0.42461884 -0.040821474 0.8359849 -0.11906364 0.32847497 0.14435981 0.18272257 1.8816311
-1.0704532 -0.33926034 0.088421956 -0.34490415 0.19137903 -0.14764723 -0.1815758 -0.1384071
-0.70054936 -1.1591237 -0.4619202 -0.04568566 -0.24053144 0.43058503 -0.24423559 -0.06155325
-0.11549932 -0.94728136 -0.9367054 -0.4579292 0.13177882 -0.3576813 0.3198129 -0.42099354
-0.036230575 -0.10881465 -0.90054834 -0.22949104 -0.006372216 0.5091314 0.8162613 0.10183553
0.64082474 0.33932194 0.09333816 0.8437711 -0.24459179 0.02935714 0.6422002 0.57371837
00000000: 2a58 753d af5a d13e ee2d c33e 15f3 43bf
00000010: 7324 02be efcd a7bc b331 fabe 6a4d f5be
00000020: 04f9 11c0 6162 923e 5309 f83e 2aa9 d93d
00000030: f021 22bf 522b afbc d2cd b83d acab 0cbf
00000040: 2e3f 6ebe 081e 0dc0 af94 043e ed3e 963e
00000050: 417f 8d3e 4915 66bf d2c6 b0bd 0c0c 4a3d
00000060: c396 36bf c21d b9be b48e 0cc0 f865 58be
00000070: 1b3b 123f a5ec 8f3f 5f22 823f 3ef2 093e
00000080: 8793 96be 9abb e03e 1bd9 19be 881c 123f
00000090: 0a49 f7bd 2158 c63e 51fe 8f3f 0ede 723f
000000a0: 888a 823b f1fa dcbe ebec 143e 7a5c 7fbe
000000b0: cec9 d03e e87b 47be bf05 b23e 5a31 6c3f
000000c0: 27ae 5d3f 3eb4 f23d 7755 26be 2d48 d53e
000000d0: 52f5 6abe b265 e93e b903 a4bd 4eda 333f
000000e0: 7490 3f3f ba45 813e f4dd 643d 5d62 9abe
000000f0: 71cf 9c3f e236 90be a772 9e3b 170b 6dbe
00000100: 5f4a 0f3f 0ab9 293f 8ca1 3c3e b28c 8bbc
00000110: 602d 94be a43c ab3f acb1 9bbe c2a0 803d
00000120: b97c 2bbe 4847 483f 6021 313f 80be 4c3e
00000130: eda8 8c3c 01a1 1cbf dd79 a33f 68bd c2be
00000140: d1f5 fb3d 1175 d53e 78a0 1a3f 3038 98bd
00000150: fcb0 07bf 3244 ecbe eb56 5fbf e0c6 6c3f
00000160: 250a 21bf 0224 b5be 4d44 f63e 7093 c63e
00000170: 0ad2 8d3d 22b2 0fbf 83dd 48be 8f6b 41bf
00000180: 047d 403f e05f 14bf 9ba7 9dbe 3f5b a03e
00000190: 5621 c23e d8f2 10be 801b 1abf f864 9dbe
000001a0: 0c95 6fbf e4ae 6c3f 9243 08bf 8364 a5be
000001b0: 41b1 63be 6e38 b13d dfe4 643f af45 3a3f
000001c0: 75e2 c23e d02d c7bd 9992 fe3d fb72 04bd
000001d0: 146e 0b3f eab6 c9bd af24 7f3e f29c 583f
000001e0: 07e9 123f 8d9b cd3d 9909 893c 5f7c f03d
000001f0: 067a 90be 1ac2 163f 2ae1 75be 36cd c13e
00000200: d494 863f 0123 0e3f b5b9 683e bdab d13d
00000210: ca67 1f3e 3ac5 26bc 74f4 0c3f a991 1cbe
00000220: b958 24bf 223e 053f 650c 8d3f 9198 3fbd
00000230: c267 3d3e 7062 42bf 8473 0e3f 448f c23e
00000240: 6402 50bd c8ac b5be c29c f53e d92d 683f
00000250: 449a 313e 4b7f 1d3e 96c3 5dbf fff2 8b3e
00000260: 2f14 ed3e f37d 90bd 9c3f e3be 3c35 eb3e
00000270: c9f2 6c3f 543a 053e 1a70 bd3e 6242 4abf
00000280: 7bd3 903e b09d 0e3f 1c13 3ebe d491 df3d
00000290: c990 ac3f 2916 953e a38d 0b3e 29dd 843f
000002a0: 9e1d 2a3e ff9b 943d cab2 ea3e 74e0 afbe
000002b0: 3f6a 2b3c c6df a83f 54c3 813e b3ba 4a3e
000002c0: b85f 953f 54c6 3b3d 5e6c fa3c d3f7 e33e
000002d0: 6fd6 2fbe 0522 d4bc b1bf a93f b9a7 833e
000002e0: 6c73 803e ab9a 993f e5d9 8e3e 50da b23d
000002f0: 520f a33e 2c43 44be 334c 93be 3814 16bc
00000300: b137 4b3f 28fb 94bd f17d ee3e 111e 83bd
00000310: 6d60 a33e ce3f f33f b6be f1bd fa17 80be
00000320: b4dc 593e 86e5 6e3f daaf 88be d010 233f
00000330: eab2 c23d 0086 983e 0eec f83f b902 1d3d
00000340: a467 d9be 6b34 27bd 1b03 563f a3d7 f3bd
00000350: df2d a83e 0fd3 133e a01b 3b3e 4ad9 f03f
00000360: 9c04 89bf 88b3 adbe 9216 b53d 4797 b0be
00000370: ddf8 433e d630 17be 02ef 39be 97ba 0dbe
00000380: 3457 33bf 2a5e 94bf ce80 ecbe e320 3bbd
00000390: e04d 76be a475 dc3e e518 7abe 431f 7cbd
000003a0: e88a ecbd 0881 72bf edcb 6fbf b275 eabe
000003b0: 07f1 063e 0122 b7be 84be a33e 778c d7be
000003c0: 8366 14bd 37da debd 568a 66bf b3ff 6abe
000003d0: 06ce d0bb 6f56 023f 80f6 503f 258f d03d
000003e0: 170d 243f 9bbb ad3e 1428 bf3d 6201 583f
000003f0: 4576 7abe 637e f03c 3b67 243f 35df 123f

mobilenetv3_like.first_conv.bn.weight f4 [16]
1.843414 1.1691543 1.2693934 0.8753898 0.7579918 1.0647873 1.2047362 1.2251136
1.1665655 0.8992392 0.8440728 0.7226928 0.74885994 0.96492565 0.9860732 0.9758241
00000000: fdf4 eb3f d9a6 953f 7c7b a23f 8c19 603f
00000010: c00b 423f f34a 883f cc34 9a3f 86d0 9c3f
00000020: 0552 953f 8a34 663f 2815 583f 6502 393f
00000030: 49b5 3f3f 5e05 773f 4b6f 7c3f 9ccf 793f

mobilenetv3_like.first_conv.bn.bias f4 [16]
0.35173953 -0.035387527 -0.2530525 0.3653518 -0.013488757 -0.10605999 -0.07499224 0.8003094
0.0341227 0.6214982 -0.36796135 0.048487805 -0.9506859 0.828591 -0.90294355 -0.55409104
00000000: 3417 b43e 83f2 10bd 1990 81be 640f bb3e
00000010: f3ff 5cbc fb35 d9bd 8895 99bd 14e1 4c3f
00000020: 3fc4 0b3d 821a 1f3f 6e65 bcbe 269b 463d
00000030: 2760 73bf 8a1e 543f 4f27 67bf e9d8 0dbf

mobilenetv3_like.first_conv.bn.running_mean f4 [16]
-0.607985 0.5058059 0.40477055 -0.1856956 0.4584231 0.2245817 0.6169563 0.57580805
-0.51884514 0.6138736 -0.5066855 0.343657 0.58179826 0.7636032 0.59085023 -0.47009668
00000000: e8a4 1bbf 7f7c 013f 163e cf3e fd26 3ebe
00000010: 6fb6 ea3e bff8 653e d9f0 1d3f 2868 133f
00000020: 09d3 04bf d226 1d3f 24b6 01bf cff3 af3e
00000030: bbf0 143f 807b 433f f641 173f 83b0 f0be

mobilenetv3_like.first_conv.bn.running_var f4 [16]
5.4067216 3.6633918 2.355296 0.5449863 3.012611 0.74220735 5.500262 4.810345
3.8461454 5.4137783 3.7237675 1.690727 4.867705 8.373499 5.106635 3.2338092
00000000: dd03 ad40 0375 6a40 2bbd 1640 3984 0b3f
00000010: 9ece 4040 4d01 3e3f 2502 b040 59ee 9940
00000020: 3f27 7640 ac3d ad40 3552 6e40 be69 d83f
00000030: 3dc4 9b40 daf9 0541 8e69 a340 bbf6 4e40

mobilenetv3_like.block1.depthwise_conv.0.conv.weight f4 [16, 16, 1, 1]
0.3728906 -0.7905085 -1.3661419 -0.27153832 -0.19403273 -0.58950627 -0.2909181 -0.6283981
0.20029378 -0.7382237 0.070440926 -0.84213585 0.13076507 -0.96618044 -0.063880995 -0.18857802
0.22328623 -1.7114476 -0.9874869 0.13754295 -1.3275424 -1.0586053 -1.0839638 -0.2681546
0.1903283 -0.49669164 -0.06907761 -0.26637998 -0.79498583 -0.6557287 -0.8761398 -0.38973945
2.0125244 -0.11132541 -0.16734375 0.12004469 0.086770065 -0.19627754 0.62532 -1.1571971
-0.013815455 -0.24765037 0.48616803 0.01635591 -0.36845848 -0.23348393 0.6280882 0.85840434
0.23982857 0.01657622 0.27521923 -0.033194155 -0.03254153 0.029887084 0.23053646 0.14266215
0.2507511 0.018728482 0.15967232 -0.1592802 0.16448484 0.29843956 0.0012863169 0.3607479
-0.024012968 -0.7398494 -0.5384534 -1.2112238 -0.66349137 -0.44984275 0.15337813 -0.7962052
0.8358281 -0.44682539 -0.5849365 -1.145242 -0.5193236 0.40435657 0.01641818 -0.29669273
-0.029708777 0.21115878 0.4604001 0.3783914 0.18384992 -0.066248305 0.18663682 -0.025981052
0.21988617 0.22030395 0.18757258 -0.008123921 -0.033040937 0.10062885 0.31144547 0.28283384
0.27554813 0.19720954 0.50900877 0.15925744 0.07545416 -0.03383077 -0.09069008 0.0966498
0.0076537435 0.30719003 -0.048420686 -0.1250821 0.21427405 0.18738072 -0.00033030054 0.02887689
0.6524941 -0.08566033 -0.43803135 0.05930981 -0.21057771 0.118655294 -0.42544395 -1.1111178
0.76697165 -0.93512934 0.56674296 -0.11142918 -0.079886615 -1.0583575 -0.08304285 -0.76142794
-0.49550104 0.6068381 0.76756847 -0.0002675441 0.56363463 0.17500412 0.928458 0.40920487
0.071906045 0.75352746 0.42584178 0.25149348 0.29606524 1.2752316 0.5754034 0.051567957
0.071537554 0.23857087 0.48880798 0.05299994 0.23985323 0.11650571 0.6667351 0.16951092
-0.19180232 0.49021062 -0.020307895 0.0046365727 0.10730744 0.68345124 0.4251557 0.04113087
0.41596144 -0.2013601 -0.04021485 0.22069235 -0.63192534 -0.11383868 -0.29893905 -0.31334513
0.43250576 -1.0002087 0.58700764 -0.081218205 -0.14267245 -0.51269966 0.021287762 -0.24646607
0.5117532 1.0204569 0.9030005 0.086620994 0.45097545 0.08261313 0.70997363 0.19357032
0.91504586 0.055459227 0.88659066 0.96293557 0.32334417 0.5394733 0.36258093 -0.31320193
0.07262462 0.086779796 0.5030636 1.4286231 0.007643671 -0.5788725 -0.37972406 -0.4901676
-0.6073742 -0.24550618 0.31339872 0.3667749 -0.5600952 -0.19299544 -0.756615 0.31884003
0.28835547 -0.49116898 -0.14738451 -0.039956387 -0.48081973 -1.2711613 -0.09068961 -0.7121734
-0.012999248 -0.069264546 0.3464986 -0.18252708 -0.5007911 0.054569714 0.52706563 0.1064103
-1.1685945 0.7968888 0.7611839 0.039812528 0.7977713 0.32445055 0.8016204 0.006592982
0.50549686 0.34972176 -0.08788595 0.2692264 0.1449542 1.5537297 0.9593399 -0.0951973
0.13466494 -0.29189497 -0.2481477 -0.7004029 -0.07631854 0.013137149 -0.26854736 -0.2683739
-0.04891865 -0.44044438 0.06067019 -0.20126562 0.014901621 -0.29352337 -0.21809348 -0.14122713
00000000: 84eb be3e c45e 4abf bddd aebf 1207 8bbe
00000010: 84b0 46be e2e9 16bf 38f3 94be b3de 20bf
00000020: d019 4d3e 3afc 3cbf 5543 903d 3796 57bf
00000030: 47e7 053e 9a57 77bf 0ad4 82bd 991a 41be
00000040: 25a5 643e b710 dbbf f1cb 7cbf 0fd8 0c3e
00000050: e9ec a9bf 6180 87bf 53bf 8abf 8f4b 89be
00000060: 6ce5 423e 5e4e febe 9078 8dbd f562 88be
00000070: 3184 4bbf d6dd 27bf b34a 60bf ee8b c7be
00000080: 33cd 0040 94fe e3bd 295c 2bbe fed9 f53d
00000090: 81b4 b13d fbfc 48be f914 203f 091f 94bf
000000a0: 385a 62bc 0f98 7dbe 04eb f83e d4fc 853c
000000b0: 97a6 bcbe 6916 6fbe 63ca 203f 63c0 5b3f
000000c0: 9f95 753e daca 873c 89e9 8c3e 98f6 07bd
000000d0: 444a 05bd c2d5 f43c c011 6c3e 0716 123e
000000e0: 7362 803e 796c 993c 2481 233e 591a 23be
000000f0: b76e 283e 12cd 983e a299 a83a f3b3 b83e
00000100: d8b6 c4bc c566 3dbf 15d8 09bf 6209 9bbf
00000110: 92da 29bf ca51 e6be 280f 1d3e 1bd4 4bbf
00000120: d5f8 553f 4cc6 e4be 66be 15bf 4a97 92bf
00000130: 64f2 04bf d307 cf3e 6b7f 863c 1ce8 97be
00000140: d25f f3bc 023a 583e 90b9 eb3e 85bc c13e
00000150: 2743 3c3e 31ad 87bd b91d 3f3e 37d6 d4bc
00000160: d729 613e 5c97 613e 0713 403e 321a 05bc
00000170: ef55 07bd 8016 ce3d c875 9f3e 99cf 903e
00000180: a514 8d3e 4cf1 493e 664e 023f 6214 233e
00000190: b687 9a3d 2292 0abd b8bb b9bd 55f0 c53d
000001a0: 41cc fa3b 0348 9d3e c554 46bd 8615 00be
000001b0: a86a 5b3e bbe0 3f3e 302c adb9 3a8f ec3c
000001c0: da09 273f af6e afbd a545 e0be d8ee 723d
000001d0: afa1 57be 8c01 f33d cad3 d9be 1c39 8ebf
000001e0: 4158 443f a364 6fbf 1116 113f fb34 e4bd
000001f0: 989b a3bd 4278 87bf 5f12 aabd f1ec 42bf
00000200: 50b2 fdbe be59 1b3f 5e7f 443f 2945 8cb9
00000210: 5c4a 103f 4834 333e 6caf 6d3f 4d83 d13e
00000220: 7a43 933d 2de7 403f ef07 da3e c1c3 803e
00000230: dd95 973e ca3a a33f a34d 133f ec38 533d
00000240: 4882 923d ec4b 743e 0a45 fa3e 7716 593d
00000250: 169c 753e 8c9a ee3d 27af 2a3f 4594 2d3e
00000260: d467 44be e3fc fa3e be5c a6bc 64ee 973b
00000270: 01c4 db3d a9f6 2e3f 02ae d93e d878 283d
00000280: e6f8 d43e 5831 4ebe 54b8 24bd 2dfd 613e
00000290: dcc5 21bf 4124 e9bd 8a0e 99be c66e a0be
000002a0: 6571 dd3e d706 80bf 2246 163f bb55 a6bd
000002b0: ba18 12be 4940 03bf ac63 ae3c 9a61 7cbe
000002c0: 4202 033f 559e 823f 0a2b 673f 5966 b13d
000002d0: 41e6 e63e 1331 a93d d5c0 353f 4c37 463e
000002e0: 7240 6a3f 3729 633d 9bf7 623f f282 763f
000002f0: 5e8d a53e ec1a 0a3f 35a4 b93e 015c a0be
00000300: 37bc 943d 9bb9 b13d c7c8 003f 1fdd b63f
00000310: c277 fa3b fd30 14bf 316b c2be 3ff7 fabe
00000320: e07c 1bbf f965 7bbe cc75 a03e ebc9 bb3e
00000330: 6662 0fbf 99a0 45be 85b1 41bf 003f a33e
00000340: 54a3 933e 807a fbbe f7eb 16be 4fa9 23bd
00000350: 012e f6be 6ab5 a2bf 79bb b9bd ff50 36bf
00000360: ccfa 54bc 92da 8dbd 4468 b13e 61e8 3abe
00000370: d833 00bf 7e84 5f3d c6ed 063f a5ed d93d
00000380: 8194 95bf e800 4c3f f3dc 423f 7612 233d
00000390: bd3a 4c3f 621e a63e ff36 4d3f f109 d83b
000003a0: 3e68 013f bb0e b33e 8dfd b3bd 0bd8 893e
000003b0: e06e 143e 9de0 c63f 4d97 753f cdf6 c2bd
000003c0: 9be5 093e 4273 95be 6e1a 7ebe 9b4d 33bf
000003d0: e54c 9cbd 323d 573c 0a7f 89be 4e68 89be
000003e0: ec5e 48bd ed81 e1be 4e81 783d 9318 4ebe
000003f0: ee25 743c b248 96be e653 5fbe d89d 10be

mobilenetv3_like.block1.depthwise_conv.0.bn.weight f4 [16]
2.0905678 1.5046037 2.0963736 -0.029349525 1.5739027 0.19459432 0.063393004 3.6659298
0.80272824 0.6636929 0.81859785 0.22078007 0.60828674 0.24377182 0.9047718 0.5873244
00000000: ddcb 0540 db96 c03f fc2a 0640 6a6e f0bc
00000010: a575 c93f bc43 473e 31d4 813d 989e 6a40
00000020: 997f 4d3f c7e7 293f a18f 513f 2c14 623e
00000030: aeb8 1b3f 529f 793e 209f 673f e45a 163f

mobilenetv3_like.block1.depthwise_conv.0.bn.bias f4 [16]
-0.027430749 0.43093345 -0.1705922 -0.795359 -0.010428313 -1.2551088 -0.8887396 -0.023762647
-0.8397548 -0.6171225 -0.30798388 -1.7609597 -0.23110786 0.95042735 -0.6407117 -0.6144573
00000000: 73b6 e0bc 4fa3 dc3e b9af 2ebe a69c 4bbf
00000010: 84db 2abc 68a7 a0bf 7084 63bf e2a9 c2bc
00000020: 2cfa 56bf bdfb 1dbf 10b0 9dbe 2167 e1bf
00000030: 8aa7 6cbe 354f 733f af05 24bf 134d 1dbf

mobilenetv3_like.block1.depthwise_conv.0.bn.running_mean f4 [16]
-2.5947876 -2.6585977 0.48986566 0.7625422 -1.8212627 0.7703249 0.91142946 -1.8964
2.4856772 1.5989991 -1.0406325 2.5036361 -0.31341448 -0.9819565 1.9406396 -1.3404523
00000000: 0011 26c0 7726 2ac0 accf fa3e f735 433f
00000010: 231f e9bf 0334 453f 7153 693f 3cbd f2bf
00000020: 5615 1f40 01ac cc3f 7233 85bf 933b 2040
00000030: dd77 a0be 8061 7bbf e166 f83f f193 abbf

mobilenetv3_like.block1.depthwise_conv.0.bn.running_var f4 [16]
41.09718 77.26985 3.1781347 0.94959766 16.327335 2.0037959 1.4724895 22.219532
40.322247 12.182492 10.2225275 24.764027 4.681707 10.895429 41.48645 4.6332817
00000000: 8363 2442 2a8a 9a42 8f66 4b40 d518 733f
00000010: 629e 8241 313e 0040 897a bc3f 9ac1 b141
00000020: fb49 2142 7deb 4241 798f 2341 ba1c c641
00000030: 8bd0 9540 ad53 2e41 20f2 2542 d843 9440

mobilenetv3_like.block1.depthwise_conv.1.conv.weight f4 [16, 1, 3, 3]
0.71662015 0.06397852 0.2749769 0.11601096 -0.7687074 0.532009 -1.002267 -0.28859645
-0.894972 0.50685334 0.6213087 -0.08365171 0.27111503 -0.63429075 -1.515801 -0.14103717
-0.9700679 0.20156111 1.1143392 0.0947184 -0.13703822 0.57684386 0.18345706 -1.4060837
0.18561105 0.29998434 -0.3201167 0.26870388 -0.1720707 0.3859243 -0.14117606 0.108855754
0.19694944 0.2038117 0.11820683 0.4263885 -0.13685855 0.49206612 -0.23411587 -0.29262918
-1.3126878 -1.0157224 0.48290625 -0.57107365 0.61321884 0.3570429 0.61057997 0.48715094
-0.12915735 -0.26964447 0.16002207 0.25559428 0.4661372 0.5532891 0.48893884 0.2122184
0.13998592 0.104988754 0.034745704 -0.23396847 0.18278795 0.5236543 -0.051815 0.09005342
-0.5615855 -0.2718575 0.44224355 -0.57201976 -2.2984898 0.091594644 0.06786907 -0.20592166
-0.08670969 0.78453076 0.28613544 0.09369689 1.0732087 0.94191945 0.2505199 1.0449568
0.4264005 -0.115994066 0.20643835 0.38152757 0.013745489 0.73572814 0.58576125 -0.0077777123
0.70032585 0.15551797 -0.54204893 0.25986722 0.51873094 -0.39127383 -0.83457106 -0.76625997
-0.16497684 0.03407903 -0.5148346 0.23247437 0.5457086 0.22063749 -0.024225364 0.7494105
0.66121054 0.32336128 0.85468453 0.50157964 0.0851526 0.36848956 1.0787673 0.8937248
0.08640597 -0.36869422 -0.3827531 0.4334015 -0.994137 0.029064292 0.49698544 -0.56571656
0.35828158 0.028894488 0.7499751 0.49774036 0.07799991 0.49557468 -0.4131712 0.56231326
0.6179761 0.039487597 1.3118668 0.061066072 0.6599113 1.2309726 0.5822041 0.34424055
0.07139157 0.007197106 0.26774734 0.33748877 0.5175593 -0.3725461 0.20674254 0.1310733
00000000: 6b74 373f 2c07 833d c6c9 8c3e 2797 ed3d
00000010: 02ca 44bf be31 083f 494a 80bf eac2 93be
00000020: e31c 65bf 24c1 013f 160e 1f3f 9651 abbd
00000030: 97cf 8a3e e160 22bf c405 c2bf 0c6c 10be
00000040: 5f56 78bf 0966 4e3e aba2 8e3f b8fb c13d
00000050: bf53 0cbe 0aac 133f 2bdc 3b3e 8dfa b3bf
00000060: d310 3e3e 8c97 993e 56e6 a3be 8e93 893e
00000070: 4d33 30be df97 c53e 7590 10be c4ef de3d
00000080: 1dad 493e 04b4 503e 6c16 f23d 984f da3e
00000090: a624 0cbe 17f0 fb3e 12bc 6fbe 7ed3 95be
000000a0: 2706 a8bf 3103 82bf 7d3f f73e e231 12bf
000000b0: e9fb 1c3f 54ce b63e f84e 1c3f d96b f93e
000000c0: d341 04be d70e 8abe d3dc 233e 41dd 823e
000000d0: 89a9 ee3e 5ba4 0d3f 3156 fa3e c84f 593e
000000e0: 7858 0f3e 5804 d73d 8351 0e3d 6e95 6fbe
000000f0: c42c 3b3e 350e 063f f73b 54bd ed6d b83d
00000100: 11c4 0fbf e830 8bbe bf6d e23e e36f 12bf
00000110: 751a 13c0 f995 bb3d f0fe 8a3d 21dd 52be
00000120: da94 b1bd 02d7 483f 5880 923e 28e4 bf3d
00000130: e75e 893f a221 713f 2544 803e 25c1 853f
00000140: 2b51 da3e 4c8e edbd 9364 533e 9557 c33e
00000150: c234 613c ae58 3c3f 73f4 153f 2edc febb
00000160: 8e48 333f 1a40 1f3e b8c3 0abf 510d 853e
00000170: 8dcb 043f 0b55 c8be 73a6 55bf 9d29 44bf
00000180: b0ef 28be 7496 0b3d 33cc 03bf c30d 6e3e
00000190: 8fb3 0b3f cbee 613e 4574 c6bc 5ed9 3f3f
000001a0: 1845 293f 9c8f a53e 9bcc 5a3f 8667 003f
000001b0: 7d64 ae3d aaaa bc3e 0c15 8a3f 26cb 643f
000001c0: 9df5 b03d 7dc5 bcbe 37f8 c3be cde6 dd3e
000001d0: c37f 7ebf 3d18 ee3c e074 fe3e cdd2 10bf
000001e0: af70 b73e 22b4 ec3c 5efe 3f3f d3d7 fe3e
000001f0: 6bbe 9f3d f7bb fd3e 2d8b d3be c3f3 0f3f
00000200: af33 1e3f bfbd 213d 40eb a73f 6b20 7a3d
00000210: f2ef 283f 8390 9d3f 540b 153f 4c40 b03e
00000220: be35 923d b3d5 eb3b 2e16 893e 54cb ac3e
00000230: c47e 043f 5dbe bebe 51b4 533e 1438 063e

mobilenetv3_like.block1.depthwise_conv.1.bn.weight f4 [16]
0.8289321 1.1860186 1.6254685 0.8691753 0.8766879 0.5861424 0.65097505 1.1860647
1.3424313 0.21751186 0.003990547 0.79348016 0.74456084 0.5497031 1.2803074 0.8717952
00000000: e534 543f 75cf 973f 5a0f d03f 4682 5e3f
00000010: 9e6e 603f 6e0d 163f 4da6 263f f8d0 973f
00000020: cad4 ab3f 6ebb 5e3e 22c3 823b 8421 4b3f
00000030: 8a9b 3e3f 58b9 0c3f 1de1 a33f f82d 5f3f

mobilenetv3_like.block1.depthwise_conv.1.bn.bias f4 [16]
0.16055939 -0.3316754 -0.16341345 -0.20348904 -0.5125423 -0.5078875 -0.7091435 0.18957826
-0.26735127 -0.8420792 -0.7781249 -0.43146637 -0.25655776 -0.22872703 -0.0764959 -0.2001005
00000000: ae69 243e 5cd1 a9be db55 27be 6e5f 50be
00000010: f935 03bf ea04 02bf 6e8a 35bf ce20 423e
00000020: 44e2 88be 8192 57bf 3233 47bf 29e9 dcbe
00000030: 8a5b 83be 6b37 6abe e2a9 9cbd 25e7 4cbe

mobilenetv3_like.block1.depthwise_conv.1.bn.running_mean f4 [16]
-0.6244001 -1.3861537 0.21780175 6e-45 -0.76646924 6.225735e-39 6e-45 -2.851558
0.6779115 0.3200431 -0.000106755564 6e-45 0.0028599729 2.056671 0.8203178 6e-45
00000000: afd8 1fbf 7c6d b1bf 6c07 5f3e 0400 0000
00000010: 5437 44bf d1ca 4300 0400 0000 ed7f 36c0
00000020: 9c8b 2d3f b0dc a33e f5e1 dfb8 0400 0000
00000030: 626e 3b3b 7fa0 0340 5900 523f 0400 0000

mobilenetv3_like.block1.depthwise_conv.1.bn.running_var f4 [16]
0.034386296 0.15413754 0.052387323 6e-45 0.04498183 1.16393e-40 6e-45 0.62316215
6.916402 1.5390474 1.970474e-05 6e-45 0.00791479 0.26301634 10.027175 6e-45
00000000: a5d8 0c3d 3bd6 1d3e 1794 563d 0400 0000
00000010: de3e 383d 7544 0100 0400 0000 8e87 1f3f
00000020: 2a53 dd40 81ff c43f 9b4b a537 0400 0000
00000030: 09ad 013c 14aa 863e 4f6f 2041 0400 0000

mobilenetv3_like.block1.depthwise_conv.2.fc.0.weight f4 [4, 16, 1, 1]
-0.2558128 -0.635964 -0.02072866 0.18718134 -0.60035044 -0.24794655 -0.16476768 -0.4412874
-0.54715896 -0.17331813 0.16978593 -0.037988774 -0.061454147 0.07439518 -0.73715466 0.0069871256
-0.2169138 -0.14657229 -0.0025337804 -0.119677864 0.05046475 -0.17836969 -0.123007536 -0.10961642
0.089239776 -0.11651669 -0.11542053 -0.21443039 -0.24548826 -0.2680969 -0.25506908 -0.33917984
0.08236504 -0.1795554 -0.13266315 -0.12692632 0.1907964 0.045979153 -0.14284998 0.08155782
-0.22869967 -0.017047012 0.11155207 -0.102999 0.18568417 -0.049153313 0.1825457 0.03247956
-0.11443933 -0.2606614 -0.17430751 0.11302825 -0.12953901 -0.1621333 -0.06670128 -0.19997904
0.24811469 -0.0600931 -0.2652069 0.08597111 -0.030288795 0.07134477 -0.13859662 -0.07605487
00000000: e5f9 82be 89ce 22bf 27cf a9bc 77ac 3f3e
00000010: 91b0 19bf b3e5 7dbe dcb8 28be 6cf0 e1be
00000020: 9c12 0cbf 4f7a 31be 5ddc 2d3e 1e9a 1bbd
00000030: 58b7 7bbd 805c 983d 2bb6 3cbf 42f4 e43b
00000040: a71e 5ebe 0c17 16be c80d 26bb ab19 f5bd
00000050: 20b4 4e3d 8ba6 36be 60eb fbbd 937e e0bd
00000060: 58c3 b63d 4da0 eebd 9961 ecbd a493 5bbe
00000070: 4661 7bbe ff43 89be 6a98 82be fba8 adbe
00000080: 01af a83d 5fdd 37be d9d8 07be f9f8 01be
00000090: 2260 433e a354 3c3d 4447 12be c907 a73d
000000a0: 3f30 6abe 2da6 8bbc 6975 e43d 24f1 d2bd
000000b0: fe23 3e3e fc54 49bd 43ed 3a3e 4909 053d
000000c0: 2b5f eabd 6975 85be ab7d 32be 5b7b e73d
000000d0: e0a5 04be 4606 26be ae9a 88bd 4ec7 4cbe
000000e0: c711 7e3e 2f24 76bd 33c9 87be 9f11 b03d
000000f0: 3520 f8bc 351d 923d 46ec 0dbe a8c2 9bbd

mobilenetv3_like.block1.depthwise_conv.2.fc.0.bias f4 [4]
0.84120804 -0.011070274 -0.24325226 -0.08296301
00000000: 6959 573f 1860 35bc 1f17 79be 83e8 a9bd

mobilenetv3_like.block1.depthwise_conv.2.fc.2.weight f4 [16, 4, 1, 1]
-0.42895222 -0.378277 -0.10268568 0.104118705 -0.39095578 -0.2808248 0.10569588 0.20301594
-0.056509387 -0.07422093 -0.4294707 -0.2055054 0.13133168 -0.48533118 -0.33424932 0.095960304
-0.29963106 0.028608955 -0.36878732 -0.41354555 0.27040341 0.012215534 0.42304158 -0.15852585
0.28834635 -0.10255318 -0.38827366 -0.035858836 -0.23269126 -0.06413846 -0.29425642 -0.2616246
0.90388584 -0.36783895 0.06863962 -0.47121114 0.53621465 0.29051313 -0.43580616 0.34476414
-0.05107061 -0.36696494 -0.13792709 0.13736159 0.3340854 0.1597691 -0.11084246 -0.051627308
0.31567845 0.47356075 0.17496334 0.16612048 0.08577647 -0.22144358 -0.13992767 0.2986883
0.8798458 0.42724332 0.32696262 0.24732025 -0.16015959 -0.31502384 0.4549485 0.08326932
00000000: a09f dbbe 86ad c1be df4c d2bd 303c d53d
00000010: 5b2b c8be 45c8 8fbe 1577 d83d 69e3 4f3e
00000020: 6376 67bd 2501 98bd 95e3 dbbe 0270 52be
00000030: d07b 063e 547d f8be ba22 abbe d686 c43d
00000040: 3e69 99be 545d ea3c b1d1 bcbe 3ebc d3be
00000050: 5172 8a3e aa23 483c e898 d83e 9a54 22be
00000060: 22a2 933e 6707 d2bd cecb c6be b7e0 12bd
00000070: 9e46 6ebe 065b 83bd c7a8 96be a9f3 85be
00000080: 1065 673f 6355 bcbe ee92 8c3d 9642 f1be
00000090: 5d45 093f 23be 943e fc21 dfbe ed84 b03e
000000a0: 6a2f 51bd d4e2 bbbe c23c 0dbe 84a8 0c3e
000000b0: 3e0d ab3e 839a 233e 5f01 e3bd 2877 53bd
000000c0: 9ba0 a13e 8e76 f23e 9729 333e 7d1b 2a3e
000000d0: 93ab af3d 1bc2 62be 3349 0fbe aced 983e
000000e0: 933d 613f a3bf da3e a567 a73e 8541 7d3e
000000f0: e000 24be ce4a a1be 03ef e83e 1b89 aa3d

mobilenetv3_like.block1.depthwise_conv.2.fc.2.bias f4 [16]
0.2530291 0.5038322 -0.6206599 -0.39038232 -0.55193967 -0.3978032 0.27201468 0.63720876
0.6976644 -1.4022857 -0.18319824 -0.11530617 0.12978458 -0.1797563 0.24140647 -0.37505367
00000000: 088d 813e 26fb 003f 91e3 1ebf 31e0 c7be
00000010: eb4b 0dbf dcac cbbe 8245 8b3e 1d20 233f
00000020: 229a 323f 197e b3bf 5298 3bbe a425 ecbd
00000030: 40e6 043e 0912 38be 4233 773e 0907 c0be

mobilenetv3_like.block1.depthwise_conv.3.conv.weight f4 [16, 16, 1, 1]
-0.37044555 -1.2707057 0.16990758 0.14882669 -0.6800267 0.1981821 0.09038404 -0.4325978
0.8209038 0.28796607 -0.0032713364 0.70104384 -0.22845641 0.13233896 0.57590616 0.024719086
0.7605683 0.366814 -0.55527294 -0.11102392 0.07864232 0.20191175 0.16148753 0.0075704185
0.8110553 0.37595835 0.20131874 -0.08894537 -0.025629004 0.5026508 0.57517296 0.31239194
0.31477696 -0.52071744 0.06064545 -0.05545454 -0.5015018 0.36940488 0.26122487 -0.36457604
0.8751901 0.41288346 -0.21917967 0.7144545 0.46311644 -0.14713934 0.9586003 -0.37891728
-0.95476663 -0.28676525 0.015335104 0.33581725 -0.22987103 0.30998373 0.124437146 0.17140464
0.8832834 0.26646316 -0.01586129 0.5031142 -0.46316993 0.032818533 1.0108021 -0.4443623
0.1303263 1.1590804 0.11221966 -0.09731478 0.49505234 -0.3400969 -0.16282167 0.82420856
-0.19938166 -0.027037727 0.17928427 -0.3849917 -0.24551705 -0.010749351 -0.431656 -0.3044641
0.06988697 -0.2813829 0.08042981 -0.08775421 -0.1460762 -0.09064551 -0.15453927 -0.4272575
-0.21357979 -0.09686358 0.06260355 -0.2964435 -1.3741614 0.11803984 -0.33448172 -0.14233649
-0.08745075 -0.8998979 -0.44979918 0.085202925 -1.0831703 -0.06864213 -0.04471919 -0.87100947
0.48988062 0.25954238 -0.1724182 0.5506757 -0.56033397 -0.092252836 0.35230607 0.114783734
0.19842036 0.29806316 0.45037594 -0.45342466 0.66311884 -0.5499622 -0.031874772 0.29968822
-1.8184385 -0.08713164 0.0030683798 -0.38265675 0.40328205 -0.5136439 -1.101907 0.051434502
-0.43670106 1.0548923 -0.0948886 -0.05516286 0.2411669 -0.25389355 0.029213352 0.7001462
-0.32849637 -0.0797182 0.26308313 -0.5392533 -0.9251476 -0.15213832 -0.04157078 -0.25319648
0.21112937 -1.0737239 -0.118888944 -0.15805042 -0.64393306 0.070363656 0.24233244 -1.1811413
0.30063453 -0.05926832 -0.21723439 0.95104825 0.06254468 -0.039203484 0.5253627 0.13143793
0.11237788 -0.19960265 -0.5943445 0.29389143 -0.19086058 0.28528497 0.3280889 -0.44674617
1.3650547 0.3937505 -0.27543762 0.31073081 -0.52854806 -0.13377641 1.1792943 -0.15121076
0.15055078 -0.540226 0.22678612 0.027012669 -0.28858468 0.3052597 0.4322968 -0.09724349
0.6609055 0.07691608 -0.17287345 0.4461369 0.38244587 0.23081544 1.100076 0.1520105
-0.6469733 -0.511249 -0.052652795 -0.13347962 -0.3353198 -0.029250508 -0.034344096 -0.012806274
-0.07624665 -0.07235408 -0.26407242 -0.41620368 -1.164011 0.1826939 -0.3314731 0.16039789
0.54748386 0.05853067 -0.9284823 -0.07842385 -0.14230672 0.064049736 -0.2379485 -1.1362195
0.24454375 0.053042397 -0.10425708 0.13672735 -0.70538825 -0.054103475 0.26174957 0.43889633
0.10079932 0.6901787 0.4687724 0.015466993 0.49705768 -0.25101793 -0.37096718 0.40444925
-0.9730915 -0.3888579 0.03834539 -0.62984383 0.5211401 -0.47284105 -0.9339813 -0.102099486
0.88937646 0.50504977 0.087003045 -0.13260494 0.46035197 0.039404918 -0.15453309 0.23472106
-0.8448886 -0.14093035 -0.13862011 -0.460337 0.64495754 -0.14886352 -0.8035799 -0.1071107
00000000: 0aab bdbe 7ca6 a2bf 41fc 2d3e 0666 183e
00000010: 3b16 2ebf 40f0 4a3e 441b b93d 757d ddbe
00000020: c026 523f 4a70 933e eb63 56bb 9c77 333f
00000030: 7af0 69be dd83 073e 966e 133f ae7f ca3c
00000040: 9bb4 423f 0bcf bb3e 5e26 0ebf 8260 e3bd
00000050: 3a0f a13d f4c1 4e3e fd5c 253e 4611 f83b
00000060: 52a1 4f3f 9d7d c03e 8026 4e3e fd28 b6bd
00000070: ebf3 d1bc b9ad 003f 893e 133f d6f1 9f3e
00000080: 722a a13e bd4d 05bf 5d67 783d 4d24 63bd
00000090: 6c62 00bf a322 bd3e 44bf 853e b6a9 babe
000000a0: 750c 603f 7665 d33e a370 60be 7de6 363f
000000b0: 991d ed3e b2ab 16be d466 753f 7201 c2be
000000c0: 966b 74bf e5d2 92be 1740 7b3c 3df0 ab3e
000000d0: 5063 6bbe 30b6 9e3e e7d8 fe3d b384 2f3e
000000e0: dc1e 623f dc6d 883e 89ef 81bc 18cc 003f
000000f0: 9c24 edbe ba6c 063d f761 813f 7583 e3be
00000100: 4274 053e bf5c 943f 6cd3 e53d f94c c7bd
00000110: 8077 fd3e 2e21 aebe b9ba 26be 55ff 523f
00000120: b52a 4cbe 397e ddbc 4c96 373e a21d c5be
00000130: d268 7bbe 0c1e 30bc 0402 ddbe b8e2 9bbe
00000140: e620 8f3d 6b11 90be 62b8 a43d 7bb8 b3bd
00000150: 0095 15be 5aa4 b9bd 8b3f 1ebe 7fc1 dabe
00000160: a9b4 5abe 6a60 c6bd 4a36 803d 71c7 97be
00000170: 85e4 afbf dfbe f13d 3041 abbe a8c0 11be
00000180: 6119 b3bd b55f 66bf 144c e6be df7e ae3d
00000190: 53a5 8abf 3f94 8cbd 782b 37bd 7afa 5ebf
000001a0: a2d1 fa3e bde2 843e 668e 30be 15f9 0c3f
000001b0: 0c72 0fbf 0eef bcbd 7661 b43e bc13 eb3d
000001c0: b52e 4b3e bc9b 983e ad97 e63e 4727 e8be
000001d0: 28c2 293f 53ca 0cbf 1f8f 02bd bc70 993e
000001e0: 98c2 e8bf 1372 b2bd df16 493b 96eb c3be
000001f0: fc7a ce3e 2b7e 03bf 4a0b 8dbf fcac 523d
00000200: 4897 dfbe b606 873f f454 c2bd 73f2 61bd
00000210: 75f4 763e 56fe 81be d750 ef3c c83c 333f
00000220: ad30 a8be 4c43 a3bd d5b2 863e 810c 0abf
00000230: 79d6 6cbf 26ca 1bbe 1f46 2abd f8a2 81be
00000240: 4c32 583e c96f 89bf 0c7c f3bd f8d7 21be
00000250: ccd8 24bf d21a 903d ff25 783e a32f 97bf
00000260: c5ec 993e 57c3 72bd b172 5ebe e677 733f
00000270: 6d17 803d d593 20bd 2b7e 063f aa97 063e
00000280: 6026 e63d a364 4cbe f626 18bf f078 963e
00000290: f570 43be df10 923e 45fb a73e eabb e4be
000002a0: 1dba ae3f aa99 c93e 2906 8dbe 1c18 9f3e
000002b0: ed4e 07bf affc 08be 1ef3 963f fed6 1abe
000002c0: fc29 1a3e 404c 0abf 9f3a 683e ac49 dd3c
000002d0: 5fc1 93be 004b 9c3e 0256 dd3e 9827 c7bd
000002e0: 1a31 293f 2e86 9d3d bd05 31be 0e6c e43e
000002f0: f2cf c33e e25a 6c3e 4acf 8c3f a4a8 1b3e
00000300: 0ba0 25bf 37e1 02bf 75aa 57bd e2ae 08be
00000310: 09af abbe c39e efbc 65ac 0cbd 68d1 51bc
00000320: 3427 9cbd 602e 94bd 8034 87be a618 d5be
00000330: 50fe 94bf 1c14 3b3e d8b6 a9be 583f 243e
00000340: e727 0c3f dbbd 6f3d 04b1 6dbf af9c a0bd
00000350: dab8 11be 822c 833d c6a8 73be a46f 91bf
00000360: ad69 7a3e fc42 593d bc84 d5bd 4102 0c3e
00000370: 5394 34bf 9b9b 5dbd 0a04 863e 05b7 e03e
00000380: e06f ce3d 8daf 303f f002 f03e 4569 7d3c
00000390: 587e fe3e 6c85 80be 69ef bdbe f913 cf3e
000003a0: 861c 79bf 6218 c7be 0e10 1d3d 723d 21bf
000003b0: 7069 053f 3918 f2be 6619 6fbf 8919 d1bd
000003c0: 2dae 633f f14a 013f a72e b23d 97c9 07be
000003d0: 41b3 eb3e 0d67 213d ec3d 1ebe b85a 703e
000003e0: 9f4a 58bf 0c50 10be 6ef2 0dbe 4bb1 ebbe
000003f0: f01b 253f ae6f 18be 6ab7 4dbf db5c dbbd

mobilenetv3_like.block1.depthwise_conv.3.bn.weight f4 [16]
1.2047007 0.59116673 0.49468002 1.6730361 0.674539 0.81592864 0.9001282 1.6087626
1.1389675 0.8216124 1.5718672 0.93215597 0.63804626 1.0504785 1.3445451 0.5643617
00000000: a233 9a3f b456 173f b346 fd3e 0c26 d63f
00000010: 97ae 2c3f b3e0 503f cd6e 663f efeb cd3f
00000020: b0c9 913f 3155 523f f232 c93f c6a1 6e3f
00000030: 0057 233f 1476 863f 0e1a ac3f 027a 103f

mobilenetv3_like.block1.depthwise_conv.3.bn.bias f4 [16]
-0.52300733 1.015837 -0.16109706 -0.6240545 0.6119958 -0.090672545 -0.51283896 -0.3296501
0.81999004 -0.32404408 0.520664 0.68345976 -0.5823782 -0.15948169 0.27435675 0.87017006
00000000: cfe3 05bf f206 823f a1f6 24be 09c2 1fbf
00000010: c2ab 1c3f 87b2 b9bd 6a49 03bf e6c7 a8be
00000020: deea 513f 1be9 a5be 3c4a 053f 38f7 2e3f
00000030: bd16 15bf 2b4f 23be 7d78 8c3e 77c3 5e3f

mobilenetv3_like.block1.depthwise_conv.3.bn.running_mean f4 [16]
-0.106206074 0.3936132 0.19461963 0.20686668 0.27888015 -0.24503396 -0.26394337 -0.35760576
0.18399978 -0.27637777 0.33410648 0.2253256 -0.27071622 -0.10324088 -0.10908677 -0.04088282
00000000: 9282 d9bd ab87 c93e 5e4a 473e dcd4 533e
00000010: 61c9 8e3e 2fea 7abe 9623 87be 1a18 b7be
00000020: 706a 3c3e 6381 8dbe 0110 ab3e c1bb 663e
00000030: 519b 8abe f46f d3bd e268 dfbd be74 27bd

mobilenetv3_like.block1.depthwise_conv.3.bn.running_var f4 [16]
0.23879701 2.3050818 0.6472403 0.84057117 1.0251355 0.8032087 0.881624 2.3959515
0.53239775 1.005979 2.0898962 0.78001654 0.9513613 0.16967167 0.4492115 0.22210696
00000000: 3487 743e 7686 1340 8ab1 253f ac2f 573f
00000010: a437 833f 169f 4d3f 1cb2 613f 4557 1940
00000020: 384b 083f ebc3 803f dcc0 0540 2aaf 473f
00000030: 6a8c 733f 69be 2d3e 0dff e53e 0270 633e

mobilenetv3_like.block2.depthwise_conv.0.conv.weight f4 [72, 16, 1, 1]
0.56562537 -0.504478 -0.15988687 -0.109328635 -0.37206858 0.6362909 1.1367161 0.48091602
-0.13947046 0.91968894 -0.07400629 -0.70620996 0.34635141 0.67096055 -0.16905789 -0.23671696
-0.204723 0.3319775 -0.13568704 -0.015688514 -0.13919345 0.19573659 -0.24593145 -0.13421263
-0.04002817 -0.20164949 0.2504346 0.29839528 0.10101157 -0.0052456353 -0.34288022 -0.24945398
0.011916437 -0.30535778 -0.07654946 -0.40588474 -0.3724475 0.00011813225 0.19350237 0.5261509
-0.4238635 0.353937 -0.36296505 -0.018333284 0.08821256 -0.04424173 -0.08158468 0.30265418
0.7930131 -0.6616627 0.012950973 0.11548568 0.39775324 1.5234761 0.28032172 -0.00830662
0.24979778 0.022117976 -0.3854631 -0.21735516 1.0766647 -0.16278262 -0.32920396 -0.5516657
-0.9660922 0.20702703 0.023236243 -0.47280127 0.69439214 -0.2092504 -0.7168478 0.6394261
0.42024273 -0.93187 -0.2764632 -0.07910731 -0.15598471 -0.55264956 0.8975309 0.5276654
-0.81356657 -0.035793588 -0.66666687 -0.99124193 0.28564525 0.3150469 -0.6260593 0.8676026
0.26814333 -0.4211697 -0.46176344 -0.50289 0.20762284 0.13810183 1.0506027 0.5021672
0.46688962 0.40067768 0.78387105 0.8011833 -0.4979711 -0.7191561 0.17774571 -1.3909847
-0.2866202 0.15811567 0.92547333 0.51470554 -0.17365545 0.047106065 -0.8299246 -0.22523713
-0.17350699 0.049408194 0.48879096 0.096813604 0.08855445 -0.4805121 -0.9110798 -0.10209383
0.061796553 -0.20437439 -0.29557496 0.62893265 -0.58006996 -0.85986847 0.35483128 0.27499333
-0.33763763 0.37226993 -0.05330199 0.38020837 0.103656985 -1.0758706 -0.05896512 -0.6845108
0.2238171 -0.1500552 0.38993558 0.6619281 -0.51700336 -0.6156864 0.05237609 0.26787695
-0.27142787 0.30803394 -0.18666637 -0.15414463 -0.002791329 -0.4310003 -0.05364833 -0.051381562
-0.00911037 -0.058097266 0.056045998 0.28001276 -0.07459354 -0.42259994 0.30223444 0.23935848
0.30140463 0.12212339 -0.030476999 -0.36523035 -0.22071831 0.9941895 0.72343135 0.010758159
-0.3943925 0.554353 0.17020488 -0.23503096 0.39359674 1.3824828 -0.87507176 0.30101535
-0.20286322 -0.057395287 0.41262302 -0.34328273 -0.574353 -0.30482942 0.5479342 0.2866932
-1.030849 0.6166722 -0.22292304 -0.04985207 -0.4633461 0.9481732 -0.16982855 -0.075111434
-0.92856073 0.4794611 -0.0108604105 -0.9461691 -0.13308062 -0.5442595 -0.30949712 -0.07967077
-0.21264692 0.13615704 0.02167058 0.26330262 -0.89872694 0.6622312 0.61562467 1.6344533
0.0033898049 -0.39063114 -0.51444656 -0.76984787 0.29050353 1.4941838 0.079468004 0.6141452
0.38980514 -0.11815158 -0.6382084 -1.198117 0.6843535 0.33033246 0.2029154 -0.23262918
0.015271114 0.6630788 0.280524 1.0419438 -0.23339774 -0.17652355 0.17293428 -1.1538081
-0.2269315 0.122367285 1.1690975 0.5759413 -0.058326036 0.1313814 -0.67615235 -0.22626592
0.06442541 0.0815205 0.33720592 -1.0411016 -0.2200261 -0.16113855 -0.1740496 0.6997973
-0.8332533 0.15519181 -0.5329403 0.23114455 -0.42038345 -0.17565994 0.7119752 0.63878626
00000000: d3cc 103f 7825 01bf 62b9 23be b1e7 dfbd
00000010: c67f bebe f6e3 223f ea7f 913f a03a f63e
00000020: 58d1 0ebe bc70 6b3f 9c90 97bd 2dca 34bf
00000030: f954 b13e 12c4 2b3f 831d 2dbe ee65 72be
00000040: e8a2 51be f4f8 a93e 8bf1 0abe 3385 80bc
00000050: ba88 0ebe 2c6f 483e 74d5 7bbe 096f 09be
00000060: 94f4 23bd 347d 4ebe f738 803e 44c7 983e
00000070: 27df ce3d 94e3 abbb ff8d afbe dd70 7fbe
00000080: 293d 433c db57 9cbe f7c5 9cbd 20d0 cfbe
00000090: 70b1 bebe c5bd f738 7c25 463e d3b1 063f
000000a0: a304 d9be 3b37 b53e 8ed6 b9be af2f 96bc
000000b0: c9a8 b43d d136 35bd de15 a7bd 7df5 9a3e
000000c0: e802 4b3f ba62 29bf 5130 543c c283 ec3d
000000d0: 50a6 cb3e 4401 c33f 5486 8f3e 7d18 08bc
000000e0: fdca 7f3e c230 b53c 6b5b c5be 5a92 5ebe
000000f0: 26d0 893f 7db0 26be 6c8d a8be f739 0dbf
00000100: d251 77bf e5fe 533e ef59 be3c 0213 f2be
00000110: afc3 313f bd45 56be 5683 37bf 6eb1 233f
00000120: 0e2a d73e 088f 6ebf 968c 8dbe 0303 a2bd
00000130: 75ba 1fbe 717a 0dbf 96c4 653f 1415 073f
00000140: e645 50bf 4c9c 12bd aeaa 2abf 08c2 7dbf
00000150: 1840 923e d44d a13e 6c45 20bf 341b 5e3f
00000160: 154a 893e 8ea3 d7be 426c ecbe 66bd 00bf
00000170: 159b 543e 916a 0d3e 267a 863f 088e 003f
00000180: 280c ef3e a025 cd3e c6ab 483f 591a 4d3f
00000190: 11f6 febe 9d1a 38bf f902 363e c90b b2bf
000001a0: e2bf 92be 13e9 213e d2eb 6c3f bec3 033f
000001b0: bcd2 31be 4af2 403d f075 54bf 90a4 66be
000001c0: d1ab 31be 3f60 4a3d cf42 fa3e 3646 c63d
000001d0: 095c b53d af05 f6be 873c 69bf 9216 d1bd
000001e0: 621e 7d3d 8547 51be 9a55 97be bb01 213f
000001f0: 777f 14bf 5720 5cbf 72ac b53e edcb 8c3e
00000200: d7de acbe 2a9a be3e 3053 5abd acaa c23e
00000210: 1d4a d43d 21b6 89bf 6985 71bd 1a3c 2fbf
00000220: 4f30 653e 12a8 19be a3a5 c73e 1f74 293f
00000230: 555a 04bf a09d 1dbf 5088 563d 2b27 893e
00000240: 98f8 8abe a0b6 9d3e 7825 3fbe 17d8 1dbe
00000250: bbee 36bb 12ac dcbe 5abe 5bbd 7975 52bd
00000260: a943 15bc 66f7 6dbd 7d90 653d d55d 8f3e
00000270: 7fc4 98bd 055f d8be 79be 9a3e 641a 753e
00000280: b551 9a3e d41b fa3d e6aa f9bc 79ff babe
00000290: fb03 62be 3483 7e3f cc32 393f fd42 303c
000002a0: d0ed c9be 14ea 0d3f 304a 2e3e f5ab 70be
000002b0: 8385 c93e 32f5 b03f b404 60bf af1e 9a3e
000002c0: 60bb 4fbe 5217 6bbd 5343 d33e c1c2 afbe
000002d0: cc08 13bf 9a12 9cbe 6a45 0c3f 73c9 923e
000002e0: dcf2 83bf 3bde 1d3f f045 64be af31 4cbd
000002f0: b33b edbe 7bbb 723f 89e7 2dbe 06d4 99bd
00000300: 28b6 6dbf ed7b f53e ddef 31bc 2338 72bf
00000310: 4946 08be 9754 0bbf 6876 9ebe 6e2a a3bd
00000320: 1dc0 59be c06c 0b3e 8086 b13c 9acf 863e
00000330: f812 66bf fc87 293f 9499 1d3f c435 d13f
00000340: 7d27 5e3b ce00 c8be c5b2 03bf c014 45bf
00000350: e1bc 943e 6a41 bf3f 1fc0 a23d 9f38 1d3f
00000360: 8a94 c73e 75f9 f1bd a061 23bf e65b 99bf
00000370: ca31 2f3f 5621 a93e 0ec9 4f3e 5836 6ebe
00000380: b233 7a3c 88bf 293f d7a0 8f3e 6a5e 853f
00000390: d1ff 6ebe 97c2 34be af15 313e fcaf 93bf
000003a0: bb60 68be b39b fa3d fda4 953f e470 133f
000003b0: 48e7 6ebd d988 063e 5218 2dbf 41b2 67be
000003c0: 78f1 833d 38f4 a63d 41a6 ac3e d142 85bf
000003d0: 864e 61be 8101 25be 0f3a 32be ea25 333f
000003e0: 1750 55bf 9aea 1e3e c76e 08bf 28b1 6c3e
000003f0: 803c d7be 33e0 33be 0244 363f 7f87 233f

mobilenetv3_like.block2.depthwise_conv.0.bn.weight f4 [72]
0.8372755 0.776711 0.6271221 0.6376947 0.37086928 0.666202 0.74972343 2.3233016
0.74672264 1.0677614 1.170933 1.6557535 0.5489255 0.37873378 1.0382011 1.0190222
1.014297 0.9062273 1.012655 0.7778976 0.38223666 1.1006957 0.5702525 0.28041688
1.2869468 0.5371295 1.8533143 1.2099165 0.7108139 0.97403497 0.6505115 1.1493618
0.62210995 0.8848405 1.2663908 1.0196427 0.81930757 0.28745934 0.66839176 0.86742413
0.6812249 0.68960476 1.0776253 1.6103759 1.067504 1.0402116 0.50930625 1.4166545
1.4736284 1.7850854 0.555842 0.87216985 0.8825594 0.10493712 0.7060177 1.0105113
1.8714545 0.48545256 0.89400536 0.7674664 0.93954873 0.38082215 1.5581623 0.9867298
0.8692444 0.29278657 1.4726683 1.1147965 1.2942842 0.91476494 -0.07985384 1.0824928
00000000: b057 563f 88d6 463f 138b 203f f63f 233f
00000010: 94e2 bd3e 378c 2a3f e0ed 3f3f f9b0 1440
00000020: 3729 3f3f 68ac 883f 22e1 953f bbef d33f
00000030: 6286 0c3f 65e9 c13e c6e3 843f 526f 823f
00000040: 7cd4 813f 83fe 673f ae9e 813f 4c24 473f
00000050: 86b4 c33e 99e3 8c3f 11fc 113f cd92 8f3e
00000060: acba a43f 5281 093f 6739 ed3f 8bde 9a3f
00000070: e6f7 353f 5b5a 793f ec87 263f 4a1e 933f
00000080: 9942 1f3f e884 623f 1819 a23f a783 823f
00000090: 24be 513f df2d 933e b91b 2b3f 820f 5e3f
000000a0: c164 2e3f f089 303f a0ef 893f cc20 ce3f
000000b0: f9a3 883f a725 853f e561 023f ef54 b53f
000000c0: db9f bc3f ae7d e43f a94b 0e3f 8646 5f3f
000000d0: 6aef 613f 46e9 d63d 93bd 343f 6f58 813f
000000e0: d28b ef3f 3d8d f83e 89dd 643f ae78 443f
000000f0: 4486 703f 1ffb c23e dd71 c73f 539a 7c3f
00000100: cd86 5e3f 1fe8 953e 6580 bc3f a7b1 8e3f
00000110: 1bab a53f 092e 6a3f 698a a3bd 208f 8a3f

mobilenetv3_like.block2.depthwise_conv.0.bn.bias f4 [72]
0.49507716 -0.1498823 0.5806992 0.59268105 -0.15180077 -0.27881932 -0.81262535 0.37992617
0.07756369 -0.07275698 0.35925287 -0.06902593 -0.13398105 0.9073811 -0.03877167 -0.24300173
-0.34960836 -0.3961211 0.43909895 0.10373877 0.43012235 -0.10385881 -0.29393712 1.4112209
-0.2275185 0.5139168 -0.073887914 0.14052056 -0.2644403 0.3380559 0.14191777 -0.37188452
0.6322237 0.15764742 0.20499907 0.0962726 0.3910438 -1.0035712 0.11988561 0.14313985
0.427176 -0.35712025 0.17840622 0.2025128 0.5621671 -0.5179568 0.47304586 -0.07740237
0.17526789 0.27320638 0.54030025 0.023781367 -0.096533746 -0.6123639 -0.26690817 -0.35789597
0.13040103 -0.3949669 0.38333473 -0.06881562 -0.25811175 0.47978848 0.44356173 0.3552833
0.13624993 -0.48767596 0.4025932 -0.2863218 -0.07802913 0.6470037 -0.9382261 0.1463794
00000000: c17a fd3e bf7a 19be b4a8 143f f2b9 173f
00000010: a971 1bbe 68c1 8ebe 3708 50bf af85 c23e
00000020: b6d9 9e3d 9d01 95bd feef b73e 775d 8dbd
00000030: 5432 09be 214a 683f 0bcf 1ebd 72d5 78be
00000040: deff b2be 63d0 cabe 94d1 e03e fe74 d43d
00000050: ff38 dc3e eeb3 d4bd ed7e 96be e3a2 b43f
00000060: 9cfa 68be 0d90 033f 8c52 97bd 9fe4 0f3e
00000070: b864 87be aa15 ad3e e452 113e a667 bebe
00000080: 6ad9 213f 536e 213e 47eb 513e 922a c53d
00000090: e536 c83e 0575 80bf 9686 f53d 4193 123e
000000a0: d0b6 da3e 77d8 b6be 1fb0 363e 845f 4f3e
000000b0: 2fea 0f3f d198 04bf 1133 f23e 2285 9ebd
000000c0: 6d79 333e b5e1 8b3e 1e51 0a3f 24d1 c23c
000000d0: 7cb3 c5bd e1c3 1cbf 30a8 88be 243e b7be
000000e0: d987 053e 1a39 cabe 7344 c43e 34ef 8cbd
000000f0: 3927 84be d6a6 f53e 861a e33e b1e7 b53e
00000100: 1a85 0b3e aab0 f9be b220 ce3e c598 92be
00000110: bdcd 9fbd 09a2 253f 962f 70bf 7be4 153e

mobilenetv3_like.block2.depthwise_conv.0.bn.running_mean f4 [72]
-3.267766 0.5322743 -1.009417 -2.539027 2.975644 1.6747333 -0.12059196 1.8372794
2.2788162 1.3024076 -1.4302986 -1.7450653 3.681554 -1.4338468 0.5046639 0.52216387
0.59402937 0.6800431 -1.8859004 0.32542342 -0.6904697 2.2155683 0.65166205 4.12677
0.9805164 -1.15929 -3.1309192 3.7339106 3.724088 2.27873 1.7288345 -0.2803045
1.7420844 0.35813114 2.5435624 -1.5771476 1.2166007 -1.1966387 -0.6671455 0.2602096
1.3637326 0.58321464 -4.1250753 -2.0217156 -4.3336525 -0.4817083 -2.8724883 1.5248244
0.89295685 -3.8398235 3.255909 0.37155545 3.0840473 -0.49836025 -0.4772058 2.9493294
0.07463545 -0.6087226 0.9910108 0.3693342 -0.7459484 3.4742785 1.3131071 2.9917815
-0.41354907 2.4141028 2.9952173 -1.1642498 -0.70669657 2.8889918 -1.6836289 2.1857424
00000000: 1423 51c0 2143 083f 9434 81bf 6b7f 22c0
00000010: f470 3e40 a95d d63f ebf8 f6bd f92b eb3f
00000020: 20d8 1140 4bb5 a63f 0614 b7bf 4d5e dfbf
00000030: 959e 6b40 4b88 b7bf a731 013f 88ac 053f
00000040: 4f12 183f 4e17 2e3f 2f65 f1bf e69d a63e
00000050: 9fc2 30bf dfcb 0d40 53d3 263f 800e 8440
00000060: 1f03 7b3f 9d63 94bf fb60 48c0 64f8 6e40
00000070: 7557 6e40 b6d6 1140 734a dd3f 1284 8fbe
00000080: 9ffc de3f f75c b73e bac9 2240 f9df c9bf
00000090: 92b9 9b3f 752b 99bf 0cca 2abf 313a 853e
000000a0: ca8e ae3f 8e4d 153f 9e00 84c0 ca63 01c0
000000b0: 48ad 8ac0 78a2 f6be d9d6 37c0 722d c33f
000000c0: d298 643f abbf 75c0 d060 5040 843c be3e
000000d0: 0861 4540 1329 ffbe 5254 f4be d0c1 3c40
000000e0: 79da 983d 3fd5 1bbf e2b2 7d3f 5f19 bd3e
000000f0: 79f6 3ebf 945a 5e40 e513 a83f 5979 3f40
00000100: b4bc d3be a980 1a40 a4b1 3f40 2306 95bf
00000110: 11ea 34bf 3ee5 3840 2781 d7bf 34e3 0b40

mobilenetv3_like.block2.depthwise_conv.0.bn.running_var f4 [72]
31.845453 2.61375 11.78102 8.710157 13.410486 29.838003 49.172207 9.907142
27.06531 1.6647182 17.375555 12.231761 6.44466 37.79192 49.462914 25.294336
7.920325 24.404888 19.441135 1.0972925 13.724087 92.12562 21.080563 8.532446
75.05794 20.337372 15.481718 35.90332 49.224457 11.042688 24.205948 48.721794
55.713104 3.3781114 5.7545257 4.1816177 3.0413733 8.807164 15.290191 1.5860466
60.279545 13.981565 27.670805 28.736319 21.353895 14.61432 12.109756 6.969269
21.82273 25.818798 21.922607 3.1763163 33.606174 1.8958764 16.392826 10.102551
12.303049 1.9979458 8.710621 3.3469346 32.3432 13.0876875 7.99177 33.037895
1.5720294 4.2200027 10.3009 26.55646 19.59762 16.08948 52.9578 11.40982
00000000: 7dc3 fe41 ae47 2740 0f7f 3c41 ce5c 0b41
00000010: 5a91 5641 3bb4 ee41 57b0 4442 a783 1e41
00000020: c185 d841 7c15 d53f 2301 8b41 4bb5 4341
00000030: a83a ce40 ed2a 1742 06da 4542 cd5a ca41
00000040: 4d73 fd40 363d c341 7287 9b41 1574 8c3f
00000050: dc95 5b41 5140 b842 fea4 a841 e684 0841
00000060: aa1d 9642 f0b2 a241 1eb5 7741 009d 0f42
00000070: d8e5 4442 daae 3041 c8a5 c141 1ee3 4242
00000080: 38da 5e42 fa32 5840 1325 b840 d0cf 8540
00000090: dca5 4240 25ea 0c41 9fa4 7441 9303 cb3f
000000a0: 411e 7142 7eb4 5f41 cf5d dd41 fbe3 e541
000000b0: c7d4 aa41 41d4 6941 90c1 4141 4004 df40
000000c0: f394 ae41 e68c ce41 8061 af41 c448 4b40
000000d0: b96c 0642 14ac f23f 8224 8341 0da4 2141
000000e0: 4ad9 4441 b0bc ff3f b45e 0b41 2d34 5640
000000f0: 705f 0142 2b67 5141 94bc ff40 ce26 0442
00000100: 4238 c93f 430a 8740 7dd0 2441 a173 d441
00000110: edc7 9c41 41b7 8041 cad4 5342 9f8e 3641

mobilenetv3_like.block2.depthwise_conv.1.conv.weight f4 [72, 1, 3, 3]
-0.16945674 -0.44847313 -0.18088827 0.580812 0.5024342 0.82741964 -0.56707704 0.076415196
1.5269403 0.24296682 0.14550652 0.06254193 0.052587077 -0.100348085 0.14877167 0.29633656
0.15673731 0.30049068 -0.23672807 -0.37244475 -0.283256 -0.29989624 0.4230365 0.069914244
-0.5123288 -0.2885254 -0.42923284 -1.3432423 -0.5931899 -0.054708783 -0.19394815 0.44792017
0.5703307 -0.7802226 -0.5420743 0.24703005 0.4896794 0.24875799 -0.9302732 0.6242387
0.72163427 -0.56871766 0.40435556 1.3198129 0.45098314 -0.9027155 0.04994013 0.051542222
0.81874686 0.38348952 -0.47982103 1.1921514 0.576544 0.37682682 0.5431902 0.38002574
0.5495522 -0.7800514 -0.53716743 -0.33874345 0.7651063 0.7373487 0.944168 0.30695271
0.02102954 0.088463694 -0.6989893 -0.67664754 -0.8070138 -0.20000404 -0.9389752 -0.76686627
-0.21379988 0.6659941 0.055777606 -0.11294395 0.5715315 0.109372415 0.27870744 0.7757316
0.7078962 -0.096765466 -0.08614961 -0.45846376 -0.14836453 -0.31438768 -0.24972 0.009429394
-0.32713243 -0.42616174 -0.03049258 0.26536542 1.013463 -0.7967173 -0.2977206 0.10942867
0.1152191 -1.3083802 0.1623091 -0.008438059 -0.4723619 -0.4043558 -0.08198617 0.10536175
-1.3051996 -0.10586664 0.3788789 -1.4738346 -0.81428117 -0.19836782 0.79006594 -0.7868421
1.0993919 0.42391115 -0.08612786 -0.468961 -0.14172925 -0.0024539258 -0.8987995 0.16448335
-0.7305724 -0.49584472 -0.15055686 0.29079425 -1.3461816 -0.22213718 -0.013144763 -0.30709448
0.20954958 0.31614873 1.0268955 -0.26156873 0.90452564 1.5519673 -0.039576694 0.55007946
1.0638268 0.73394 0.50506806 -0.6075502 -0.11637368 -0.1116453 -0.50743717 -0.60572535
-0.38716707 -0.4280847 -0.14136513 -0.17846401 -0.2522627 0.17730261 -0.27908376 -0.30938116
-0.5532379 -0.8243994 0.4346803 -0.54793787 0.07833748 -0.931536 -0.39213789 -0.23840451
-0.24866083 -0.21862747 -0.22714008 -1.0422299 -0.022788951 -1.379185 -0.32068992 0.33100906
0.81154764 -0.29482487 0.7347439 -0.38501498 0.05368147 -0.09027349 -0.029322378 -0.31584463
-0.38159338 -0.03736706 -0.24984774 -0.08594977 -0.5762853 0.09510914 -0.49892443 -0.5734573
0.7244529 0.35390037 0.27595204 0.6627728 1.2514266 -0.58160734 -0.29858607 0.39221647
-0.5462467 -1.1850145 -1.254875 -0.1117475 0.069620885 0.41957214 -0.07411814 0.44365665
-0.42315614 -0.0829907 1.2979465 0.6445097 -1.0733304 0.23406184 0.27047136 0.02234596
1.161174 0.4830141 0.6281062 0.14517345 0.05570638 0.11567974 -1.3376231 -0.81508464
-0.3342982 -0.5335336 -0.080599494 0.12312452 1.0835016 0.00012533841 1.2326932 1.4233989
0.19255376 -0.099023946 -0.44319478 -0.85006464 -0.39990592 0.34732807 -0.07412108 -0.6229417
-0.9235662 -0.38488135 -0.09012302 0.30237338 -0.7157186 -0.17837694 -0.6843754 -1.1410025
-0.2430373 -0.16560072 0.49803746 0.06928005 0.39796248 -0.104056 -1.0574641 1.0957742
0.36353576 -0.39256647 0.98227805 0.062018953 0.46123058 -0.031704318 -0.076798275 0.6071654
00000000: 1186 2dbe 459e e5be c63a 39be 18b0 143f
00000010: 879f 003f c6d1 533f f62b 11bf 927f 9c3d
00000020: c872 c33f 4bcc 783e a9ff 143e fc15 803d
00000030: 8c65 573d 4c83 cdbd 9a57 183e 6db9 973e
00000040: bf7f 203e ead9 993e d868 72be 14b1 bebe
00000050: ee06 91be 008c 99be 3d98 d83e 332f 8f3d
00000060: fb27 03bf 9ab9 93be 68c4 dbbe 5def abbf
00000070: 4bdb 17bf 5116 60bd 589a 46be cb55 e53e
00000080: 3101 123f abbc 47bf 62c5 0abf 72f5 7c3e
00000090: 42b7 fa3e 6aba 7e3e 6226 6ebf 1cce 1f3f
000000a0: 06bd 383f 7b97 11bf b107 cf3e a1ef a83f
000000b0: 43e7 e63e 5d18 67bf 068e 4c3d f01d 533d
000000c0: 6599 513f bd58 c43e 1aab f5be 6b98 983f
000000d0: 6398 133f 72ef c03e 830e 0b3f bc92 c23e
000000e0: 74af 0c3f 73b1 47bf ce83 09bf c86f adbe
000000f0: 02de 433f e2c2 3c3f feb4 713f e828 9d3e
00000100: 2446 ac3c 742c b53d f6f0 32bf c638 2dbf
00000110: 7598 4ebf dccd 4cbe ae60 70bf 5951 44bf
00000120: 5bee 5abe 977e 2a3f 0f77 643d 284f e7bd
00000130: e34f 123f a5fe df3d beb2 8e3e 5996 463f
00000140: af38 353f f92c c6bd 356f b0bd c3bb eabe
00000150: dfec 17be 6cf7 a0be 9ab6 7fbe bf7d 1a3c
00000160: e77d a7be df31 dabe 93cb f9bc fadd 873e
00000170: 28b9 813f aaf5 4bbf d66e 98be 231c e03d
00000180: fef7 eb3d 0179 a7bf 5b34 263e c93f 0abc
00000190: 6bd9 f1be b907 cfbe 5de8 a7bd e7c7 d73d
000001a0: c810 a7bf 9cd0 d8bd 6afc c13e 9da6 bcbf
000001b0: bb74 50bf ef20 4bbe c341 4a3f 7c6e 49bf
000001c0: e0b8 8c3f e20a d93e ce63 b0bd a81b f0be
000001d0: 7921 11be 0bd2 20bb b917 66bf 536e 283e
000001e0: cb06 3bbf 5cdf fdbe 942b 1abe fce2 943e
000001f0: ae4f acbf ee77 63be 225d 57bc 7d3b 9dbe
00000200: 2a94 563e 3fde a13e 5071 833f 56ec 85be
00000210: fe8e 673f dda6 c63f 2c1b 22bd 02d2 0c3f
00000220: 7a2b 883f 7ee3 3b3f 244c 013f 6988 1bbf
00000230: 5355 eebd 4ba6 e4bd 67e7 01bf d110 1bbf
00000240: c33a c6be eb2d dbbe 05c2 10be 45bf 36be
00000250: 9428 81be d18e 353e 11e4 8ebe 3567 9ebe
00000260: 00a1 0dbf d70b 53bf 6b8e de3e a845 0cbf
00000270: 676f a03d 2579 6ebf 4cc6 c8be 5020 74be
00000280: f2a0 7ebe e1df 5fbe 6997 68be ca67 85bf
00000290: e5af babc 2289 b0bf 7831 a4be 057a a93e
000002a0: 96c1 4f3f 49f3 96be 2d18 3c3f af20 c5be
000002b0: 1ae1 5b3d 4fe1 b8bd 7c35 f0bc 63b6 a1be
000002c0: 3560 c3be 340e 19bd 16d8 7fbe 6f06 b0bd
000002d0: 6f87 13bf 95c8 c23d 0673 ffbe 19ce 12bf
000002e0: bf75 393f 6e32 b53e 9649 8d3e 7aab 293f
000002f0: bf2e a03f 38e4 14bf 46e0 98be 99d0 c83e
00000300: d3d6 0bbf 8eae 97bf be9f a0bf e0db e4bd
00000310: 6595 8e3d 29d2 d63e 40cb 97bd f726 e33e
00000320: eca7 d8be 07f7 a9bd 1c23 a63f 96fe 243f
00000330: e462 89bf e8ad 6f3e 397b 8a3e e00e b73c
00000340: 5aa1 943f a04d f73e 91cb 203f 59a8 143e
00000350: 602c 643d 80e9 ec3d 3c37 abbf 63a9 50bf
00000360: 2229 abbe a895 08bf 5911 a5bd b528 fc3d
00000370: 2eb0 8a3f 466d 0339 e4c8 9d3f ef31 b63f
00000380: d02c 453e 11cd cabd 6dea e2be d69d 59bf
00000390: 78c0 ccbe fcd4 b13e cbcc 97bd 1b79 1fbf
000003a0: d66e 6cbf 2b0f c5be 6b92 b8bd afd0 9a3e
000003b0: 5639 37bf 72a8 36be 3a33 2fbf 5f0c 92bf
000003c0: c5de 78be 3c93 29be c4fe fe3e b3e2 8d3d
000003d0: bdc1 cb3e 501b d5bd fc5a 87bf 5442 8c3f
000003e0: 5c21 ba3e 79fe c8be 9376 7b3f 9607 7e3d
000003f0: 6a26 ec3e 63dc 01bd 6a48 9dbd 316f 1b3f
