python/model_pth/jus_cnn_se/best_model.pth (torch, 997997 bytes, 134 tensors)

mobilenetv3_like.first_conv.conv.weight f4 [16, 3, 3, 3]
-0.23072746 -0.32923833 -0.30484846 -0.7583218 -0.3152817 -0.097926594 -0.21250825 -0.0035987361
-0.23861171 -0.3510744 -0.33464828 -0.5623618 -0.617449 -0.44782603 -0.34361193 0.004547962
-0.21265507 -0.0040133595 -0.3442494 -0.18072067 -0.57281417 -0.4807523 -0.52221316 -0.26461637
-0.18272816 -0.036249436 0.047175083 -0.07515801 -0.39675608 0.5633774 0.8341798 0.10891645
-0.39926445 -0.51765513 0.3461921 0.14668274 -0.07096841 -0.58404166 0.5473487 0.7871278
0.07678999 -0.55092067 -0.43813542 0.5163554 0.28984746 -0.13042891 -0.3069722 0.507348
0.7508342 0.057238355 -0.6823183 -0.29409996 0.37531927 0.4567436 0.36244765 -0.16502175
0.11050033 1.1194745 -0.5254948 0.50612116 0.19787973 0.0017664401 0.35439387 0.504892
-0.048645608 0.098164484 1.0992217 -0.6114117 0.15811199 0.29537842 0.019043066 0.3119457
0.621267 -0.14288609 0.10201779 1.1185365 -0.32315356 0.3896665 0.11420114 -0.08260428
0.20433734 -0.58707607 0.018343376 -0.65494204 -0.54711896 -0.23429775 -0.0016793471 -0.02843586
-0.6149914 -0.27486148 -0.7897859 0.04839592 -0.4734701 -0.49856925 -0.24635355 -0.18920153
-0.34193853 -0.74269825 -0.15313686 -0.7436244 -0.24883862 -0.50681925 -0.7072827 -0.28548655
-0.22556853 -0.37676966 -0.6370125 -0.17209876 0.5668262 0.25467843 0.28441355 -0.16522677
-0.022066085 -0.6833013 -0.23509198 0.9402846 0.76333904 0.45762473 0.18552478 0.46778443
-0.11940401 -0.009565277 -0.8456594 0.008165837 0.7876916 0.5838045 0.5861107 0.3889015
0.40902135 -0.16775474 0.3081593 -0.9510662 -0.13934699 1.026215 0.80381066 -0.6209835
0.065354675 -0.22793068 -1.027724 -0.77896595 -0.027546413 -0.34594834 -1.1163601 -0.005694792
-0.4390055 -0.11312896 -0.29629856 -0.6842129 -0.6486675 -0.17550503 -0.523644 -1.1948925
-0.19971728 -0.4046819 0.17020608 -0.41456962 -0.9326204 -0.44705853 0.11051333 -0.23569733
-0.9067867 -0.2780644 0.29786134 0.24620214 -0.015212436 0.26903376 0.35508528 0.11624493
0.0045845974 0.20765157 0.15658003 0.35262772 0.24872047 0.25539348 0.25506204 0.3064127
0.27454013 0.24517055 0.28434876 0.40348005 0.4005705 -0.0044740723 0.0009835649 0.56700814
0.21584934 0.1932333 -0.015514813 0.27177873 0.19536793 0.22399923 0.26856607 -0.5056776
-0.2620344 -0.37096265 -1.0524715 -0.58094215 -0.04141788 0.4038849 0.26029935 0.30632293
-0.32947633 -0.32828173 -0.4606148 -0.79046255 -0.35927352 -0.085101396 0.23938948 -0.03199845
0.26984346 -0.4382515 -0.06877398 -0.5840069 -0.9701445 -0.57735735 0.04396764 0.11318686
0.5809334 0.23641162 0.6419658 0.9631715 -0.023373123 0.5230689 0.2642106 0.18499906
0.34363127 0.51249725 0.23977877 0.6994818 0.90916556 0.23960848 0.35529205 0.39404568
0.2261329 0.31406507 0.42481247 0.24845058 0.45384198 0.7013862 0.16276939 0.42110282
0.31328562 0.08373605 0.6702314 -0.46946993 -0.1413656 -0.64097077 -0.55876476 -0.67815775
-0.31007037 0.08473558 -0.7092882 -0.5221668 -0.23234035 -0.1277202 -0.5276628 -0.3579753
00000000: d243 6cbe ed91 a8be 1915 9cbe 6121 42bf
00000010: 9a6c a1be bd8d c8bd c39b 59be c6d8 6bbb
00000020: a156 74be 06c0 b3be 0557 abbe f1f6 0fbf
00000030: 2311 1ebf 7449 e5be e7ed afbe 1207 953b
00000040: 40c2 59be 8082 83bb 7541 b0be d70e 39be
00000050: f3a3 12bf 2a25 f6be c3af 05bf cc7b 87be
00000060: 171d 3bbe 4a7a 14bd a93a 413d 71ec 99bd
00000070: 9d23 cbbe 8039 103f cf8c 553f 960f df3d
00000080: 646c ccbe 0c85 04bf 1740 b13e 0034 163e
00000090: e357 91bd c183 15bf 0b1f 0c3f 3581 493f
000000a0: 1244 9d3d 2309 0dbf 4953 e0be de2f 043f
000000b0: e366 943e 288f 05be 762b 9dbe 8fe1 013f
000000c0: ac36 403f c472 6a3d 69ac 2ebf 4594 96be
000000d0: d929 c03e 4cda e93e bd92 b93e 76fb 28be
000000e0: ff4d e23d f14a 8f3f d486 06bf 2891 013f
000000f0: fca0 4a3e e587 e73a 1d73 b53e 9a40 013f
00000100: 9e40 47bd 760a c93d 4cb3 8c3f 7a85 1cbf
00000110: 1ce8 213e d73b 973e 3400 9c3c 59b7 9f3e
00000120: 5b0b 1f3f bb50 12be b4ee d03d 342c 8f3f
00000130: 6274 a5be 5e82 c73e 4ae2 e93d 6f2c a9bd
00000140: cf3d 513e 9e4a 16bf d944 963c 48aa 27bf
00000150: fd0f 0cbf c0eb 6fbe 8a1d dcba 52f2 e8bc
00000160: 1470 1dbf a5ba 8cbe 692f 4abf cd3a 463d
00000170: ac6a f2be 7844 ffbe 1b44 7cbe 0cbe 41be
00000180: 9112 afbe 7921 3ebf e9cf 1cbe 2b5e 3ebf
00000190: 8dcf 7ebe e8be 01bf 7b10 35bf 4b2b 92be
000001a0: 70fb 66be f4e7 c0be 4013 23bf a83a 30be
000001b0: 861b 113f 3665 823e a79e 913e 3531 29be
000001c0: efc3 b4bc d6ec 2ebf f4bb 70be 7eb6 703f
000001d0: 306a 433f ca4d ea3e 35fa 3d3e 7181 ef3e
000001e0: 178a f4bd aeb7 1cbc 227d 58bf 01ca 053c
000001f0: 28a6 493f 3674 153f 5a0b 163f 191e c73e
00000200: 3f6b d13e e6c7 2bbe 0ec7 9d3e 1379 73bf
00000210: fab0 0ebe 035b 833f 89c6 4d3f c6f8 1ebf
00000220: acd8 853d a966 69be 768c 83bf 506a 47bf
00000230: 04a9 e1bc 2420 b1be e3e4 8ebf 619b babb
00000240: 54c5 e0be 28b0 e7bd 72b4 97be 9428 2fbf
00000250: 130f 26bf 97b7 33be 880d 06bf 3df2 98bf
00000260: b082 4cbe 7732 cfbe 814a 2e3e 7842 d4be
00000270: 36c0 6ebf dbe4 e4be d054 e23d a45a 71be
00000280: 2c23 68bf 755e 8ebe 4881 983e 6a1c 7c3e
00000290: 953d 79bc cbbe 893e bdcd b53e d211 ee3d
000002a0: 643a 963b 9da2 543e 8456 203e 9f8b b43e
000002b0: 94b0 7e3e efc2 823e 7e97 823e 20e2 9c3e
000002c0: 8690 8c3e fd0d 7b3e 2996 913e f094 ce3e
000002d0: 9417 cd3e 3d9b 92bb f6ea 803a 7227 113f
000002e0: 9c07 5d3e f3de 453e d831 7ebc 9526 8b3e
000002f0: 880e 483e 0e60 653e 7e81 893e 1674 01bf
00000300: 5f29 86be d1ee bdbe 63b7 86bf a0b8 14bf
00000310: cca5 29bd 00ca ce3e f545 853e 5cd6 9c3e
00000320: 1fb1 a8be 8b14 a8be b4d5 ebbe c15b 4abf
00000330: b3f2 b7be a449 aebd 8422 753e cf10 03bd
00000340: ec28 8a3e 8062 e0be 5fd9 8cbd 7a81 15bf
00000350: 645b 78bf b1cd 13bf 6917 343d 83ce e73d
00000360: 0db8 143f e315 723e df57 243f 6892 763f
00000370: fe78 bfbc d8e7 053f 9d46 873e 6570 3d3e
00000380: 70f0 af3e 0533 033f 9188 753e 3d11 333f
00000390: 13bf 683f ed5b 753e d7e8 b53e 5bc0 c93e
000003a0: 628f 673e 23cd a03e 0581 d93e d469 7e3e
000003b0: fa5d e83e 0c8e 333f 05ad 263e ca9a d73e
000003c0: f966 a03e ce7d ab3d 4994 2b3f 5d5e f0be
000003d0: 25c2 10be a916 24bf 350b 0fbf bf9b 2dbf
000003e0: 8bc1 9ebe d989 ad3d e993 35bf b9ac 05bf
000003f0: a1ea 6dbe 16c9 02be e914 07bf 8a48 b7be

mobilenetv3_like.first_conv.bn.weight f4 [16]
1.0170898 1.2419221 0.6023489 1.3771075 1.2720988 0.8161269 0.42336273 0.879313
1.1079807 1.2259985 1.1342854 1.2030147 0.46401966 1.1451449 1.4961655 0.8568375
00000000: 0030 823f 4ef7 9e3f 8a33 1a3f 0f45 b03f
00000010: 22d4 a23f b1ed 503f 00c3 d83e a81a 613f
00000020: 50d2 8d3f 85ed 9c3f 4430 913f 63fc 993f
00000030: fc93 ed3e 1c94 923f 5a82 bf3f b459 5b3f

mobilenetv3_like.first_conv.bn.bias f4 [16]
0.9488299 0.56091154 -0.66922754 0.27641678 0.12787952 0.014501133 -0.88229775 -0.336536
-0.2622526 0.9079017 0.10683377 0.06718137 -0.32068324 0.43069452 -0.13407339 -0.7774376
00000000: 84e6 723f e697 0f3f 7f52 2bbf 8086 8d3e
00000010: d9f2 023e 2996 6d3c 44de 61bf 724e acbe
00000020: f945 86be 3f6c 683f aacb da3d 6396 893d
00000030: 9830 a4be fe83 dc3e 894a 09be 2706 47bf

mobilenetv3_like.first_conv.bn.running_mean f4 [16]
-0.5426762 0.13862413 0.39828208 -0.7052608 0.37380213 -0.8062849 0.41886967 -0.38747844
0.7603042 -0.8339031 0.7788801 0.60071796 0.60352683 0.8318652 -0.4927514 0.3140939
00000000: d4ec 0abf 7cf3 0d3e a1eb cb3e f98b 34bf
00000010: fe62 bf3e b068 4ebf 1676 d63e 9363 c6be
00000020: 4ca3 423f ac7a 55bf b064 473f a7c8 193f
00000030: bc80 1a3f 1ef5 543f e949 fcbe ead0 a03e

mobilenetv3_like.first_conv.bn.running_var f4 [16]
3.8504343 0.25829124 2.0740287 6.48278 1.8272203 8.51111 2.2906585 1.9765942
7.527004 9.077469 7.948987 4.7199917 4.7776628 9.035383 3.175203 1.2819531
00000000: 846d 7640 c03e 843e e3bc 0440 ef72 cf40
00000010: 5be2 e93f 822d 0841 269a 1240 0a01 fd3f
00000020: 37dd f040 503d 1141 1a5e fe40 2c0a 9740
00000030: 9de2 9840 ee90 1041 8736 4b40 0a17 a43f

mobilenetv3_like.block1.depthwise_conv.0.conv.weight f4 [16, 16, 1, 1]
0.8152573 -0.65213627 0.1906688 1.1974866 -0.11009755 0.804483 0.15157622 -0.042792697
-0.20980878 0.82396466 0.038592253 -0.10675767 0.023793168 -0.74990034 0.73438436 0.16385145
0.32433614 -0.5515939 -0.27802 0.13570786 -0.13146448 -0.11028534 -0.042867962 -0.16989134
-0.33249325 0.24509169 -0.58483243 -0.1859517 -0.23634121 -0.09587088 0.35816434 -0.09360618
0.11814946 0.06559618 0.20625046 0.04352436 -0.28706095 0.36588776 -0.06835669 -0.10968375
0.13251813 0.31373662 0.1363781 0.6966701 -0.12977171 0.2730645 -0.5888579 0.51980156
-0.5788092 0.038271528 0.8236631 -0.2481902 -0.12619801 -0.30934018 0.12691106 -0.31900886
0.5923645 -0.20881203 0.050363746 0.34850824 -0.3864889 1.1045542 -0.434668 1.391882
-0.18555829 -0.050435297 -0.09268258 -0.01937126 -0.050248887 0.029599926 -0.13154893 -0.19300538
0.23932496 -0.20397615 0.28735632 -0.05335616 -0.0028445846 0.06808563 -0.04102791 0.15628564
-0.09030411 0.7344929 0.242659 0.26160404 -0.3745091 0.16573349 -0.04697986 -0.15746471
0.028810216 -0.03141379 0.6985312 1.1004605 0.2439017 0.25334805 0.08634057 0.10491744
0.13893037 0.07064503 0.27556878 0.3550295 0.24957003 0.18887477 0.15366079 -0.16885193
0.33509701 -0.04412828 0.2754194 0.30700013 0.22332352 0.024365207 0.68180156 0.058008835
-0.23179214 0.48026025 0.23534521 0.34333244 0.22590473 -0.056784064 0.3195844 -0.58023477
0.4196909 0.18096861 1.2822764 0.80458534 0.6101332 0.93583363 -0.11661545 -0.13750531
-0.12293376 -0.34055147 -0.3459509 -0.22586419 -0.14719841 -0.29136068 -0.2762416 -0.095528245
-0.04329968 -0.29364663 -0.4339022 -0.6386557 -0.098888345 -0.19679074 -0.39231986 -0.18417464
-0.0050160345 -1.2257326 0.2272688 0.11467075 -1.6001179 -0.10762969 -0.052324474 -0.1550353
-0.16541608 0.48476344 -0.4194946 -0.4696242 0.035303783 -0.5057827 -0.2728615 -0.19009286
-0.59919256 0.35997835 0.3766775 0.1398627 0.22941884 0.022261132 0.0006918545 -0.36054435
1.0363984 -0.4984381 0.82153636 0.75507516 0.09249188 0.5266023 -0.15979378 0.8586538
-0.70925945 0.12179293 0.41624373 0.15324995 0.104521744 0.44111085 0.14178903 -0.0159749
1.0008277 -0.3299307 0.76530886 0.728604 0.083534546 1.480115 0.036220532 0.5676426
0.29464406 0.3485519 0.4795052 0.18263662 -0.2130799 -0.17184763 0.19388746 -0.11243058
0.22700223 0.24874611 0.004138629 -0.02370772 0.07449087 0.12610525 0.20382269 0.53324395
0.7497833 -0.0668768 0.049604002 0.8173121 0.1559945 0.6102801 0.28829232 0.36864984
0.05414886 1.0859627 -0.2380457 -0.2960815 -0.04465147 -0.17932867 1.0410707 0.23813699
-0.1228961 -0.24818766 0.45860282 0.38255572 0.034686487 0.42486158 0.2684247 0.15463014
-0.21109441 0.5558225 -0.1199704 -0.45448446 0.10131673 -0.2996727 0.11832171 0.45155993
0.008634103 1.1426046 0.7194592 0.13270633 -0.22611317 0.28745914 -0.27767912 -0.21282794
0.5848644 0.19166845 0.5902778 1.501776 -0.023865651 0.20025603 -0.3117956 0.6405267
00000000: b4b4 503f 67f2 26bf af3e 433e 3e47 993f
00000010: d37a e1bd 99f2 4d3f cc36 1b3e 6547 2fbd
00000020: 1dd8 56be 59ef 523f e912 1e3d c4a3 dabd
00000030: e4e9 c23c 78f9 3fbf 9d00 3c3f adc8 273e
00000040: 630f a63e 4235 0dbf a358 8ebe 00f7 0a3e
00000050: a09e 06be 48dd e1bd 5196 2fbd fff7 2dbe
00000060: 8e3c aabe 51f9 7a3e 94b7 15bf 1f6a 3ebe
00000070: 6e03 72be f457 c4bd 5161 b73e 99b4 bfbd
00000080: 58f8 f13d 4a57 863d 5233 533e 9946 323d
00000090: a7f9 92be a455 bb3e 98fe 8bbd e0a1 e0bd
000000a0: d5b2 073e 16a2 a03e b3a6 0b3e f958 323f
000000b0: e0e2 04be 1ccf 8b3e 64bf 16bf b711 053f
000000c0: d72c 14bf 9bc2 1c3d 96db 523f 9225 7ebe
000000d0: 0d3a 01be d661 9ebe f9f4 013e 2155 a3be
000000e0: 33a5 173f d2d2 55be 374a 4e3d ac6f b23e
000000f0: e0e1 c5be 0862 8d3f ce8c debe 3029 b23f
00000100: fe02 3ebe 3e95 4ebd 5dd0 bdbd 7ab0 9ebc
00000110: c7d1 4dbd 8b7b f23c c3b4 06be 34a3 45be
00000120: 9a11 753e 20df 50be 5e20 933e fd8b 5abd
00000130: 366c 3abb 7b70 8b3d e20c 28bd 5809 203e
00000140: 5cf1 b8bd ba07 3c3f 9a7b 783e f7f0 853e
00000150: a8bf bfbe 0ab6 293e f46d 40bd 6e3e 21be
00000160: 6703 ec3c bfab 00bd f1d2 323f e4db 8c3f
00000170: 5ec1 793e d6b6 813e 53d3 b03d f4de d63d
00000180: c343 0e3e 57ae 903d 5a17 8d3e 6dc6 b53e
00000190: 498f 7f3e 6368 413e 4159 1d3e 85e7 2cbe
000001a0: d691 ab3e dbbf 34bd c603 8d3e 1f2f 9d3e
000001b0: ecae 643e 8b99 c73c 8c8a 2e3f ac9a 6d3d
000001c0: eb5a 6dbe ace4 f53e 56fe 703e 45c9 af3e
000001d0: 9253 673e 6896 68bd 91a0 a33e 448a 14bf
000001e0: bae1 d63e d64f 393e a221 a43f 4ef9 4d3f
000001f0: b031 1c3f cb92 6f3f 15d4 eebd 31ce 0cbe
00000200: b2c4 fbbd c35c aebe 7a20 b1be f148 67be
00000210: 2ebb 16be 3a2d 95be 8a6f 8dbe 50a4 c3bd
00000220: 015b 31bd da58 96be 6e28 debe f17e 23bf
00000230: f985 cabd 8383 49be 26de c8be 4798 3cbe
00000240: 8c5d a4bb cee4 9cbf 27b9 683e 80d8 ea3d
00000250: aad0 ccbf f46c dcbd 3052 56bd 93c1 1ebe
00000260: d562 29be ea32 f83e ffc7 d6be 9572 f0be
00000270: b39a 103d fa7a 01bf 81b4 8bbe b4a7 42be
00000280: af64 19bf 154f b83e e0db c03e 2b38 0f3e
00000290: c6ec 6a3e fa5c b63c 925d 353a 4599 b8be
000002a0: b4a8 843f 4733 ffbe 3550 523f 9b4c 413f
000002b0: 626c bd3d 69cf 063f fba0 23be bcd0 5b3f
000002c0: 0792 35bf 926e f93d e61d d53e 8eed 1c3e
000002d0: 7f0f d63d 48d9 e13e 2531 113e cbdd 82bc
000002e0: 1f1b 803f adec a8be 48eb 433f cb85 3a3f
000002f0: 2914 ab3d 6974 bd3f fb5b 143d 0751 113f
00000300: 96db 963e 6575 b23e b581 f53e 1805 3b3e
00000310: 9e31 5abe d3f8 2fbe 6f8a 463e 0142 e6bd
00000320: 4673 683e 4db7 7e3e 569d 873b b136 c2bc
00000330: ab8e 983d bc21 013e e5b6 503e ad82 083f
00000340: ccf1 3f3f b4f6 88bd 912d 4b3d 5e3b 513f
00000350: 06bd 1f3e 513b 1c3f 0d9b 933e acbf bc3e
00000360: 32cb 5d3d d300 8b3f 41c2 73be ff97 97be
00000370: 76e4 36bd efa1 37be ce41 853f 2fda 733e
00000380: f3b0 fbbd e824 7ebe fdcd ea3e 58de c33e
00000390: 6b13 0e3d 7587 d93e f66e 893e 5d57 1e3e
000003a0: 2229 58be 624a 0e3f 0bb3 f5bd 30b2 e8be
000003b0: 257f cf3d b36e 99be a752 f23d dd32 e73e
000003c0: 0e76 0d3c de40 923f 7a2e 383f 2be4 073e
000003d0: 368a 67be d82d 933e f52b 8ebe 91ef 59be
000003e0: acb9 153f bc44 443e 721c 173f 323a c03f
000003f0: e681 c3bc eb0f 4d3e aca3 9fbe 8ff9 233f

mobilenetv3_like.block1.depthwise_conv.0.bn.weight f4 [16]
2.8373966 1.1421672 0.757912 1.053103 1.1583037 1.167227 1.0676285 1.277288
0.96570754 3.1642382 1.2084842 1.2757382 0.18361609 0.24462193 1.1829231 0.8600853
00000000: e897 3540 8932 923f 8506 423f 14cc 863f
00000010: 4c43 943f b267 953f 0da8 883f 2c7e a33f
00000020: 9c38 773f e182 4a40 9caf 9a3f 644b a33f
00000030: db05 3c3e 2c7e 7a3e 066a 973f 8d2e 5c3f

mobilenetv3_like.block1.depthwise_conv.0.bn.bias f4 [16]
-0.15799396 0.20793672 -0.45697716 -0.14596693 0.0034846172 -0.32841137 -0.12080699 -0.31665757
0.17191783 0.005372995 -0.25825903 -0.2755257 -1.2145336 -1.3522725 -0.04139798 0.678473
00000000: 2bc9 21be 5ded 543e e9f8 e9be 5b78 15be
00000010: 2d5e 643b 8925 a8be a869 f7bd f120 a2be
00000020: 3a0b 303e f30f b03b 873a 84be b411 8dbe
00000030: d675 9bbf 4417 adbf ee90 29bd 68b0 2d3f

mobilenetv3_like.block1.depthwise_conv.0.bn.running_mean f4 [16]
2.1994886 0.023945473 0.8965264 -0.21360733 -0.33823717 1.105289 1.0063595 1.6919904
-1.5354985 -1.22781 0.21308328 0.6172689 1.1351066 2.8549032 0.5157926 1.9029406
00000000: 6cc4 0c40 4c29 c43c c182 653f e1bb 5abe
00000010: 6c2d adbe 1c7a 8d3f 63d0 803f 2493 d83f
00000020: 378b c4bf e128 9dbf 8132 5a3e 5605 1e3f
00000030: 2c4b 913f bcb6 3640 fc0a 043f 8f93 f33f

mobilenetv3_like.block1.depthwise_conv.0.bn.running_var f4 [16]
7.650628 6.663212 1.7637503 12.622878 0.35815784 8.819908 2.210078 23.829525
4.7170343 28.467976 25.868183 29.335855 0.76939684 1.6615193 1.3560908 23.048016
00000000: f2d1 f440 0839 d540 92c2 e13f 4ff7 4941
00000010: 7760 b73e 581e 0d41 eb71 0d40 dea2 be41
00000020: f2f1 9640 6abe e341 0af2 ce41 d5af ea41
00000030: 31f7 443f aaac d43f 6294 ad3f 5662 b841

mobilenetv3_like.block1.depthwise_conv.1.conv.weight f4 [16, 1, 3, 3]
0.27947265 -0.09694329 -0.112661265 -0.20863122 -0.6531531 -1.6446502 0.046070118 -1.1248767
-0.9288277 -0.48691434 -0.36889577 0.31104192 0.07122761 -0.34290606 0.0031623333 -0.13117075
-0.528244 0.07319778 -0.027810695 0.39946777 -0.17961046 0.5526659 -0.18705158 0.3211029
0.7465714 0.4048704 0.3131243 0.7645204 0.22363566 -0.12370016 0.44496465 0.1096079
0.9243454 0.41018355 -0.2869391 0.96276987 -0.111000374 -0.033467054 0.06307786 -0.21715762
0.20849983 -0.275375 0.11563055 -0.3358034 -0.19509575 -0.015992371 0.0453133 -0.076308705
1.2990773 0.30640763 -0.054070186 0.05724366 0.25026417 0.44854945 0.075627215 0.067049295
0.0383703 -0.3442954 -0.5405096 -0.80107963 -0.11421221 -0.17655633 -0.2709228 0.19493294
0.2261524 -0.19606699 1.3799063 1.1951331 0.7454741 0.576192 0.77669674 0.40502408
-0.02427041 -0.36745727 0.0075413394 0.25131887 -0.053610064 0.089974985 -0.70208573 -0.24967572
-0.251671 0.16795538 -1.0253209 -0.18604828 -0.033275317 -1.5663221 -0.23496164 -0.28152943
-1.0409397 -0.7278293 -0.650761 -0.58786625 -0.05655332 -0.23989919 0.40004045 -0.69083464
-0.8847239 -0.037003387 -0.5015475 -0.30771312 -0.747033 -0.15174732 -0.6495439 0.30340257
-0.62331957 -0.7945669 -0.33815336 -0.27575073 0.24068248 0.33636144 0.21133286 0.29555023
-0.16411716 0.17739022 0.45376614 0.017008781 0.21083795 0.40694195 0.35500148 0.20578252
0.55403644 0.3618749 0.26196948 0.7438682 0.37926558 0.36453298 -0.22149874 -0.14349046
0.0988303 -0.7814845 -0.6757036 -0.14496142 0.31093973 -0.2867751 -0.8089594 0.04030531
-0.7192543 -0.08829501 -1.1620528 -0.17679855 -0.62388176 -1.1450338 -0.27662596 -0.5619981
00000000: 0a17 8f3e 348a c6bd f3ba e6bd 6ca3 55be
00000010: 0b35 27bf e683 d2bf 05b4 3c3d f6fb 8fbf
00000020: a7c7 6dbf d64c f9be e8df bcbe e340 9f3e
00000030: c8df 913d 6291 afbe 263f 4f3b a051 06be
00000040: 003b 07bf b8e8 953d 41d3 e3bc 0a87 cc3e
00000050: ceeb 37be 837b 0d3f 738a 3fbe 9967 a43e
00000060: 4e1f 3f3f 2c4b cf3e d451 a03e 9cb7 433f
00000070: bf00 653e 8256 fdbd 68d2 e33e 1b7a e03d
00000080: e6a1 6c3f 9403 d23e afe9 92be 1678 763f
00000090: 2a54 e3bd c014 09bd f72e 813d 915e 5ebe
000000a0: fb80 553e f4fd 8cbe b6cf ec3d 6cee abbe
000000b0: 2ec7 47be 6f02 83bc 709a 393d bd47 9cbd
000000c0: 2a48 a63f 76e1 9c3e b378 5dbd 5478 6a3d
000000d0: a022 803e 46a8 e53e 71e2 9a3d 2451 893d
000000e0: 2d2a 1d3d 7d47 b0be d65e 0abf 8e13 4dbf
000000f0: 17e8 e9bd 2fcb 34be 65b6 8abe 809c 473e
00000100: 7f94 673e c9c5 48be c5a0 b03f 1ffa 983f
00000110: 64d7 3e3f 5281 133f 99d5 463f 515f cf3e
00000120: bdd2 c6bc 5c23 bcbe 571d f73b deac 803e
00000130: 3a96 5bbd ce44 b83d e4bb 33bf feaa 7fbe
00000140: 05db 80be 7ffc 2b3e b73d 83bf 7183 3ebe
00000150: b34b 08bd 3e7d c8bf c999 70be a024 90be
00000160: 833d 85bf 0553 3abf 4698 26bf 677e 16bf
00000170: 74a4 67bd 22a8 75be 1ad2 cc3e 8ada 30bf
00000180: 447d 62bf dd90 17bd 6b65 00bf 938c 9dbe
00000190: 8e3d 3fbf a663 1bbe 8248 26bf 9557 9b3e
000001a0: df91 1fbf bd68 4bbf 7022 adbe 332f 8dbe
000001b0: 7875 763e 9137 ac3e a467 583e 5c52 973e
000001c0: 540e 28be c8a5 353e 0954 e83e 0056 8b3c
000001d0: e7e5 573e b25a d03e c1c2 b53e a7b8 523e
000001e0: 55d5 0d3f ab47 b93e dd20 863e 256e 3e3f
000001f0: 192f c23e 11a4 ba3e 91d0 62be 2aef 12be
00000200: 8a67 ca3d 5e0f 48bf e9fa 2cbf c470 14be
00000210: 7e33 9f3e 30d4 92be f717 4fbf 2e17 253d
00000220: 0d21 38bf 04d4 b4bd 25be 94bf ae0a 35be
00000230: b7b6 1fbf 7890 92bf eba1 8dbe 1cdf 0fbf

mobilenetv3_like.block1.depthwise_conv.1.bn.weight f4 [16]
0.71489716 0.212269 0.14088318 0.86824816 0.720336 0.29623732 0.4246948 1.2557546
0.13045914 1.1898955 1.3428191 1.128618 1.1027908 1.2266189 0.13728 1.1275744
00000000: 8003 373f 0b5d 593e ae43 103e 8345 5e3f
00000010: f167 383f 6bac 973e 9971 d93e 91bc a03f
00000020: 1597 053e 7f4e 983f 7fe1 ab3f 8e76 903f
00000030: 4028 8d3f d901 9d3f 2193 0c3e 5c54 903f

mobilenetv3_like.block1.depthwise_conv.1.bn.bias f4 [16]
0.2934428 -0.8530597 -0.83619153 0.27335465 -0.39124882 -0.6257389 -0.22304079 -0.51842886
-0.5536997 0.4716711 -0.01858863 -0.041015033 -0.2717572 -0.26707408 -0.76229 -0.0009846609
00000000: 223e 963e 1f62 5abf a610 56bf 24f5 8b3e
00000010: c451 c8be 6d30 20bf ce64 64be c1b7 04bf
00000020: 43bf 0dbf e07e f13e 2f47 98bc 61ff 27bd
00000030: c223 8bbe efbd 88be 7025 43bf bd0f 81ba

mobilenetv3_like.block1.depthwise_conv.1.bn.running_mean f4 [16]
-2.6455235 -0.67050475 0.37091935 0.875153 -0.23054998 0.6108016 -0.5377825 1.585029
-0.51917046 -3.9518948 -0.94071954 -1.0873308 6e-45 6e-45 -0.7022218 -3.2065265
00000000: 4250 29c0 33a6 2bbf 24e9 bd3e 070a 603f
00000010: 4b15 6cbe 7e5d 1c3f 1dac 09bf 3be2 ca3f
00000020: 5be8 04bf d8eb 7cc0 ffd2 70bf a82d 8bbf
00000030: 0400 0000 0400 0000 cfc4 33bf bb37 4dc0

mobilenetv3_like.block1.depthwise_conv.1.bn.running_var f4 [16]
0.6031593 0.03785881 1.8899127 10.196038 0.698138 5.0331345 3.9321551 33.838486
0.021818927 1.3030816 11.766889 15.760919 6e-45 6e-45 0.04227159 16.131874
00000000: a668 1a3f d711 1b3d a9e8 f13f f922 2341
00000010: 2cb9 323f 700f a140 6ea8 7b40 9c5a 0742
00000020: 9bbd b23c 61cb a63f 2d45 3c41 b92c 7c41
00000030: 0400 0000 0400 0000 fa24 2d3d 140e 8141

mobilenetv3_like.block1.depthwise_conv.2.fc.0.weight f4 [4, 16, 1, 1]
-0.5889318 -0.17018835 -0.3409584 -0.097078286 0.23932691 -0.090490624 0.24291511 -0.2989014
0.11791269 -0.096135065 -0.023546476 -0.09002126 -0.27129874 -0.18326944 0.012000008 0.02489209
0.014116252 -0.26642022 0.09261925 -0.3014996 0.011281287 -0.14761922 -0.2827696 -0.15434575
-0.11942821 0.02923785 -0.33791772 -0.106257044 -0.37282598 -0.15435293 -0.23737814 0.038941015
-0.113708116 -0.06953602 -0.17619616 -0.22454858 -0.13745645 -0.13950744 -0.14947918 -0.486509
-0.22289889 -0.46559852 0.22378278 0.22026326 -0.054850977 -0.30971822 -0.036885694 0.3940126
-0.103596665 -0.3550472 0.11161306 -0.09337907 0.10251649 -0.17591885 -0.2413262 0.08182841
-0.39218894 -0.37367716 -0.075378455 -0.0812853 -0.24748407 0.12019069 0.066279724 0.06574636
00000000: 3cc4 16bf db45 2ebe 1992 aebe fbd0 c6bd
00000010: 1d12 753e 2653 b9bd bdbe 783e 9b09 99be
00000020: 357c f13d 76e2 c4bd 8ae4 c0bc 115d b8bd
00000030: abe7 8abe fcaa 3bbe ae9b 443c 7fea cb3c
00000040: da47 673c 3b68 88be 29af bd3d 285e 9abe
00000050: 26d5 383c 7e29 17be 2dc7 90be d00c 1ebe
00000060: c796 f4bd 3784 ef3c 8d03 adbe 4b9d d9bd
00000070: 0ce3 bebe b20e 1ebe 4113 73be 9d80 1f3d
00000080: cddf e8bd e768 8ebd c46c 34be 10f0 65be
00000090: 62c1 0cbe 0adb 0ebe 1211 19be b517 f9be
000000a0: 9b3f 64be ee62 eebe 5027 653e b18c 613e
000000b0: 6bab 60bd 6393 9ebe 7415 17bd 05bc c93e
000000c0: 7d2a d4bd bfc8 b5be 6395 e43d 873d bfbd
000000d0: 2af4 d13d 1224 34be 371e 77be a795 a73d
000000e0: fdcc c8be 9d52 bfbe 0560 9abd e878 a6bd
000000f0: 776c 7dbe 8926 f63d aabd 873d 07a6 863d

mobilenetv3_like.block1.depthwise_conv.2.fc.0.bias f4 [4]
0.015829911 0.062528476 0.6331328 -0.24802668
00000000: bbad 813c ee0e 803d fe14 223f b5fa 7dbe

mobilenetv3_like.block1.depthwise_conv.2.fc.2.weight f4 [16, 4, 1, 1]
-0.11452651 0.3717256 0.21754892 -0.10649894 -0.23641412 0.29008093 0.05266484 0.13157709
-0.09392963 0.021660965 0.37680265 -0.44777036 0.31293848 -0.119701326 0.28793174 0.0031620695
0.16371737 0.3907898 -0.093004026 -0.2457861 -0.2031485 0.04231907 0.31930032 -0.4095483
0.13402984 -0.30237278 -0.10335324 0.6260938 0.25715163 -0.33191043 0.55935574 -0.052975852
-0.34660184 0.47385183 0.18898508 -0.20974874 -0.2852465 -0.33162436 0.36201012 0.16735257
-0.038586013 -0.44912222 -0.22503267 0.9416169 0.10430461 0.01138356 -0.13302033 0.38163015
-0.102978714 0.41881377 -0.14722298 0.42309153 0.6025628 0.39572668 0.5035116 0.04709504
-0.21620846 -0.45782208 0.25134608 -0.2369828 0.11691619 0.4624587 -0.20598792 0.5011093
00000000: e08c eabd d152 be3e 25c5 5e3e 1e1c dabd
00000010: 8b16 72be 7d85 943e 16b7 573d 25bc 063e
00000020: 2e5e c0bd 5672 b13c 47ec c03e 2842 e5be
00000030: 7939 a03e f825 f5bd ca6b 933e b93a 4f3b
00000040: 87a5 273e 9a15 c83e e578 bebd 5aaf 7bbe
00000050: 2906 50be c356 2d3d 557b a33e 51b0 d1be
00000060: 1e3f 093e 9bd0 9abe ddaa d3bd af47 203f
00000070: 61a9 833e 2af0 a9be f031 0f3f 35fd 58bd
00000080: cc75 b1be b59c f23e 4e85 413e 60c8 56be
00000090: d40b 92be abca a9be 6459 b93e 795e 2b3e
000000a0: 5e0c 1ebd 59f3 e5be f76e 66be ce0d 713f
000000b0: a89d d53d 1c82 3a3c 7b36 08be 0765 c33e
000000c0: 81e6 d2bd c26e d63e 9fc1 16be 749f d83e
000000d0: 8e41 1a3f b09c ca3e 23e6 003f bbe6 403d
000000e0: c065 5dbe a867 eabe 6fb0 803e 9eab 72be
000000f0: c171 ef3d 63c7 ec3e 7fee 52be b348 003f

mobilenetv3_like.block1.depthwise_conv.2.fc.2.bias f4 [16]
-0.026936216 -0.67055196 -0.38059026 1.042123 0.124032296 -0.3035792 -0.26600915 1.2097421
-0.5843819 0.17358038 2.1013227 1.4546577 0.14352737 0.81462663 0.76030016 0.7459748
00000000: 57a9 dcbc 4ba9 2bbf badc c2be 4964 853f
00000010: a504 fe3d bc6e 9bbe 5a32 88be d4d8 9a3f
00000020: 0d9a 15bf 0ebf 313e 127c 0640 3932 ba3f
00000030: d7f8 123e 5f8b 503f 08a3 423f 34f8 3e3f

mobilenetv3_like.block1.depthwise_conv.3.conv.weight f4 [16, 16, 1, 1]
0.20397153 0.50048965 -0.015946083 0.42027304 -0.079839066 0.18056822 0.22517136 0.5275029
-0.015386461 1.2372552 -0.44487384 -0.64077795 -0.08645209 0.26251382 -0.16165721 -0.523139
-0.91387194 0.109523095 -0.066224255 -0.31480128 -0.2113692 -0.18110065 -0.34204462 -0.5775598
-0.15236406 -0.36919162 -0.05403803 0.15027422 0.16465741 -0.28871703 -0.020983245 0.51452684
-0.16684847 0.08412372 -0.44742003 -0.51837546 -0.19162749 -0.35809422 -0.21586512 -0.9369004
0.0381952 -0.09272406 0.59849447 0.42610142 -0.49394688 -0.72311985 -0.2872908 0.6468964
0.01811529 0.22150849 0.215413 0.29686138 -0.10087416 0.20848848 -0.23447952 1.0044352
0.09489116 -0.021026608 -0.13188802 -0.45878243 0.42418718 0.8464983 -0.08741147 -0.004840262
0.3082028 0.023318624 0.3162597 0.49613473 -0.075331844 0.7769286 0.019336484 0.34065822
0.09337879 0.66332114 -0.45769355 -0.33444113 0.27885288 0.6086828 -0.12994336 -0.43182078
0.15187296 0.09447294 -0.060237713 -0.83858734 -0.060006008 -0.18309288 -0.2049818 -0.9555279
-0.13203742 -0.31436756 1.1635332 0.9111734 0.1011618 -0.3773374 0.11961786 0.5194069
-0.9151543 0.04146761 -0.30387294 -0.2597933 -0.15284257 -0.4108892 -0.3952134 -0.24422123
0.12355191 -0.6835557 0.07304001 0.08320972 -0.10681326 0.0756807 -0.19078721 0.42265573
0.010279288 -0.042201996 0.3061022 0.73433524 -0.06010689 0.24786113 -0.14244199 0.80636454
0.03310475 0.11093717 -0.9054804 -0.3394066 0.22550078 0.766853 -0.11849172 -0.87703085
-0.05513465 0.15557197 0.18894245 0.47781092 -0.2221593 0.37119088 -0.0025543396 1.2385756
0.11126113 0.009266782 -0.5485874 0.05382326 0.17009138 0.4223997 -0.020198256 0.15594094
0.8215714 0.2528396 0.12652196 -0.007130153 -0.1051256 0.06529161 0.37650135 0.70009303
0.04796741 0.97165513 -0.23473667 -0.0032040603 0.011923951 0.12698449 -0.07252971 -0.46262836
0.18827201 0.24977286 -0.20691252 -0.81808203 -0.17036325 -0.041934572 -0.029299518 -0.5174067
-0.13741821 -0.15600301 1.1682341 0.94690615 -0.44660613 -0.6474705 0.13969542 0.48286647
0.15323499 -0.23748662 0.02766371 0.47020897 -0.026659083 0.17665806 -0.15807088 1.1130184
0.011077452 0.01581245 -1.3374575 -0.7559478 0.3471885 0.79723316 -0.18618758 -0.7509997
0.64764833 0.2635558 -0.24116701 0.62050956 -0.053040277 0.10559708 0.2285493 0.31450784
-0.052109346 1.0797043 -0.44329128 -0.28938353 0.07375794 -0.22209401 -0.023070285 -0.3467584
1.1949575 0.071821555 0.28990075 -0.13061906 -0.2925052 0.014437953 0.6053499 0.533009
-0.18359154 0.33637625 0.050933834 0.07584892 -0.15490977 -0.0047069355 0.12202385 -0.5832196
-0.75426537 0.04012962 0.039252635 -0.33243793 0.09411503 -0.27565792 -0.3978177 -0.37045133
-0.19488585 -1.2379614 -0.019637061 0.0819809 -0.11900506 0.16145761 0.16531326 0.23109731
-0.102385536 -0.20875783 0.18207312 0.71341115 0.11175145 0.03736638 -0.09186954 0.6289503
0.020335026 0.21043509 -1.1106929 -1.14326 0.4806695 0.7018192 -0.052729953 -1.0327216
00000000: eadd 503e 1720 003f 5ca1 82bc 072e d73e
00000010: aa82 a3bd e0e6 383e 5293 663e 6e0a 073f
00000020: 7f17 7cbc 615e 9e3f 81c6 e3be 060a 24bf
00000030: cb0d b1bd 3668 863e 7889 25be 70ec 05bf
00000040: 83f3 69bf a54d e03d 95a0 87bd a22d a1be
00000050: 2b71 58be 7372 39be 7920 afbe f6da 13bf
00000060: 5305 1cbe af06 bdbe fb56 5dbd 7ce1 193e
00000070: f49b 283e b8d2 93be 0ee5 abbc 08b8 033f
00000080: 53da 2abe 0f49 ac3d 3d14 e5be 41b4 04bf
00000090: ff39 44be 2058 b7be bf0b 5dbe b4d8 6fbf
000000a0: 9272 1c3d 1de6 bdbd ef36 193f f729 da3e
000000b0: 9be6 fcbe 621e 39bf c817 93be 019b 253f
000000c0: 8466 943c 1fd3 623e 3a95 5c3e 37fe 973e
000000d0: 1d97 cebd 017e 553e 661b 70be 5591 803f
000000e0: 4c56 c23d fe3f acbc a70d 07be 88e5 eabe
000000f0: 102f d93e 1db4 583f c904 b3bd 0f9b 9ebb
00000100: c2cc 9d3e b306 bf3c cbec a13e 5f05 fe3e
00000110: 9547 9abd cbe4 463f 8c67 9e3c c16a ae3e
00000120: 613d bf3d 6acf 293f cf56 eabe de3b abbe
00000130: cec5 8e3e a3d2 1b3f df0f 05be 9d17 ddbe
00000140: 9684 1b3e 077b c13d d2bb 76bd a9ad 56bf
00000150: dcc8 75bd b37c 3bbe c0e6 51be 7a9d 74bf
00000160: d134 07be c9f4 a0be a8ee 943f a942 693f
00000170: eb2d cf3d 5e32 c1be 35fa f43d daf7 043f
00000180: 8d47 6abf f1d9 293d 3c95 9bbe a103 85be
00000190: c382 1cbe 1260 d2be 6959 cabe 2115 7abe
000001a0: c908 fd3d 82fd 2ebf 0096 953d dc69 aa3d
000001b0: e9c0 dabd 7cfe 9a3d b95d 43be 5566 d83e
000001c0: 756a 283c 00dc 2cbd 6db9 9c3e 65fd 3b3f
000001d0: a432 76bd 4fcf 7d3e 50dc 11be e86d 4e3f
000001e0: d998 073d 0733 e33d 90cd 67bf b4c6 adbe
000001f0: ade9 663e 7a50 443f c9ab f2bd 1885 60bf
00000200: dfd4 61bd 424e 1f3e 217a 413e a2a3 f43e
00000210: ba7d 63be bb0c be3e b566 27bb a589 9e3f
00000220: e0dc e33d b3d3 173c 3970 0cbf c775 5c3d
00000230: 6f2c 2e3e c644 d83e d076 a5bc fbae 1f3e
00000240: 8152 523f 3174 813e f98e 013e 0fa4 e9bb
00000250: 174c d7bd 9cb7 853d c9c4 c03e 4c39 333f
00000260: 7a79 443d 64be 783f cf5e 70be 36fb 51bb
00000270: ad5c 433c 3908 023e 758a 94bd a0dd ecbe
00000280: 61ca 403e 75c4 7f3e e0e0 53be d36d 51bf
00000290: b473 2ebe 96c3 2bbd 8b05 f0bc c474 04bf
000002a0: 5cb7 0cbe 41bf 1fbe b288 953f 7168 723f
000002b0: 8fa9 e4be a0c0 25bf 510c 0f3e 463a f73e
000002c0: a2e9 1c3e b12f 73be 019f e23c 3bbf f03e
000002d0: 2664 dabc dae5 343e 55dd 21be 6377 8e3f
000002e0: 347e 353c 1c89 813c cf31 abbf cc85 41bf
000002f0: b1c2 b13e 7917 4c3f f5a7 3ebe 8441 40bf
00000300: 48cc 253f c9f0 863e 7cf4 76be b7d9 1e3f
00000310: c340 59bd 4843 d83d d408 6a3e 2c07 a13e
00000320: 9c70 55bd c033 8a3f 13f7 e2be 142a 94be
00000330: 670e 973d 9d6c 63be e5fd bcbc 518a b1be
00000340: 5ef4 983f 2e17 933d df6d 943e 01c1 05be
00000350: 3ec3 95be 2a8d 6c3c 36f8 1a3f 4773 083f
00000360: 6cff 3bbe 8239 ac3e ff9f 503d ae56 9b3d
00000370: aba0 1ebe a33c 9abb a4e7 f93d e14d 15bf
00000380: 8917 41bf f55e 243d 5fc7 203d 4e35 aabe
00000390: 61bf c03d 0923 8dbe c3ae cbbe ccab bdbe
000003a0: 2890 47be 8575 9ebf e7dd a0bc 9ae5 a73d
000003b0: edb8 f3bd 2555 253e e147 293e c6a4 6c3e
000003c0: 82af d1bd 9dc4 55be 6071 3a3e 1da2 363f
000003d0: f2dd e43d 7d0d 193d 1926 bcbd e302 213f
000003e0: a495 a63c 4c7c 573e 2f2b 8ebf 5856 92bf
000003f0: 501a f63e 6caa 333f 5dfb 57bd 3930 84bf

mobilenetv3_like.block1.depthwise_conv.3.bn.weight f4 [16]
1.3533962 0.4802687 0.746945 1.1207925 0.38726318 1.7189116 0.33738106 1.2481607
0.91458917 0.88341415 1.684703 1.4213568 1.0376693 0.4638946 0.8931909 0.91276693
00000000: 163c ad3f c7e5 f53e ca37 3f3f 2176 8f3f
00000010: 5c47 c63e 4c05 dc3f 36bd ac3e bbc3 9f3f
00000020: 8422 6a3f 6e27 623f 59a4 d73f 05ef b53f
00000030: 59d2 843f 9883 ed3e 29a8 643f 18ab 693f

mobilenetv3_like.block1.depthwise_conv.3.bn.bias f4 [16]
0.4034214 -0.8660552 -0.46322858 -0.8563306 1.0623364 0.47262976 -1.4491125 0.51929027
-1.0575852 0.42719007 1.0155032 -1.0289642 0.9223933 1.0756822 -0.9652963 0.019206285
00000000: 408d ce3e cbb5 5dbf 4c2c edbe 7b38 5bbf
00000010: a4fa 873f 87fc f13e 857c b9bf 35f0 043f
00000020: f45e 87bf a8b8 da3e 02fc 813f 19b5 83bf
00000030: f821 6c3f f4af 893f a91d 77bf 8056 9d3c

mobilenetv3_like.block1.depthwise_conv.3.bn.running_mean f4 [16]
0.21900727 -0.31288502 0.002368791 0.14081387 0.13758911 0.1455967 -0.31418353 -0.11419396
0.23162521 0.37602326 0.28874078 -0.2718671 0.3309519 0.2807605 -0.52720135 -0.37189013
00000000: 7143 603e 7732 a0be b83d 1b3b 8331 103e
00000010: 29e4 0c3e 4d17 153e aadc a0be 86de e9bd
00000020: 292f 6d3e 1f86 c03e d5d5 933e 2a32 8bbe
00000030: 8772 a93e d7bf 8f3e abf6 06bf 6268 bebe

mobilenetv3_like.block1.depthwise_conv.3.bn.running_var f4 [16]
2.609585 1.498073 1.5592437 0.9451266 1.4451007 2.3573482 1.3493576 1.5872948
1.581756 2.2027426 1.1505966 1.8695909 2.5669281 0.9866408 2.4736683 1.4172809
00000000: 7103 2740 dbc0 bf3f 4c95 c73f d1f3 713f
00000010: 0ff9 b83f cbde 1640 c0b7 ac3f 7a2c cb3f
00000020: fb76 ca3f bcf9 0c40 c046 933f c14e ef3f
00000030: 8d48 2440 7e94 7c3f 9550 1e40 7669 b53f

mobilenetv3_like.block2.depthwise_conv.0.conv.weight f4 [72, 16, 1, 1]
0.10819252 0.47593898 0.25953418 0.07711414 -0.22332144 0.1420037 0.18799028 -0.19283336
0.055940524 -0.08769895 0.047238827 0.07259688 0.010767521 0.06446049 0.26495937 0.0053717303
2.058544 -0.32399312 -0.10584002 0.011154997 0.73229706 -0.5875513 -0.8550273 -0.0717728
-0.074265495 1.9186879 -0.17351162 -0.13021235 1.4908508 0.48837468 -1.779882 0.37925348
-0.67568284 0.79893106 -0.21789123 0.6102662 -0.1640218 -0.45926872 1.1473984 0.19236292
0.43918258 -1.1728444 -0.14019834 0.048758622 -0.84109706 -0.85786116 1.0651647 -0.31027815
0.0023538596 0.5540951 0.81390595 -0.21926156 -0.75259054 0.66798335 0.3469067 -0.9110971
-0.27967334 -0.4693604 0.45149612 -1.1196662 0.052508727 -0.6628179 -0.01636282 -1.0547271
-0.21598265 0.038824752 0.31221807 -0.13688515 0.1904856 0.013203371 0.21021572 -0.12077384
0.22230664 -0.21744488 0.018920794 -0.17255719 -0.16535679 0.07140789 0.2668217 0.043649197
0.0036876437 0.43254524 0.08873595 0.30697933 -0.1978168 -0.06759944 0.14872564 -0.3423946
0.08797625 -0.08124118 -0.034291845 0.2698478 -0.052710187 0.017382594 0.30825123 -0.42111525
-0.036526877 -0.16557847 0.00098435 -0.19132482 -0.12508298 0.16079965 0.011025037 -0.14578006
-0.16376205 -0.3874699 0.08351134 -0.18791525 -0.26739323 0.24981016 0.32060543 -0.42963842
-0.31732953 0.06429755 -0.6231666 1.5453706 -0.15020382 -0.43772084 0.20048839 0.2401504
1.2748423 0.1735682 0.007595028 0.73099715 -0.33420667 0.3618313 -0.082659364 -0.15233012
-0.22429055 0.20974973 0.55553806 -1.0926948 0.042914324 0.13813391 0.1016686 -0.3156846
-0.84072924 -0.09054433 0.5332607 -0.18879199 0.045384686 0.19668257 -0.04334326 -0.020974128
-0.5300037 0.13832413 0.36013016 -0.17276286 -0.34910026 0.34261328 -0.078511536 -0.3811081
0.024546195 -0.41189042 0.60648346 -0.32512096 -0.1413908 0.3975932 0.23642696 -0.65084577
-0.08243727 -0.17196494 -0.71748686 0.5950428 0.16603093 -0.26266494 0.25476298 0.710359
0.28821078 -0.02149489 -0.65124387 0.64616835 -0.06706516 -0.17307478 0.12897958 0.67070746
-0.37892324 0.35199553 0.16597602 -0.013981471 -0.24199037 -0.012656165 0.18008621 -0.4234477
-0.34851384 -0.027788397 0.099363856 -0.18431199 -0.5978424 -0.08804747 0.33925295 -0.1058231
-0.4340389 0.21756136 0.34592706 0.06524123 -0.42371753 -0.14676322 0.41200247 -0.23594078
0.15480046 -0.39365637 0.24194539 -0.2818318 -0.7911756 -0.16921951 0.5708714 -0.21682698
-0.41625836 0.19738081 0.41839582 -0.27145866 -0.31459975 0.13955116 0.2557457 -0.27368146
-0.21476305 0.2042765 0.29173967 -0.014863198 0.21181796 0.477064 -0.033546712 -0.22739005
-0.30675 0.14488026 0.46331364 0.17277704 -0.33559346 1.4072741 0.07198533 -0.7183143
-0.49215937 -0.01425741 1.2390368 -1.0028843 -0.34799206 0.014216654 0.013743432 -1.2185203
-0.08202721 0.00050057797 0.031942155 0.05321225 -0.059252955 0.19134483 0.12893203 -0.24311763
-0.16891195 -0.5584136 -0.123083994 -0.04093397 -0.114400126 -0.25652078 -0.021574168 -0.08370586
00000000: 0a94 dd3d 46ae f33e aae1 843e 05ee 9d3d
00000010: 60ae 64be 6b69 113e 8680 403e 1c76 45be
00000020: e421 653d 829b b3bd 807d 413d acad 943d
00000030: 426a 303c dd03 843d c1a8 873e 5705 b03b
00000040: 2fbf 0340 6de2 a5be a7c2 d8bd 73c3 363c
00000050: d277 3b3f c369 16bf 12e3 5abf 9efd 92bd
00000060: 8218 98bd 9197 f53f 08ad 31be 6356 05be
00000070: 33d4 be3f 3f0c fa3e 2cd3 e3bf 832d c23e
00000080: 8df9 2cbf bf86 4c3f e11e 5fbe 683a 1c3f
00000090: 55f5 27be 4525 ebbe f3dd 923f c9fa 443e
000000a0: 8adc e03e c41f 96bf 2790 0fbe 1fb7 473d
000000b0: 2352 57bf ca9c 5bbf 5157 883f c7dc 9ebe
000000c0: 3643 1a3b 2dd9 0d3f 245c 503f 1a86 60be
000000d0: c6a9 40bf f500 2b3f c19d b13e a93d 69bf
000000e0: 5831 8fbe 0250 f0be 802a e73e 3951 8fbf
000000f0: 6413 573d 6fae 29bf 520b 86bc 4c01 87bf
00000100: 8e2a 5dbe b406 1f3d 0cdb 9f3e 9f2b 0cbe
00000110: a80e 433e f452 583c ca42 573e 4658 f7bd
00000120: 5aa4 633e dfa9 5ebe c8ff 9a3c d5b2 30be
00000130: 4a53 29be 4d3e 923d db9c 883e 80c9 323d
00000140: 65ac 713b 9276 dd3e 32bb b53d 652c 9d3e
00000150: 7d90 4abe 9371 8abd 894b 183e 584e afbe
00000160: e42c b43d c761 a6bd 9b75 0cbd 7e29 8a3e
00000170: a3e6 57bd f165 8e3c 1bd3 9d3e 6b9c d7be
00000180: 359d 15bd 678d 29be 4e05 813a a7ea 43be
00000190: c115 00be aaa8 243e 5ba2 343c 5e47 15be
000001a0: 3db1 27be 7462 c6be fe07 ab3d db6c 40be
000001b0: c4e7 88be 3cce 7f3e 6526 a43e 91f9 dbbe
000001c0: 0479 a2be 6fae 833d d987 1fbf b4ce c53f
000001d0: 08cf 19be f21c e0be d44c 4d3e fde9 753e
000001e0: 082e a33f ddbb 313e b6df f83b a122 3b3f
000001f0: 231d abbe f441 b93e 5049 a9bd 6dfc 1bbe
00000200: 6cac 65be a2c8 563e be37 0e3f 6cdd 8bbf
00000210: eec6 2f3d fa72 0d3e a137 d03d 69a1 a1be
00000220: 083a 57bf 4e6f b9bd c683 083f b052 41be
00000230: 4be5 393d 2867 493e b488 31bd efd1 abbc
00000240: 53ae 07bf d7a4 0d3e fb62 b83e bfe8 30be
00000250: 45bd b2be 026b af3e a8ca a0bd 9a20 c3be
00000260: 1a15 c93c 4de3 d2be 8042 1b3f 4176 a6be
00000270: c0c8 10be 5691 cb3e e919 723e d49d 26bf
00000280: dfd4 a8bd 9417 30be 38ad 37bf ba54 183f
00000290: 0304 2a3e 057c 86be 4b70 823e 16da 353f
000002a0: 5d90 933e 0d16 b0bc ebb7 26bf 4a6b 253f
000002b0: 7559 89bd 843a 31be 3913 043e 7cb3 2b3f
000002c0: 3a02 c2be c238 b43e 9ef5 293e 8a12 65bc
000002d0: 53cc 77be ce5b 4fbc 8568 383e 23ce d8be
000002e0: 6870 b2be 7ea4 e3bc 477f cb3d 48bc 3cbe
000002f0: 330c 19bf 3b52 b4bd 90b2 ad3e c8b9 d8bd
00000300: 593a debe 68c8 5e3e 5a1d b13e 329d 853d
00000310: 81f1 d8be 1949 16be fdf1 d23e 769a 71be
00000320: 0384 1e3e 548d c9be 88c0 773e 424c 90be
00000330: 7c8a 4abf e147 2dbe a124 123f e407 5ebe
00000340: d11f d5be 321e 4a3e fa37 d63e a1fc 8abe
00000350: 3813 a1be 80e6 0e3e 1af1 823e fa1f 8cbe
00000360: d8ea 5bbe dc2d 513e e75e 953e c584 73bc
00000370: cfe6 583e bc41 f43e 4768 09bd f0d8 68be
00000380: 560e 9dbe 7e5b 143e 7237 ed3e 77ec 303e
00000390: e8d2 abbe 8f21 b43f 0b6d 933d 72e3 37bf
000003a0: 50fc fbbe e997 69bc c298 9e3f 835e 80bf
000003b0: 042c b2be f8ec 683c 222c 613c 79f8 9bbf
000003c0: e2fd a7bd 3839 033a c7d5 023d 17f5 593d
000003d0: 3ab3 72bd e6ef 433e c206 043e d4f3 78be
000003e0: 41f7 2cbe 32f4 0ebf 7613 fcbd 61aa 27bd
000003f0: 9d4a eabd b156 83be 4fbc b0bc fa6d abbd

mobilenetv3_like.block2.depthwise_conv.0.bn.weight f4 [72]
0.6312311 1.2285998 1.1563723 0.5777126 0.9071426 0.79516363 0.9571662 1.2525866
2.0927002 0.022242272 1.0612711 0.689038 1.0352352 0.9174992 1.2781048 1.0402894
1.4865056 0.8967017 1.058144 1.1049122 0.96075666 0.61466205 0.8386282 1.4209992
1.0677942 0.79970676 0.91940904 0.6443132 0.96604085 0.8861847 1.9797362 0.5179131
2.225412 0.9270464 0.5788415 1.2603362 1.2184308 1.0461954 0.769782 0.56822205
1.0720807 1.0630274 2.032881 0.7487276 0.875736 1.0513875 1.7655417 1.6892737
0.6572247 0.86868083 0.6445966 0.64403796 1.451784 1.1130139 1.1278176 0.9425714
0.8741948 1.29162 2.2022018 1.0985376 1.4068856 0.7184191 0.463091 0.34842616
0.93895537 0.28785944 1.0137135 -0.2488726 1.2667363 1.0257624 -0.030453939 1.0402316
00000000: 5d98 213f c242 9d3f 0204 943f f9e4 133f
00000010: 7f3a 683f d88f 4b3f d808 753f c254 a03f
00000020: cdee 0540 6d35 b63c bbd7 873f cb64 303f
00000030: 9682 843f 3ae1 6a3f f098 a33f 3428 853f
00000040: d145 be3f 3e8e 653f 4371 873f c36d 8d3f
00000050: 26f4 753f 7e5a 1d3f 56b0 563f 4de3 b53f
00000060: 7bad 883f 95b9 4c3f 645e 6b3f b6f1 243f
00000070: 744e 773f 00dd 623f ff67 fd3f f495 043f
00000080: 266d 0e40 ea52 6d3f f52e 143f b252 a13f
00000090: 8af5 9b3f bbe9 853f 6f10 453f 0077 113f
000000a0: f139 893f 4811 883f b91a 0240 9dac 3f3f
000000b0: 3c30 603f de93 863f 45fd e13f 1f3a d83f
000000c0: e13f 283f de61 5e3f 4804 253f acdf 243f
000000d0: 0fd4 b93f 3d77 8e3f 545c 903f 5c4c 713f
000000e0: 3bcb 5f3f ce53 a53f e0f0 0c40 e19c 8c3f
000000f0: d414 b43f 50ea 373f 431a ed3e ea64 b23e
00000100: 615f 703f 5062 933e 5dc1 813f 75d8 7ebe
00000110: 6a24 a23f 2f4c 833f 8a7a f9bc 4f26 853f

mobilenetv3_like.block2.depthwise_conv.0.bn.bias f4 [72]
-0.484188 -0.4133744 0.27281332 1.0342946 0.27383697 0.061637852 0.4684849 -0.43352216
0.097236626 1.7331212 -0.7086473 0.33712393 0.44594896 0.20283668 0.3521867 0.3444205
0.15343125 -0.4227415 0.52067935 -0.2746925 0.1458283 -0.65489346 -0.46175554 0.282234
-0.65538555 0.59958583 0.3941927 -0.67163134 -0.2281326 -0.4300171 -0.08503804 0.42926443
0.124797925 -0.7335277 -0.9487314 -0.04590068 0.25036255 -0.6838712 0.37492076 0.9043504
-0.53829587 -0.17027947 0.017552147 0.59202695 -0.28114894 -0.29143938 -0.048541803 0.31949395
-0.46882948 -0.03055425 0.6049865 -0.4924648 0.20179118 -0.27953452 0.49614564 -0.6591526
0.29134402 0.019638728 0.088413894 0.4201236 -0.22943541 0.18265958 -0.71934164 1.680996
0.5682848 -0.5131269 0.4208131 0.9129242 -0.10748531 0.07690058 1.525372 0.04824035
00000000: 7de7 f7be cfa5 d3be 30ae 8b3e c463 843f
00000010: 5c34 8c3e f977 7c3d 41dd ef3e 9ef6 ddbe
00000020: ff23 c73d ead6 dd3f e969 35bf 829b ac3e
00000030: 6c53 e43e 6bb4 4f3e d151 b43e e257 b03e
00000040: 151d 1d3e 9371 d8be 3e4b 053f 7fa4 8cbe
00000050: 0454 153e 19a7 27bf 396b ecbe fa80 903e
00000060: 59c7 27bf 757e 193f a0d3 c93e 08f0 2bbf
00000070: 989b 69be 342b dcbe 6d28 aebd 8cc8 db3e
00000080: 0e96 ff3d 79c8 3bbf 10e0 72bf 5a02 3cbd
00000090: 852f 803e 2f12 2fbf 9df5 bf3e 8283 673f
000000a0: c2cd 09bf be5d 2ebe 85c9 8f3c 148f 173f
000000b0: c1f2 8fbe 8b37 95be c5d3 46bd b694 a33e
000000c0: 6b0a f0be e84c fabc 65e0 1a3f 5924 fcbe
000000d0: 59a2 4e3e 261f 8fbe cd06 fe3e 3abe 28bf
000000e0: 0b2b 953e 66e1 a03c 5812 b53d 711a d73e
000000f0: 1ef1 6abe 1d0b 3b3e c626 38bf e02a d73f
00000100: 1d7b 113f 495c 03bf d174 d73e 66b5 693f
00000110: 4221 dcbd 0d7e 9d3d 643f c33f ac97 453d

mobilenetv3_like.block2.depthwise_conv.0.bn.running_mean f4 [72]
-1.3995949 7.3472414 -7.248838 -1.1278101 -0.77288896 -2.0935323 0.13559103 -3.6243625
2.077721 0.15940188 -2.0257623 -1.6004428 -3.0847769 0.27929324 1.6578488 -0.88510364
-1.7257462 -0.7190437 6.978154 0.056860432 1.5876191 -0.77812505 -0.9066392 -1.929056
-1.6375538 3.0021038 1.4791349 -2.3200362 -1.8033676 -1.3456966 -7.6819444 -0.5042248
1.3267641 -4.329271 -2.5833185 2.6055176 2.6300101 -2.768742 6.4076276 -1.6452215
-2.2435017 -0.47732303 -7.245541 -1.9875623 -1.546896 0.11043857 1.0786431 4.252719
-0.6783067 1.0695751 1.832231 -1.6953306 -3.880892 -0.9387803 -0.053989336 -1.5220766
1.1070155 -0.5416981 0.011151803 5.1877217 -1.5394931 -0.23842064 -2.5066144 3.8414931
8.274245 1.2543457 -1.1258764 1.1655946 -0.66721004 2.0379708 -0.63467145 1.7418146
00000000: ed25 b3bf 9a1c eb40 7bf6 e7c0 155c 90bf
00000010: 0ddc 45bf 6ffc 05c0 60d8 0a3e 8ef5 67c0
00000020: 62f9 0440 3f3a 233e 17a6 01c0 4fdb ccbf
00000030: fc6c 45c0 86ff 8e3e 6434 d43f 2796 62bf
00000040: 40e5 dcbf 3f13 38bf 0a4d df40 7ce6 683d
00000050: 1a37 cb3f 3433 47bf 8219 68bf 4feb f6bf
00000060: 5d9b d1bf 7822 4040 4b54 bd3f 797b 14c0
00000070: c0d4 e6bf c93f acbf 7dd2 f5c0 e014 01bf
00000080: 68d3 a93f 6389 8ac0 1755 25c0 cdc0 2640
00000090: 1652 2840 1233 31c0 490b cd40 9e96 d2bf
000000a0: 8895 0fc0 af63 f4be 79db e7c0 7168 febf
000000b0: b000 c6bf 9e2d e23d fa10 8a3f 4616 8840
000000c0: 82a5 2dbf d6e7 883f 8c86 ea3f 9800 d9bf
000000d0: 8960 78c0 e853 70bf ec23 5dbd 68d3 c2bf
000000e0: afb2 8d3f baac 0abf 0db6 363c d101 a640
000000f0: 1c0e c5bf 8a24 74be 5f6c 20c0 06db 7540
00000100: 4f63 0441 668e a03f b81c 90bf 3432 953f
00000110: 47ce 2abf 1d6e 0240 d479 22bf c8f3 de3f

mobilenetv3_like.block2.depthwise_conv.0.bn.running_var f4 [72]
1.0331382 99.44115 8.198757 64.35042 2.1622636 0.38677803 5.9195156 22.323612
20.702597 25.083418 25.736769 10.970767 14.83364 5.4338803 91.18797 2.4457357
52.995125 58.42841 27.890348 17.992607 1.8607695 1.2904229 2.5320394 9.432027
49.696804 1.2658595 1.5666666 7.007654 19.727781 7.650212 17.417635 2.468713
36.970284 55.312466 18.036531 37.648193 40.044876 59.85548 30.686373 16.66374
21.818794 51.947372 30.640951 39.483967 16.53937 5.9150195 40.235348 1.9965308
0.39017504 0.98367023 37.72939 3.1658137 9.670857 29.06012 7.2870836 24.268682
19.42948 3.570539 41.731842 61.365986 6.2206717 1.0773817 3.1010277 20.915321
46.370094 27.459698 3.8274727 9.417272 59.950657 0.51533264 10.502973 4.532005
00000000: df3d 843f dee1 c642 1c2e 0341 6ab3 8042
00000010: 8762 0a40 c507 c63e ac6c bd40 c296 b241
00000020: eb9e a541 d7aa c841 e7e4 cd41 4388 2f41
00000030: 9756 6d41 59e2 ad40 3e60 b642 ef86 1c40
00000040: 02fb 5342 b1b6 6942 6f1f df41 dcf0 8f41
00000050: b22d ee3f 942c a53f ef0c 2240 95e9 1641
00000060: 87c9 4642 af07 a23f 8888 c83f b43e e040
00000070: 7fd2 9d41 89ce f440 5157 8b41 65ff 1d40
00000080: 92e1 1342 f73f 5d42 d14a 9041 c097 1642
00000090: f42d 2042 036c 6f42 b17d f541 574f 8541
000000a0: e48c ae41 1cca 4f42 ab20 f541 95ef 1d42
000000b0: a150 8441 d747 bd40 fff0 2042 528e ff3f
000000c0: 06c5 c73e d0d1 7b3f e5ea 1642 b19c 4a40
000000d0: d5bb 1a41 207b e841 ca2f e940 4326 c241
000000e0: 936f 9b41 b683 6440 68ed 2642 c576 7542
000000f0: be0f c740 a5e7 893f 3d77 4640 9452 a741
00000100: fa7a 3942 76ad db41 50f5 7440 25ad 1641
00000110: 79cd 6f42 d7ec 033f 2d0c 2841 2f06 9140

mobilenetv3_like.block2.depthwise_conv.1.conv.weight f4 [72, 1, 3, 3]
-0.012430973 0.18220751 -0.01276804 -0.2374717 0.38749796 -0.032711778 -0.31423134 -0.17457063
-0.090220116 0.605089 -0.031437516 -1.5893314 -0.67989945 0.2564201 -0.1243886 -0.2680715
-1.0590972 -0.48273852 0.4430934 -0.33488324 -0.17559381 -1.3575773 -0.31492263 0.3192236
-0.24389023 0.6940794 -1.2734445 0.3933807 0.1375025 -0.0637191 0.23225436 -1.6191254
-0.06797886 -0.80612403 -2.186057 0.29230332 0.3751304 0.4359314 0.24303171 -0.2634445
0.11949606 0.6120023 0.3550314 -0.30326167 0.44580716 0.23360139 -0.29538617 -0.18505447
-0.4796597 -0.21107966 -0.22052893 -0.31014025 -0.2268804 -0.1520497 -0.23400734 0.08057714
0.28808025 0.31354687 0.51610297 0.48020652 0.46721768 -0.19193694 0.3235326 0.50652266
-0.17405848 0.011743211 0.3954843 0.96362686 0.9424964 0.2730156 0.27123037 1.0297718
0.51249915 -0.12657282 -0.3339516 -0.39040375 -0.7505718 -0.48333675 -0.46148017 -0.9956024
-0.30211765 -0.5457041 0.3137428 0.031829145 -1.3825552 0.07844447 0.07116924 -0.8147075
-0.085693404 -0.15114588 0.27005255 0.39071706 0.62891394 0.2837855 0.278692 0.6604636
1.0664968 0.6167407 1.0301749 0.41194063 0.40168867 0.40918478 0.24266964 0.8521523
0.23708431 -0.35725507 0.2525813 0.67842484 -0.51324147 0.57542145 0.03483316 0.32419437
0.4501309 1.1697334 0.525265 0.6791266 -0.09144954 -0.2692527 0.46637398 0.3512546
-0.07761587 0.55520844 0.22159512 0.47614667 -0.027128538 -0.0639159 0.45272976 -0.3930263
0.36643517 -0.7141584 -1.2932038 0.44792327 -0.5072657 -1.070213 -0.8334723 0.44559515
0.403066 0.13295856 0.35623348 0.020122338 0.22176796 0.13121402 -0.0079011265 0.11176609
0.12440064 -0.087008335 0.4782673 -0.41668352 -1.16917 -0.28993073 -0.8950265 -1.0974829
-0.8171482 0.37794715 0.31059468 -0.10704336 -0.57795405 0.21254191 0.15296598 0.84529555
1.2457013 -0.20855537 0.6310277 -0.15415736 -1.4198012 -0.00818534 0.40238652 0.03152486
-1.5183014 -0.6263078 -0.302588 0.14125504 0.18000078 0.09508115 0.16145514 -0.046909615
0.5688821 0.48734677 0.45382172 0.39849335 -0.20053063 -0.5550872 -0.35441577 0.39586782
0.26662385 0.30183747 -0.37708822 -0.19425327 -0.20157956 0.16850471 -0.06603461 -0.38015988
-0.17288387 -0.13167346 0.0050682253 0.23852894 0.46233615 0.55617285 0.6212001 -0.43174344
0.34727803 0.19114867 0.012459165 -0.19010815 -0.19021557 -0.033501364 0.26513037 0.04314202
0.16506945 0.3968064 0.1945388 -0.3325287 0.4513527 0.924676 0.6525439 0.3496077
0.1745289 0.21447168 0.6687323 0.4005892 0.30802646 1.2595872 0.7405483 1.1009598
0.98226756 -0.54764295 -0.013272943 -0.14467387 -0.52838105 -0.10718805 -0.17354482 -0.34668887
-0.34204343 -0.42968512 -0.17436282 -0.43967906 -0.628544 0.08394177 0.005098069 -0.35281757
0.053668343 -0.072617665 -0.3349622 -0.33662164 -0.903237 -0.5810982 0.36661547 0.40537927
-0.50100434 -0.23740166 -0.60234976 -0.40662968 0.5233049 1.0884063 0.68315065 -0.058117732
00000000: 48ab 4bbc 9b94 3a3e 0b31 51bc c82b 73be
00000010: 2266 c63e c9fc 05bd eee2 a0be a5c2 32be
00000020: 53c5 b8bd 1de7 1a3f a0c4 00bd 366f cbbf
00000030: e40d 2ebf 7f49 833e 73bf febd ab40 89be
00000040: 7f90 87bf 8129 f7be 23dd e23e d175 abbe
00000050: ddce 33be 18c5 adbf 8a3d a1be 4771 a33e
00000060: 5cbe 79be 30af 313f 3b00 a3bf 3269 c93e
00000070: 75cd 0c3e 297f 82bd 16d4 6d3e 803f cfbf
00000080: 8038 8bbd 255e 4ebf 5ce8 0bc0 c8a8 953e
00000090: 1711 c03e 6732 df3e 4edd 783e 33e2 86be
000000a0: 5aba f43d 2fac 1c3f adc6 b53e 1d45 9bbe
000000b0: d640 e43e 3435 6f3e db3c 97be eb7e 3dbe
000000c0: f595 f5be 4425 58be 56d2 61be b4ca 9ebe
000000d0: 5653 68be ebb2 1bbe 9f9f 6fbe a105 a53d
000000e0: 417f 933e 3789 a03e 531f 043f a1dd f53e
000000f0: 2837 ef3e 1e8b 44be 11a6 a53e 78ab 013f
00000100: 633c 32be 9966 403c eb7c ca3e 40b0 763f
00000110: 7247 713f b3c8 8b3e b5de 8a3e 90cf 833f
00000120: 2533 033f 4e9c 01be b4fb aabe 00e3 c7be
00000130: 7925 40bf ea77 f7be 2147 ecbe cddf 7ebf
00000140: 2aaf 9abe 44b3 0bbf e5a2 a03e 475f 023d
00000150: 92f7 b0bf 7fa7 a03d 2ec1 913d ac90 50bf
00000160: 0680 afbd fcc5 1abe 5444 8a3e 110c c83e
00000170: 8100 213f 554c 913e b8b0 8e3e 2414 293f
00000180: f882 883f b8e2 1d3f c5dc 833f e2e9 d23e
00000190: 23aa cd3e ab80 d13e 647e 783e a726 5a3f
000001a0: 3bc6 723e 23ea b6be 5652 813e 40ad 2d3f
000001b0: cb63 03bf d24e 133f 37ad 0e3d cefc a53e
000001c0: 8f77 e63e d3b9 953f c477 063f 3edb 2d3f
000001d0: e549 bbbd 7ddb 89be 92c8 ee3e a5d7 b33e
000001e0: 12f5 9ebd 2422 0e3f d5e9 623e 7fc9 f33e
000001f0: ab3c debc 57e6 82bd 32cc e73e be3a c9be
00000200: 649d bb3e 16d3 36bf b487 a5bf 3356 e53e
00000210: 2adc 01bf bdfc 88bf 715e 55bf 0c25 e43e
00000220: ab5e ce3e 4a26 083e 3c64 b63e 9ad7 a43c
00000230: 2417 633e f85c 063e ba73 01bc 9fe5 e43d
00000240: c3c5 fe3d 6d31 b2bd 74df f43e 8b57 d5be
00000250: 5da7 95bf cd71 94be 7520 65bf 527a 8cbf
00000260: a030 51bf 4a82 c13e 4406 9f3e 8d39 dbbd
00000270: ccf4 13bf 96a4 593e 1da3 1c3e 4a65 583f
00000280: 2473 9f3f 8a8f 55be 088b 213f 6ddb 1dbe
00000290: 0cbc b5bf ce1b 06bc 9b05 ce3e 3620 013d
000002a0: b357 c2bf b555 20bf d0ec 9abe 29a5 103e
000002b0: 2052 383e e8b9 c23d 7f54 253e 4c24 40bd
000002c0: 42a2 113f 8485 f93e 525b e83e 5207 cc3e
000002d0: e757 4dbe 321a 0ebf fc75 b5be 30af ca3e
000002e0: ec82 883e 718a 9a3e b511 c1be 54ea 46be
000002f0: df6a 4ebe 808c 2c3e 273d 87bd 51a4 c2be
00000300: 7808 31be 68d5 06be 5b13 a63b ee40 743e
00000310: 53b7 ec3e 5861 0e3f f806 1f3f 7a0d ddbe
00000320: 6dce b13e 7abc 433e 8721 4c3c b6ab 42be
00000330: dfc7 42be ba38 09bd 2bbf 873e b0b5 303d
00000340: f707 293e 352a cb3e 2e35 473e 3441 aabe
00000350: b317 e73e 91b7 6c3f 1e0d 273f c8ff b23e
00000360: b4b7 323e 779e 5b3e 0a32 2b3f 071a cd3e
00000370: a5b5 9d3e 273a a13f 9394 3d3f 40ec 8c3f
00000380: e375 7b3f 5432 0cbf c276 59bc 6325 14be
00000390: fb43 07bf 6985 dbbd bcb5 31be 3481 b1be
000003a0: 5120 afbe b0ff dbbe 2b8c 32be 9d1d e1be
000003b0: 42e8 20bf aae9 ab3d b40d a73b 81a4 b4be
000003c0: 56d3 5b3d 92b8 94bd 2a80 abbe ac59 acbe
000003d0: 8a3a 67bf dac2 14bf 06b5 bb3e df8d cf3e
000003e0: d241 00bf 6c19 73be 9833 1abf c431 d0be
000003f0: 4ff7 053f e650 8b3f f6e2 2e3f dc0c 6ebd
