python/model_pth/huattn/hu_attn_net_best.pth (torch, 10373 bytes, 15 tensors)

attn.0.weight f4 [1, 7]
0	0x3daca7cd	0.08430443
1	0x400adde7	2.1697938
2	0x3cdb612b	0.026779732
3	0xbda4c304	-0.08045009
4	0xbf26ceac	-0.65159106
5	0xbf3175da	-0.6932045
6	0x3c7c7bed	0.015410406

attn.2.weight f4 [7, 1]
0	0x40a76334	5.2308598
1	0xc18fa2c8	-17.954483
2	0x40cf88e2	6.4854593
3	0x4060d26f	3.5128438
4	0xc036d21d	-2.8565743
5	0x403f6a76	2.9908729
6	0xbf8f7e81	-1.1210481

bn0.weight f4 [7]
0	0x3f7011fb	0.93777436
1	0x3f932c6b	1.149793
2	0x3f8aca65	1.0843016
3	0x3fc433fd	1.5328366
4	0x3f6ca313	0.9243633
5	0x3f8a3a08	1.079896
6	0x3f815e3f	1.0106887

bn0.bias f4 [7]
0	0x3f53eb32	0.82780755
1	0x3ea34efd	0.318962
2	0xbf21bb8b	-0.6317679
3	0xbef5275f	-0.478816
4	0x3edd6202	0.43238837
5	0x3e8a5778	0.27019858
6	0x3e9e96b3	0.3097435

bn0.running_mean f4 [7]
0	0x403d3743	2.956498
1	0x40d5eb86	6.6850004
2	0x4118e8cb	9.556834
3	0x411c3f63	9.765475
4	0x409f7d84	4.9840717
5	0x408bd256	4.369426
6	0x3f418d7b	0.7560651

bn0.running_var f4 [7]
0	0x3d183d8c	0.03716807
1	0x3f86720a	1.0503552
2	0x3e81dff5	0.25366178
3	0x3e31bf53	0.1735814
4	0x4299f490	76.97766
5	0x42a69c40	83.305176
6	0x42cc53e1	102.163826

fc1.weight f4 [32, 7]
0	0x3eefeafa	0.4685896
1	0x3e425a7b	0.18979828
2	0xbe646a7a	-0.22306243
3	0x3d176b20	0.036967397
4	0x3dbfa061	0.09356762
5	0xbf31c5c0	-0.6944237
6	0x3d2ad44f	0.04170638
7	0xbe879f16	-0.2648856
8	0xbf2ce9f8	-0.6754451
9	0xbf13d752	-0.5775043
10	0x3c49adf1	0.012309537
11	0x3d8279e5	0.06370906
12	0x3dc51a43	0.0962415
13	0xbe03f7a9	-0.12887444
14	0xbec8f268	-0.3924744
15	0x3f1f6aef	0.6227254
16	0x3f2c544f	0.67316145
17	0x3dc7002a	0.09716828
18	0xbe8fffdd	-0.28124896
19	0xbf1657ed	-0.58727914
20	0x3d8bf97f	0.06834697
21	0xbe93398e	-0.28754848
22	0xbf26a1c8	-0.6509061
23	0x3e16ac37	0.14714132
24	0xbf229e20	-0.6352253
25	0xbe1df59b	-0.15425722
26	0xbe8b02cd	-0.27150574
27	0x3d95618c	0.07293996
28	0xbeff31a4	-0.4984256
29	0xbe2a01a3	-0.16602187
30	0x3ecbcf77	0.3980672
31	0x3f69569a	0.9114777
32	0xbeedbadc	-0.46431625
33	0x3f768294	0.96292996
34	0x3e8e4f8d	0.27795067
35	0xbe8a1a37	-0.26973125
36	0xbeb9f0ab	-0.36316428
37	0xbeb97f28	-0.36229825
38	0xbe4bef5b	-0.19915526
39	0xbe826163	-0.25464925
40	0x3ef73699	0.48283842
41	0xbf6ae53f	-0.9175605
42	0xbeb97eae	-0.3622946
43	0xbdd556bd	-0.10416935
44	0x3eb4c37f	0.35305402
45	0xbf10dc16	-0.56585824
46	0xbd34bc8a	-0.044125117
47	0x3e60ba21	0.21946003
48	0xbe168633	-0.1469963
49	0x3dce3874	0.10069361
50	0x3f376b01	0.7164765
51	0x3f002184	0.5005114
52	0x3ea23fd6	0.31689328
53	0x3f38bbe5	0.72161704
54	0xbc61ad94	-0.013774294
55	0xbf20d37b	-0.62822694
56	0xbf50b8a3	-0.81531733
57	0xbee51404	-0.44741833
58	0x3f47db59	0.7806907
59	0x3f4eaf86	0.8073658
60	0x3d141ed6	0.03616222
61	0xbc33ab2a	-0.010966102
62	0xbec57bf5	-0.38571134
63	0xbf3afd90	-0.73043156
64	0xbead8367	-0.33889315
65	0xbd72809f	-0.059204694
66	0xbf260741	-0.6485482
67	0x3e480be2	0.19535783
68	0xbe5ff168	-0.21869433
69	0x3ca3caf6	0.01999424
70	0xbd6360c6	-0.055512212
71	0xbc075958	-0.008261047
72	0xbf3d90f8	-0.7404933
73	0xbe977037	-0.295778
74	0xbf0c1136	-0.5471376
75	0xbea07b49	-0.3134406
76	0x3efb0f87	0.49035284
77	0x3e3e702e	0.1859748
78	0xbe08c0e4	-0.13354832
79	0xbda2e0ef	-0.07953059
80	0x3f03996b	0.5140597
81	0xbe2b0291	-0.16700198
82	0x3f6283f1	0.88482577
83	0xbe93454c	-0.28763807
84	0x3f48ad7f	0.78389734
85	0x3f72ab46	0.9479259
86	0x3ec5e084	0.38647854
87	0x3eeeb318	0.46621013
88	0xbeb6a059	-0.3566921
89	0xbe193490	-0.14961457
90	0xbec37a48	-0.3817923
91	0x3ecfede3	0.4061118
92	0x3c8ff375	0.017572144
93	0x3f10bd4f	0.5653886
94	0x3e778a6d	0.24173899
95	0xbf825f50	-1.0185337
96	0x3d0e6723	0.034766328
97	0xbd2239fe	-0.039606087
98	0xbf62affd	-0.88549787
99	0x3d38b678	0.04509589
100	0xbe432e7c	-0.19060701
101	0xbe9535c4	-0.29142582
102	0x3e8d244d	0.27566758
103	0x3f2bbc76	0.67084444
104	0xbee039e6	-0.43794173
105	0x3e1c576b	0.15267722
106	0xbeb7a245	-0.3586599
107	0x3ee93a12	0.45552117
108	0xbe75f152	-0.24017838
109	0xbe5a835f	-0.21339177
110	0xbf6f71a1	-0.9353276
111	0x3e8103b8	0.2519815
112	0x3ca2094b	0.019779822
113	0xbf157c63	-0.58392924
114	0xbf251731	-0.6448851
115	0xbeed9c0b	-0.46408114
116	0xbef233a0	-0.47305012
117	0x3e93517b	0.28773102
118	0xbe9d8ef4	-0.30773127
119	0xbd02b2fb	-0.03190897
120	0x3e1a1ea4	0.15050751
121	0xbd8fe9fc	-0.07027051
122	0x3ef48fbb	0.47765908
123	0x3d083608	0.033254653
124	0xbf87f994	-1.062304
125	0x3cc0aa73	0.023518777
126	0x3eb6ba8e	0.35689205
127	0xbe79d803	-0.24398808
128	0xbf382a9a	-0.71940005
129	0xbe87cbeb	-0.26522765
130	0x3e01b9b2	0.12668493
131	0xbec6f8db	-0.38861737
132	0xbe425fad	-0.1898181
133	0xbf0e7ecf	-0.55662245
134	0xbf052a48	-0.5201764
135	0xbea24562	-0.3169356
136	0xbea53da8	-0.32273602
137	0x3ccd86af	0.025088636
138	0x3edeae22	0.43492228
139	0x3e3adb75	0.18247779
140	0xbf3ae1fc	-0.73001075
141	0xbf08bd9b	-0.53414315
142	0xbf09ac28	-0.53778315
143	0xbeb2dc56	-0.34933728
144	0xbec0691e	-0.37580198
145	0xbe9238db	-0.28559002
146	0x3e5ee918	0.21768606
147	0x3e15c061	0.14624168
148	0xbe64fe9a	-0.22362748
149	0x3e5e5893	0.21713476
150	0xbf079348	-0.5295911
151	0x3f16cb10	0.589036
152	0x3e1b4eff	0.15166853
153	0xbee34450	-0.44388056
154	0xbc869bd1	-0.01643172
155	0xbd9251a6	-0.071444795
156	0xbe933bec	-0.28756654
157	0x3e9fd526	0.31217307
158	0xbf284a86	-0.65738714
159	0x3c825d13	0.015913522
160	0xbf599d52	-0.85005677
161	0xbea8cdf5	-0.32969633
162	0x3f234793	0.6378109
163	0xbedd2e4a	-0.43199378
164	0xbef89a4b	-0.48555216
165	0x3d901022	0.07034327
166	0xbe449e63	-0.19201045
167	0xbf40c027	-0.752932
168	0xbeaf645d	-0.3425626
169	0xbe64bbd4	-0.22337276
170	0xbe3b97d7	-0.18319641
171	0xbcbb7572	-0.02288315
172	0x3f726cf0	0.94697475
173	0xbe641a19	-0.2227558
174	0x3eca489d	0.39508525
175	0xbe92e381	-0.28689197
176	0xbec116a6	-0.37712592
177	0xbef2ac03	-0.4739686
178	0xbdb57e3d	-0.08861969
179	0x3e32da87	0.17466174
180	0x3ec5bda0	0.38621235
181	0x3edcb993	0.43110332
182	0xbef40541	-0.47660258
183	0x3e94526e	0.2896914
184	0xbea68276	-0.3252141
185	0x3cc59328	0.024118021
186	0xbef2edcf	-0.4744706
187	0x3f90f0ff	1.1323546
188	0xbeda2ccd	-0.42612305
189	0xbe008ea9	-0.1255442
190	0xbf50db44	-0.8158457
191	0xbe01d622	-0.12679341
192	0xbed5672b	-0.41680273
193	0xbf40ba74	-0.75284505
194	0xbf386873	-0.72034377
195	0x3efcaf4f	0.493525
196	0x3e9a0b80	0.300869
197	0xbeeb76c5	-0.4598905
198	0x3e01a20b	0.1265947
199	0xbd17ee36	-0.03709241
200	0x3ebf46ef	0.37358806
201	0x3f2fdea3	0.6869909
202	0x3f2f0455	0.68365985
203	0x3e9da999	0.30793455
204	0xbe8e965c	-0.2784909
205	0x3eaedfd4	0.34155142
206	0x3ef9c0e7	0.48779985
207	0xbe70ceaa	-0.23516336
208	0x3dbf650d	0.09345446
209	0x3f7f2ad5	0.9967473
210	0x3ec57066	0.38562316
211	0x3e4732a5	0.19452913
212	0x3ea52c07	0.32260153
213	0xbdff8332	-0.124761954
214	0xbc9deefb	-0.019278994
215	0xbf00dc61	-0.5033627
216	0xbea1682b	-0.31524786
217	0xbef1ded8	-0.4724033
218	0xbea9f56f	-0.33195063
219	0xbddc7c1a	-0.10765858
220	0xbe90fffa	-0.28320295
221	0xbe88ae63	-0.26695547
222	0x3f6d05b8	0.9258685
223	0xbdbae0fe	-0.09124945

fc1.bias f4 [32]
0	0x3f391597	0.7229857
1	0x3ec28e83	0.37999353
2	0x3e002168	0.12512743
3	0xbef6b786	-0.48186892
4	0xbf0740da	-0.5283333
5	0xbf237086	-0.6384357
6	0xbf1fab69	-0.62370926
7	0xbebd9866	-0.37030333
8	0xbf27e778	-0.6558757
9	0xbe3f2e37	-0.18669973
10	0xbf83c0ed	-1.0293251
11	0x3f668183	0.9004137
12	0xbec0e2b1	-0.37672952
13	0xbe53d9cd	-0.20688553
14	0xbf6a460f	-0.9151315
15	0x3e9f50e5	0.31116405
16	0x3f1f3ee6	0.6220535
17	0x3da05594	0.07828823
18	0x3f5d3ec3	0.8642389
19	0x3f00ed5c	0.5036218
20	0x3efb6efd	0.49108115
21	0xbe08169e	-0.13289878
22	0xbe0c1aee	-0.13682148
23	0xbf0e9606	-0.5569767
24	0x3dc94440	0.09827471
25	0xbebe6689	-0.37187603
26	0x3e8953c9	0.26821736
27	0xbec58c87	-0.38583776
28	0xbd9ea71c	-0.07746717
29	0x3ec64d47	0.38730833
30	0xbeb38acd	-0.35066834
31	0x3ed4f9cb	0.41596827

bn1.weight f4 [32]
0	0xbce542ef	-0.027986018
1	0x3d12dff1	0.0358581
2	0x3e685647	0.22689162
3	0xbd1b13fc	-0.037860855
4	0x3e2d5ad2	0.16929176
5	0x3e1506bf	0.14553355
6	0x3cf5403a	0.029937852
7	0x3e957991	0.2919431
8	0x3e8c1ee3	0.27367315
9	0x3cadb15e	0.02120274
10	0x3e2dde84	0.16979414
11	0x3d2c55d8	0.042074054
12	0x3d5c2963	0.053750407
13	0xbd8cb25e	-0.06869958
14	0x3ddef9a0	0.10887456
15	0x3d7f2a62	0.06229628
16	0x3dfcd22f	0.12344777
17	0xbce12a6d	-0.02748605
18	0x3c691b73	0.014227736
19	0x3c35cc3f	0.011096059
20	0x3d5b9671	0.05361027
21	0x3dea878e	0.11451636
22	0x3cdfa672	0.027301047
23	0x3d42fb34	0.047602847
24	0xbc9de706	-0.0192752
25	0xbcf1a9db	-0.029499939
26	0x3da3e84f	0.08003294
27	0x3e37db51	0.17954756
28	0x3c30c1cb	0.010788391
29	0xbca0ef16	-0.019645255
30	0x3cd7debe	0.026351329
31	0xbbd7d316	-0.0065864427

bn1.bias f4 [32]
0	0xbdb4894d	-0.088152505
1	0xbdfacdb2	-0.122462645
2	0xbd9c052f	-0.07618176
3	0xbe2f8be6	-0.17143211
4	0x3e5c24f2	0.21498469
5	0x3e02f3c4	0.12788302
6	0xbd805792	-0.06266703
7	0xbe25d0bc	-0.16192907
8	0xbe14274e	-0.14468119
9	0xbeabb3ce	-0.33535618
10	0x3dc28e33	0.094997786
11	0x3d1d700f	0.038436946
12	0x3bc9fa51	0.0061638732
13	0x3e63307e	0.22186467
14	0xbb05bf05	-0.0020408046
15	0xbde8a3dd	-0.113593794
16	0xbeab99bb	-0.33515725
17	0x3e5aa7c5	0.21353061
18	0xbdd099d3	-0.1018559
19	0x3ced20c1	0.028946282
20	0x3c3b99f7	0.011450282
21	0x3d3d19b3	0.046167087
22	0x3c398e54	0.011325438
23	0xbe880a43	-0.2657033
24	0x3cf637eb	0.03005596
25	0x3dea9ee8	0.1145609
26	0xbdcf5091	-0.10122789
27	0xbd5f431d	-0.054507364
28	0x3d9a882f	0.07545506
29	0xbe076eb7	-0.13225828
30	0xbd363c8d	-0.04449134
31	0xbe479768	-0.1949135

bn1.running_mean f4 [32]
0	0x3f9a80d0	1.207056
1	0x3f3852eb	0.7200152
2	0x3eb93808	0.3617556
3	0x3ea23fa0	0.31689167
4	0x3d15f27c	0.036608204
5	0x3ec1d47f	0.37857434
6	0x3e281981	0.16415979
7	0x3ee3ba0f	0.4447789
8	0x3c8162c8	0.015794173
9	0x3f0bf772	0.54674447
10	0x3e9b7fca	0.30370933
11	0x3f81967c	1.0124049
12	0x3f6c8b39	0.92399937
13	0x3e9eadd1	0.30991986
14	0x3eb85a06	0.36006182
15	0x3ed915ac	0.42399347
16	0x3f903f33	1.1269287
17	0x3f030fea	0.5119616
18	0x3fc7b6bb	1.560264
19	0x3f6ba59d	0.9204958
20	0x3f4b2758	0.7935691
21	0x3f16a01f	0.58838075
22	0x3e356259	0.17713298
23	0x3edbbf86	0.42919558
24	0x3f2865ec	0.6578052
25	0x3f05c6c3	0.5225641
26	0x3f10c587	0.565514
27	0x3ec67955	0.38764444
28	0x3f61c44f	0.8819017
29	0x3f5c5d62	0.8607999
30	0x3e819496	0.25308675
31	0x3f45ad74	0.77217793

bn1.running_var f4 [32]
0	0x3f6b405b	0.91895074
1	0x3f9d7cf6	1.230376
2	0x3ee99c92	0.45627266
3	0x3f2f0423	0.6836569
4	0x3ccc25df	0.024920402
5	0x3f45a4ff	0.7720489
6	0x3e7da1fb	0.24768822
7	0x3f22d099	0.63599545
8	0x3cb82f99	0.022483634
9	0x3fcf82a0	1.6211739
10	0x3f0c3d8e	0.54781425
11	0x3f283d65	0.6571868
12	0x3fcbf29e	1.5933416
13	0x3ecccdf5	0.40000883
14	0x3f5015e8	0.81283426
15	0x3f0ee395	0.5581601
16	0x4036064c	2.8441343
17	0x3f3a216f	0.72707266
18	0x3fa1b544	1.2633443
19	0x40095135	2.1455815
20	0x40073dae	2.1131396
21	0x3f2ade2d	0.66745263
22	0x3e58255e	0.21108004
23	0x3f4b156f	0.7932958
24	0x3f0848a2	0.5323583
25	0x3f4beab1	0.79654986
26	0x3f1f9ad6	0.62345636
27	0x3f129fab	0.57274884
28	0x3f3d971c	0.740587
29	0x3f55e2b1	0.8354903
30	0x3e5f0d1e	0.21782348
31	0x3facf6e3	1.3512844

fc2.weight f4 [16, 32]
0	0xbd419781	-0.047263626
1	0xbce5c21f	-0.028046666
2	0x3d00e1f9	0.031465504
3	0x3dd53fa1	0.10412527
4	0xbe98778b	-0.29778704
5	0x3ddad097	0.106843166
6	0x3dab01db	0.08349963
7	0xbe9d9504	-0.30777752
8	0x3cbb1e93	0.022841727
9	0x3d8a3562	0.06748463
10	0xbd066f7a	-0.032821156
11	0x3e37d909	0.17953886
12	0xbd08a804	-0.033363357
13	0x3e5df7a3	0.21676497
14	0xbdc3f18c	-0.09567556
15	0xbdb96f74	-0.09054461
16	0xbeb84eaf	-0.3599753
17	0xbe5145f7	-0.20436846
18	0xbd6d1a1f	-0.05788624
19	0x3debe840	0.115189075
20	0xbe2763b9	-0.16346635
21	0xbd95e335	-0.07318727
22	0xbe022680	-0.12709999
23	0x3e263515	0.16231187
24	0xbdc3ba83	-0.09557059
25	0x3ca36576	0.019945841
26	0x3b0f93ab	0.0021908085
27	0xbd078e25	-0.033094544
28	0x3cff5cda	0.031172205
29	0x3d322171	0.043488923
30	0xbdddd07a	-0.108307794
31	0xbd6186b5	-0.055060107
32	0xbe4621e0	-0.1934886
33	0xbd8ebb62	-0.06969334
34	0x3e9d9c1e	0.3078317
35	0xbd4b4927	-0.04963031
36	0x3e421bcc	0.18955916
37	0xba658852	-0.000875597
38	0xbd581851	-0.052757565
39	0x3e91cc2d	0.28476086
40	0xbc13e909	-0.009027728
41	0xbe95ab1f	-0.29232118
42	0x3e28f90a	0.16501251
43	0x3d27b8d0	0.040947735
44	0xbcf2f128	-0.029656008
45	0xbe731c7a	-0.23741332
46	0xbe054abd	-0.13016792
47	0x3d169f24	0.036772862
48	0x3e419cd3	0.1890748
49	0xbbbe178d	-0.0058011473
50	0x3e8f8c67	0.28036806
51	0xbd96bad9	-0.07359857
52	0xbbed4a3f	-0.007241517
53	0xbc8e8774	-0.017398573
54	0x3d33a393	0.04385717
55	0xbcb3ecb0	-0.021963447
56	0xbdfb75c9	-0.12278325
57	0xbd0cf715	-0.034415323
58	0x3e17b064	0.14813381
59	0xbe031440	-0.12800694
60	0x3d30c8aa	0.04316012
61	0xbe41c94b	-0.18924443
62	0x3d374fce	0.044753842
63	0x3d97b972	0.07408418
64	0xbeb9b2d8	-0.3626926
65	0xbe3de61c	-0.18544811
66	0x3ddb8766	0.107191846
67	0xbcfbddcb	-0.030745408
68	0xbcc5f6f8	-0.024165615
69	0xbe23c3b1	-0.15992619
70	0x3e5034d8	0.20332658
71	0xbd10ef75	-0.035384614
72	0x3cdd0c4f	0.026983408
73	0xbe4db6ad	-0.20089217
74	0xbdc5d0be	-0.09658955
75	0xbd4c221c	-0.049837217
76	0x3c5a08da	0.013307774
77	0x3d4ac14d	0.049500752
78	0xbe7fcc8c	-0.24980372
79	0x3e0b81fd	0.13623805
80	0xbcdf93cd	-0.027292157
81	0x3da1bfb9	0.07897896
82	0x3e29848e	0.16554472
83	0x3e5c0d3d	0.21489425
84	0xbeb04f28	-0.3443539
85	0xbe710acc	-0.23539275
86	0xbda7e296	-0.08197515
87	0xbc50e35d	-0.01274952
88	0xbd71ac4f	-0.059002217
89	0xbdca73b8	-0.09885353
90	0xbd9699a6	-0.07353525
91	0x3d3a726f	0.04551929
92	0xbdbfebd3	-0.09371152
93	0x3e224794	0.15847617
94	0xbe221172	-0.15826967
95	0x3e3cb42f	0.1842811
96	0x3d11c493	0.03558786
97	0xbe1388d6	-0.14407668
98	0xbe01de25	-0.12682398
99	0xbe34b3b3	-0.17646675
100	0x3e2d65e9	0.16933407
101	0x3dd87088	0.10568339
102	0xba8e7541	-0.0010868685
103	0x3e969c3b	0.2941607
104	0xbe07ca24	-0.13260704
105	0xba9a4465	-0.0011769651
106	0x3e530c19	0.20610084
107	0xbcf88137	-0.030335052
108	0x3ca94376	0.02066205
109	0xbcba669a	-0.022754002
110	0xbceac1e7	-0.028656913
111	0xbd1985e3	-0.0374812
112	0x3eaf8e7b	0.3428839
113	0x3d109840	0.035301447
114	0xbe67901e	-0.2261357
115	0xbd0da1ad	-0.034578014
116	0x3ded6a20	0.11592507
117	0xbdd9a46a	-0.106270626
118	0x3db2d35c	0.0873172
119	0xbe59c314	-0.21265823
120	0xbcdf4deb	-0.027258834
121	0xbd834c1a	-0.064109996
122	0xbd690c22	-0.056896336
123	0x3c8d6340	0.01725924
124	0x3d0c27b5	0.034217555
125	0x3df9459f	0.12171482
126	0xbd94927e	-0.07254504
127	0xbc0e40b8	-0.008682422
128	0x3e0f646a	0.14003149
129	0xbe1061a6	-0.1409975
130	0xbe2e0a1e	-0.16996047
131	0xbe1e77df	-0.15475415
132	0xbdbb5beb	-0.09148391
133	0x3e985bbe	0.29757494
134	0x3db2098e	0.08693229
135	0x3e24aa53	0.16080599
136	0x3d1f2f9b	0.03886376
137	0x3e43cbd8	0.19120729
138	0x3cc57c50	0.024107128
139	0x3e27bcff	0.1638069
140	0x3d85b306	0.06528287
141	0x3c043aa1	0.008070619
142	0x3d68ac34	0.05680485
143	0xbd8a5b77	-0.06755727
144	0x3d32b786	0.043632053
145	0x3e891291	0.26771978
146	0xbcdcd758	-0.026958153
147	0xbd655eee	-0.055998735
148	0x3d97da58	0.07414693
149	0x3d5f2156	0.05447515
150	0x3dd4f51c	0.103983134
151	0x3e50a98b	0.20377176
152	0xbe095db3	-0.1341465
153	0x3d7a65f7	0.061132398
154	0x3db09477	0.086220674
155	0x3d81e76d	0.06342969
156	0xbddb60a9	-0.10711796
157	0x3e2549d9	0.16141452
158	0x3d24f7a4	0.04027523
159	0x3db3818f	0.08764946
160	0xbe123eb7	-0.14281736
161	0x3c2c2e49	0.010509082
162	0x3d8536cf	0.065045945
163	0x3d2b07fc	0.04175566
164	0x3e27c1c4	0.1638251
165	0xbd720e60	-0.05909574
166	0xbd9cc84f	-0.07655393
167	0xbd7bc039	-0.061462615
168	0xbd1380f2	-0.036011644
169	0xbdb9d4ac	-0.09073767
170	0x3c21b96e	0.00987087
171	0xbe2a5ffd	-0.16638179
172	0x3d1a57ba	0.03768132
173	0x3d276fcb	0.0408781
174	0xbe010fff	-0.12603758
175	0x3d685329	0.056719933
176	0xbcfd617b	-0.030930271
177	0x3c9de2f5	0.01927326
178	0x3d191906	0.03737738
179	0xbe287eec	-0.16454667
180	0x3d9491fc	0.07254407
181	0xbe040f67	-0.128965
182	0x3d8a6665	0.067578115
183	0xbd101e0b	-0.0351849
184	0x3c3fcad3	0.011706072
185	0xbdae5bf4	-0.085136324
186	0xbd4a48ac	-0.04938571
187	0xbca57ca2	-0.020201031
188	0xbd6ab0a9	-0.057297383
189	0xbdec5519	-0.115396686
190	0x3d0c57da	0.03426347
191	0x3c0c9e88	0.008582719
192	0xbd84e0e9	-0.06488211
193	0xbd7ee82c	-0.062233135
194	0xbde4d815	-0.11174027
195	0xbd9c6896	-0.07637136
196	0xbdeb0562	-0.11475636
197	0x3df01f5e	0.11724733
198	0xbcdb55e9	-0.026774364
199	0x3dbcec85	0.092248
200	0x3db21658	0.08695668
201	0x3e04e7bb	0.12979023
202	0x3c818342	0.015809659
203	0x3b5a92a8	0.0033351574
204	0xbcc52f52	-0.024070416
205	0x3dce3001	0.1006775
206	0x3d21a509	0.03946403
207	0x3db1c411	0.08679975
208	0x3d0968c7	0.03354719
209	0x3e950ac7	0.29109785
210	0x3d929772	0.07157792
211	0x3e28cb52	0.1648381
212	0x3e17d94c	0.14828986
213	0x3e588d49	0.21147646
214	0xbbac8c60	-0.0052657574
215	0x3e1fb254	0.1559537
216	0xbcc0c8e7	-0.023533298
217	0x3df3bd74	0.1190137
218	0x3d9a5729	0.07536156
219	0xbd46a0a8	-0.048493057
220	0xbd8882dd	-0.06665585
221	0x3ca8e01f	0.020614682
222	0xbd5710f3	-0.0525064
223	0xbe064adc	-0.13114494
224	0x3dc05fc6	0.09393267
225	0x3e2b5a0b	0.16733567
226	0x3e08eb29	0.13370956
227	0x3e0ec7c7	0.13943397
228	0xbd97a39d	-0.07404254
229	0xbe243cb7	-0.16038786
230	0xbe0ef346	-0.13959989
231	0xbe529ecc	-0.20568389
232	0x3deab9b3	0.114612006
233	0xbc987662	-0.018611137
234	0xbdf82201	-0.12115861
235	0x3d3551fb	0.044267636
236	0x3cad0814	0.021122016
237	0xbd8e4f5e	-0.06948732
238	0x3ce25e31	0.027632805
239	0x3e012b43	0.1261416
240	0xbe3f1dad	-0.18663664
241	0xbdde88e4	-0.108659536
242	0x3e599979	0.21249951
243	0xbe81a13c	-0.25318325
244	0xbd8e5428	-0.06949645
245	0xbd6d4ec2	-0.057936437
246	0xbdcab724	-0.098982126
247	0x3d4a400c	0.049377486
248	0x3dcdf70e	0.100568876
249	0x3bacf166	0.0052778004
250	0x3d1318f0	0.035912454
251	0x3c8ff36d	0.01757213
252	0x3ce0943c	0.027414434
253	0xbdfc5883	-0.1232157
254	0xbcef051c	-0.029177241
255	0xbdab0575	-0.0835065

fc2.bias f4 [16]
0	0xbe337b12	-0.17527416
1	0xbe199218	-0.14997137
2	0x3e23819d	0.15967412
3	0xbd37500c	-0.044754073
4	0x3e2dea41	0.16983892
5	0xbd1fcd8c	-0.039014384
6	0xbe317898	-0.17331159
7	0x3dfd28ca	0.123612955
8	0x3dd3e26e	0.103459224
9	0xbd895fd0	-0.06707728
10	0xbd7e118a	-0.062028445
11	0xbe32567f	-0.17415808
12	0x3dcc6f82	0.09982206
13	0xbdd68184	-0.10473922
14	0x3d8a8eb0	0.06765497
15	0x3dd029a6	0.10164194

head.weight f4 [1, 17]
0	0xbce2f776	-0.02770589
1	0x3cbf9e1f	0.023390828
2	0xbd5c1693	-0.053732466
3	0xbcc996c2	-0.02460802
4	0xbc2f0cdf	-0.010684221
5	0x3d78a604	0.0607052
6	0xbc9a998c	-0.018872045
7	0x3d32a35c	0.043612823
8	0xbc1fb930	-0.009748742
9	0x3b539975	0.0032287512
10	0xbd4bc9fd	-0.049753178
11	0xbd816255	-0.063175835
12	0x3cf7b48b	0.030237457
13	0x3cce474f	0.025180487
14	0xbd31f9bd	-0.04345106
15	0xbd722ae2	-0.059122927
16	0x3d2507bb	0.040290575
