python/model_pth/huattn/hu_bn_attn_net_best.pth (torch, 12181 bytes, 16 tensors)

attn.0.weight f4 [7]
00000000: 1c2f 8c3f 50be b43f 1e61 023d 4220 b8be
00000010: 2391 353d 24a9 d93e 1a4a 0d3e
1.0951877 1.4120579 0.0318309 -0.3596211 0.044327866 0.42511857 0.13797799

attn.0.bias f4 [7]
00000000: d038 643f a02b d13f 133b 66be d6f8 a13f
00000010: ad34 ecbd 5b2e 46bf 5dec 7a3e
0.8914919 1.6341438 -0.22483473 1.2654064 -0.115334846 -0.7741448 0.24504228

attn.0.running_mean f4 [7]
00000000: e259 3f40 d6cf da40 1bba 1941 72c7 1c41
00000010: 8d9c 9640 8ac5 9640 c64e 073e
2.989861 6.8378706 9.607936 9.798693 4.70661 4.7116137 0.13213643

attn.0.running_var f4 [7]
00000000: c0fe fc3c 8491 933f ff11 953e 6292 453e
00000010: 5385 9f42 d120 9d42 4678 ca42
0.030883193 1.1528783 0.29115292 0.19294122 79.7604 78.564095 101.23491

attn.1.weight f4 [1, 7]
00000000: 6cb5 103f 70c1 7a3f 465f 3f3c 3fee 7a3e
00000010: 480a 853c 9ffd 8ebe 41ab c33d
0.5652683 0.9795141 0.01168043 0.24504946 0.016240254 -0.27927873 0.095541485

attn.4.weight f4 [7, 1]
00000000: 35e6 2340 2eae 0240 68f6 5940 3c3d 2640
00000010: 3119 3ebf 5b3a 25bf 2cb8 6cbf
2.5609257 2.041881 3.4056644 2.5974874 -0.7425719 -0.6454217 -0.92468524

bn0.weight f4 [7]
00000000: 0000 803f 0000 803f 0000 803f 0000 803f
00000010: 0000 803f 0000 803f 0000 803f
1.0 1.0 1.0 1.0 1.0 1.0 1.0

bn0.bias f4 [7]
00000000: 0000 0000 0000 0000 0000 0000 0000 0000
00000010: 0000 0000 0000 0000 0000 0000
0.0 0.0 0.0 0.0 0.0 0.0 0.0

bn0.running_mean f4 [7]
00000000: a84b 3f40 4fed da40 f7a8 1941 a5bb 1c41
00000010: 7c3b 9740 7eca 9540 eef2 2f3e
2.9889927 6.8414683 9.603751 9.795812 4.7260113 4.6809683 0.17182514

bn0.running_var f4 [7]
00000000: 2a0c 003d 8ea8 953f e319 983e 186d 4a3e
00000010: c31e 9f42 e9e2 9d42 ff82 ca42
0.0312616 1.1692064 0.2970725 0.19768178 79.56008 78.943184 101.25585

fc1.weight f4 [64, 7]
00000000: 634f b63e c06b 763c 1062 95bd f7c9 8c3e
00000010: bb9d 82be 7d05 bb3e 0cd1 c2bd 16ef 3d3e
00000020: 5d5a aa3e b08c 51bd c8e9 eb3d 18a3 a7be
00000030: 7c04 05be 8c22 f13d c986 9b3e 91ac 65be
00000040: b0d9 b0be 74e7 04be 21a4 b3be 44f3 2abe
00000050: 806c 6b3b 9a31 493e 88bb 00bd 9580 b13e
00000060: ab75 84be 1bb9 b9be 2440 c0bd d4d5 e13d
00000070: b00b 13bd d213 3fbe 2ffc 4bbe 704b ae3d
00000080: fd17 933e f604 5a3e 2d31 b63e c403 46be
00000090: 04a8 873d e463 8cbd 987e 083d 3013 e53c
000000a0: 30ae a53d bef7 673e b47a c0bd 38c4 bcbd
000000b0: 1b05 acbe 4e74 00be ee50 733e 4865 313d
000000c0: 946f 9cbd 1602 6f3e 00cc 203a ebca 11be
000000d0: 5cba a2be 2ad2 1c3e e757 83be 33a4 0abe
000000e0: 2672 083e 009c 323a 0095 a3be da5a 91be
000000f0: 17d6 8b3e 77a1 bbbe 80ce 553c ca64 003e
00000100: 32e9 123e fdb2 a6be ceb5 b9be a488 f63d
00000110: 4c4e cebd 5ae8 123e b882 a73d 3768 823e
00000120: 3e2a 5b3e 2165 50be b03c 17bd 9fa4 bbbe
00000130: 5437 893d e63c 753e e878 713d 4fad 6abe
00000140: cd8d bd3e 224a 193e 5794 9b3e 0030 273a
00000150: 41b1 6cbe a67a 54be 7eca 363e 342c d0bd
00000160: 9f8e bebe 2919 ac3e a328 993e a9c8 a1be
00000170: 0891 e23d 1b80 54be 4cba 813d 7017 6fbe
00000180: 08dd b7be ba9b a8be a791 963e 6608 4b3e
00000190: ea50 5e3e b4bc 9dbe 6c0a a7bd 5cfa 953d
000001a0: f9c8 bd3e b6d0 80be 65ec 47be fe58 423e
000001b0: d483 e7bd 308b 2f3d c1f9 843e 0338 a4be
000001c0: a679 303e cc39 e9bd 3ab2 473e 9a6a 183e
000001d0: 0dc5 7ebe 52e4 303e 5339 983e 5d9e bb3e
000001e0: d6f9 64be a96f a43e a096 40bc 8020 7fbc
000001f0: 41c0 47be d0df 1cbd 3af1 93be cf9f 60be
00000200: cbc6 94be cd93 adbe 4f42 a73e 26f0 a2be
00000210: 90a3 3fbd e00a a9bd ffee a1be cc86 9c3d
00000220: ce40 773e 026f 1b3e 18a3 81be c7c0 a93e
00000230: 211e b6be d19c 0bbe 2628 0e3e 03db 863e
00000240: 9fc5 a5be a24d 023e 7bfa bd3e 92a1 3d3e
00000250: 52d8 383e fe17 263e 219f b43e 44d4 f63d
00000260: 4a80 6b3e a0fe 4e3c c17d 853e 80c4 9fbc
00000270: 7b14 33be 526c 86be eb3c 10be 0d6c 893e
00000280: 003b 293b 367b 353e 13f8 3cbe 13b4 99be
00000290: f0f0 8a3c d84e 9abe e65b 5d3e b814 61be
000002a0: 1e95 95be 28d8 603d d60d 4e3e 30da 1bbe
000002b0: ac4c 90bd 3fb2 833e ebf6 8c3e 84cc 97be
000002c0: 4789 923e 1d91 bbbe 4025 9e3b 09ea b4be
000002d0: 40e7 10be 521a b1be ecbe 88be 68d1 9cbe
000002e0: 699f be3e 97a7 ae3e d256 2e3e f70f 07be
000002f0: ae97 9bbe 469e 4bbe a516 9bbe 4489 b73d
00000300: 90e2 1fbd 417f a73e e6ac b7be 4716 b43e
00000310: 7af7 3d3e d0b0 7abd ba99 353e 109f 353d
00000320: 602d 623d e086 973c a6db 2a3e eebb 353e
00000330: a888 4fbe cdf5 9c3e e227 0b3e 85dc 4ebe
00000340: bd79 b2be c2e8 72be f491 c6bd 5130 03be
00000350: c03e 503c 1ab4 58be 161a 743e f035 bcbe
00000360: f080 5cbd 6c2f a03d e10e 0dbe 7024 84bd
00000370: bb34 bebe 9d46 a93e 66be 19be 8c7f 06be
00000380: 8536 a9be 9a52 583e 800b bbbb 9948 c1be
00000390: 7e3f 113e e690 0c3e 8b05 ae3e 46e1 07be
000003a0: e03c 12bc c2b7 323e 309e 8ebe 94c3 bebd
000003b0: f801 09be 741c 883d 9b19 a93e b7ce a2be
000003c0: 5f4a a63e d0a8 a4bd 5804 033d 826a 3a3e
000003d0: 16c5 363e 8981 983e d83a 51be 59d4 adbe
000003e0: d88e 08be f880 cf3d 29e8 b73e f87a babd
000003f0: 307e 83be 63df 0ebe 1897 5abd 7fd1 bfbe
0.35607442 0.015040338 -0.072940946 0.27497837 -0.25510964 0.36527625 -0.09512529 0.18548235
0.33272067 -0.05115956 0.115191996 -0.32741618 -0.12989992 0.117741674 0.3037627 -0.2242911
-0.34541082 -0.12978917 -0.35086158 -0.16694361 0.0035922825 0.19647828 -0.031428844 0.34668413
-0.25871024 -0.36274037 -0.09387234 0.110271126 -0.035899818 -0.18659905 -0.19920419 0.08510482
0.2872924 0.21290955 0.35584393 -0.19337374 0.06623843 -0.0685499 0.033323854 0.02796325
0.08089864 0.226531 -0.09398404 -0.09217113 -0.33597645 -0.12544367 0.23761341 0.04330948
-0.07638469 0.2334064 0.0006133914 -0.14237563 -0.31782806 0.15314546 -0.25653002 -0.135392
0.13324794 0.0006813407 -0.31949615 -0.28389627 0.27311775 -0.36646625 0.013049722 0.12538448
0.1434677 -0.32558432 -0.36271518 0.12037781 -0.10073528 0.14346448 0.081792295 0.25470135
0.21402833 -0.20351078 -0.03692311 -0.36649033 0.06700006 0.23949012 0.058953196 -0.22917674
0.37022248 0.14969686 0.30386612 0.0006377697 -0.23114492 -0.20749912 0.17850682 -0.10164681
-0.37218186 0.33612946 0.29913816 -0.31598404 0.11062819 -0.20751993 0.063343614 -0.23348784
-0.3591082 -0.3293131 0.29408 0.19827422 0.21710554 -0.30808032 -0.08156285 0.07323143
0.37067392 -0.25159234 -0.19523771 0.1897926 -0.11304441 0.04285735 0.25971797 -0.32073984
0.17233905 -0.11387977 0.19501582 0.14884415 -0.24879856 0.17274597 0.29731235 0.3664426
-0.2236093 0.3211644 -0.011754662 -0.015571713 -0.19506933 -0.03829938 -0.2889498 -0.21935962
-0.29057917 -0.33901826 0.32667777 -0.31823844 -0.046786845 -0.08254027 -0.31627652 0.07642898
0.24145815 0.15179065 -0.25319743 0.3315489 -0.35569862 -0.1363404 0.13882503 0.26338968
-0.32377335 0.12724927 0.37105164 0.18518665 0.1805127 0.1622009 0.35277656 0.12052205
0.22998157 0.0126339495 0.26072505 -0.019502878 -0.17488281 -0.26254517 -0.14085738 0.2684025
0.002582252 0.17722782 -0.18454008 -0.30020198 0.016960591 -0.30138278 0.21617088 -0.2198056
-0.2921533 0.054893643 0.20122465 -0.1521995 -0.07045874 0.25721928 0.27532133 -0.2964822
0.2862036 -0.3663415 0.004826218 -0.35334805 -0.14150715 -0.34590393 -0.26708162 -0.30628514
0.37230995 0.34112236 0.17025307 -0.13189684 -0.3038916 -0.19884595 -0.30290714 0.08961728
-0.039034426 0.32714275 -0.358741 0.35173246 0.18551436 -0.061203778 0.17734423 0.044341147
0.055219054 0.01849693 0.16685352 0.1774747 -0.20266974 0.3065628 0.13589433 -0.20201309
-0.34858504 -0.23721603 -0.09695807 -0.128114 0.012710273 -0.21162453 0.23838076 -0.367599
-0.053833902 0.07821545 -0.13775207 -0.064522624 -0.37149605 0.33061686 -0.15014037 -0.13134593
-0.33049408 0.2112526 -0.005708158 -0.377507 0.14184377 0.1372715 0.33988604 -0.13269529
-0.008925647 0.1745291 -0.27855062 -0.09314647 -0.13379657 0.06646052 0.33027348 -0.31798336
0.32478616 -0.08040011 0.031986564 0.18204692 0.1784862 0.29786327 -0.20432603 -0.3395107
-0.1333574 0.10132021 0.35919312 -0.09105486 -0.2568221 -0.13952403 -0.05336675 -0.3746452

bn1.weight f4 [64]
00000000: 0000 803f 0000 803f 0000 803f 0000 803f
00000010: 0000 803f 0000 803f 0000 803f 0000 803f
00000020: 0000 803f 0000 803f 0000 803f 0000 803f
00000030: 0000 803f 0000 803f 0000 803f 0000 803f
00000040: 0000 803f 0000 803f 0000 803f 0000 803f
00000050: 0000 803f 0000 803f 0000 803f 0000 803f
00000060: 0000 803f 0000 803f 0000 803f 0000 803f
00000070: 0000 803f 0000 803f 0000 803f 0000 803f
00000080: 0000 803f 0000 803f 0000 803f 0000 803f
00000090: 0000 803f 0000 803f 0000 803f 0000 803f
000000a0: 0000 803f 0000 803f 0000 803f 0000 803f
000000b0: 0000 803f 0000 803f 0000 803f 0000 803f
000000c0: 0000 803f 0000 803f 0000 803f 0000 803f
000000d0: 0000 803f 0000 803f 0000 803f 0000 803f
000000e0: 0000 803f 0000 803f 0000 803f 0000 803f
000000f0: 0000 803f 0000 803f 0000 803f 0000 803f
1.0 1.0 1.0 1.0 1.0 1.0 1.0 1.0
1.0 1.0 1.0 1.0 1.0 1.0 1.0 1.0
1.0 1.0 1.0 1.0 1.0 1.0 1.0 1.0
1.0 1.0 1.0 1.0 1.0 1.0 1.0 1.0
1.0 1.0 1.0 1.0 1.0 1.0 1.0 1.0
1.0 1.0 1.0 1.0 1.0 1.0 1.0 1.0
1.0 1.0 1.0 1.0 1.0 1.0 1.0 1.0
1.0 1.0 1.0 1.0 1.0 1.0 1.0 1.0

bn1.bias f4 [64]
00000000: 0000 0000 0000 0000 0000 0000 0000 0000
00000010: 0000 0000 0000 0000 0000 0000 0000 0000
00000020: 0000 0000 0000 0000 0000 0000 0000 0000
00000030: 0000 0000 0000 0000 0000 0000 0000 0000
00000040: 0000 0000 0000 0000 0000 0000 0000 0000
00000050: 0000 0000 0000 0000 0000 0000 0000 0000
00000060: 0000 0000 0000 0000 0000 0000 0000 0000
00000070: 0000 0000 0000 0000 0000 0000 0000 0000
00000080: 0000 0000 0000 0000 0000 0000 0000 0000
00000090: 0000 0000 0000 0000 0000 0000 0000 0000
000000a0: 0000 0000 0000 0000 0000 0000 0000 0000
000000b0: 0000 0000 0000 0000 0000 0000 0000 0000
000000c0: 0000 0000 0000 0000 0000 0000 0000 0000
000000d0: 0000 0000 0000 0000 0000 0000 0000 0000
000000e0: 0000 0000 0000 0000 0000 0000 0000 0000
000000f0: 0000 0000 0000 0000 0000 0000 0000 0000
0.0 0.0 0.0 0.0 0.0 0.0 0.0 0.0
0.0 0.0 0.0 0.0 0.0 0.0 0.0 0.0
0.0 0.0 0.0 0.0 0.0 0.0 0.0 0.0
0.0 0.0 0.0 0.0 0.0 0.0 0.0 0.0
0.0 0.0 0.0 0.0 0.0 0.0 0.0 0.0
0.0 0.0 0.0 0.0 0.0 0.0 0.0 0.0
0.0 0.0 0.0 0.0 0.0 0.0 0.0 0.0
0.0 0.0 0.0 0.0 0.0 0.0 0.0 0.0

bn1.running_mean f4 [64]
00000000: 7a5a 643e 60f7 9b3e 5e7e 743e 57ea 4c3e
00000010: 427b 883e 60a6 f43d 5769 703e 6a29 1b3e
00000020: 083e 553e 47c9 3b3e b6b8 663e 1431 593e
00000030: 76f4 643e ba23 9a3e a52f 6f3e 42be 833e
00000040: e909 673e bc5e 4a3e e4e4 bc3e 4def 5a3e
00000050: 5b02 663e 747e 963e d839 033e aeb1 313e
00000060: 541b 383e ca38 a23e 6cdb 623e 6eb7 803e
00000070: bfea 183e 1a27 8d3e e68b 343e 20c8 4e3e
00000080: 1f23 843e 6732 e63d 9484 523e 0ade 6e3e
00000090: 0dab 913e c5fd 433e fef5 4d3e c65d 393e
000000a0: e99f 743e 5695 523e a9a1 993e 687a 1a3e
000000b0: 696d 1f3e 2043 213e 8937 3b3e c3b7 353e
000000c0: dae1 ac3d 81e4 8e3e 13ae 3e3e b611 2a3e
000000d0: d7a1 103e 4ae1 453e a2a7 e73d e738 ca3d
000000e0: 958a 4c3e 8e5c 9f3e 83d4 893e a13c 913e
000000f0: 83d6 be3e ffa2 7d3e 925b 513e 279e 0d3e
0.22300139 0.3046217 0.2387633 0.20011269 0.26656538 0.11945796 0.23477684 0.15152517
0.20824444 0.183385 0.22531399 0.21210128 0.2235888 0.30105382 0.23358019 0.25731093
0.22562374 0.19762701 0.3689338 0.21380349 0.22461836 0.2939335 0.12815034 0.17352936
0.17979175 0.31683952 0.22154015 0.25139946 0.14933299 0.27568895 0.17631492 0.20193529
0.25808045 0.11240082 0.20558387 0.23326889 0.28450814 0.19139774 0.2011337 0.18102178
0.23889126 0.2056478 0.3000615 0.15085757 0.1556908 0.15748262 0.18282904 0.17745881
0.08441515 0.2790871 0.18621092 0.16608319 0.14124237 0.19324222 0.1131127 0.098741345
0.1997474 0.311253 0.26919946 0.2836657 0.37273034 0.2476921 0.20445088 0.13829862

bn1.running_var f4 [64]
00000000: 756b a23d efa5 463e 354a 163e 3d95 f43d
00000010: a287 f33d 2b09 e53c 1135 923e bba2 993d
00000020: 4359 3f3e 0eeb 413e a341 073e ff8f 6c3d
00000030: 2a1c c63d 71a0 483e b8e2 cb3d bc99 223e
00000040: 80da a53d 6c13 563d 819a 2e3f 1204 b43d
00000050: 26ce eb3d 9328 cc3d ec4c 6c3d a6d4 933d
00000060: bbb8 7f3d cbd4 7c3e 61e8 eb3d 8636 f93d
00000070: 8205 ec3c f626 353e 90c7 c53d 2726 3b3e
00000080: 96e1 793e bbb8 1b3d c6f8 733d 8284 063e
00000090: a51c a83e e5c8 b03d b59a c53d 804d 6c3d
000000a0: c1c9 2a3e edaa 7c3e f820 4c3e 5945 7f3d
000000b0: 4bad 793d 14ec 443d 3722 ad3d 695b 643d
000000c0: f6b5 473c d6ad 1e3e f5fa 773d 203d 2e3d
000000d0: 09c6 663d 0927 813d 46f4 0b3d 7d89 773c
000000e0: 4f8c c73d f43f 0b3e b42c 293e da2e e53d
000000f0: 7335 6b3e 253d 943e dd71 e83d a4f0 8a3d
0.07930652 0.19399236 0.14676745 0.119425274 0.11891104 0.027958473 0.2855611 0.075017415
0.18686394 0.18937322 0.13208632 0.057754513 0.096733406 0.19592454 0.099553525 0.15878958
0.08098316 0.052264616 0.68204504 0.08789839 0.11513929 0.099686764 0.057690546 0.07218294
0.062432032 0.24690549 0.11518932 0.12168603 0.02881122 0.17690644 0.09657204 0.18276273
0.2440246 0.03801797 0.05956342 0.13136485 0.32834354 0.086320676 0.09648649 0.057691097
0.16678526 0.24674578 0.19934452 0.062321994 0.06095628 0.048076704 0.084537916 0.055751238
0.012189379 0.15496 0.060542066 0.042538762 0.056341205 0.063062735 0.034168504 0.015108463
0.097435586 0.13598615 0.16520959 0.11190577 0.22969608 0.289529 0.11349843 0.0678418

fc2.weight f4 [1, 64]
00000000: bc3c d03d 8eb5 f33d f093 debc 5edd bb3d
00000010: 7a13 c13d 0076 fabb a0b6 8ebd 20e6 28bc
00000020: b0c7 10bd dc0d 783d d460 00bd a6bb 97bd
00000030: 7000 7cbc 16e1 f6bd c0ed 12bd 5450 fd3d
00000040: ce4b e4bd 20d0 5f3c 3075 2f3c 4600 f3bd
00000050: 98e7 443d 7615 f03d 0cef 51bd ecde 723d
00000060: 4498 ff3d 7071 2c3d 74b9 483d 1e8c c2bd
00000070: 58aa f2bd 2c9d 42bd f418 a5bd 38dd 8fbc
00000080: 9eae a03d c283 e7bd a86e a3bc 38b4 963c
00000090: 686a 42bd 5402 afbd e21b f1bd 906c 053d
000000a0: c8cb d03d 0442 b2bd 6830 9cbd b4a2 403d
000000b0: 1ece 863d 60a7 fc3b 60b3 3dbd bee6 debd
000000c0: 5ce2 a0bd 4ce6 ae3d dcd6 433d 2487 3bbd
000000d0: 0c0e 9fbd 20c5 8dbb 5a9b e83d 0035 3d3a
000000e0: 1e78 bdbd 5ee4 853d 5640 de3d 36fc 8d3d
000000f0: e685 c23d f6e6 babd 98ca a2bc b6f8 d03d
0.10167834 0.11899863 -0.027170151 0.09173082 0.09427543 -0.007643461 -0.06968427 -0.010308772
-0.035346687 0.060560092 -0.031342342 -0.07408838 -0.015380964 -0.120546505 -0.035871267 0.12368837
-0.11147271 0.013660461 0.010709092 -0.118652865 0.048072428 0.11722843 -0.051253363 0.059294626
0.12480214 0.04210037 0.049004987 -0.094993815 -0.11848897 -0.047513172 -0.080614 -0.01756154
0.078458056 -0.11304428 -0.019950226 0.018396482 -0.04746476 -0.08545366 -0.11772896 0.032574236
0.10195118 -0.08703998 -0.0762642 0.047030166 0.065822825 0.0077103823 -0.046313643 -0.10883854
-0.078556746 0.085400194 0.047812328 -0.045783177 -0.07766351 -0.0043264776 0.11357756 0.00072176754
-0.09251426 0.06537698 0.10852115 0.06932871 0.09498195 -0.091260836 -0.019871995 0.10203688
