python/model_pth/huattn/hu_bn_attn_dwcv_se_net_best.pth (torch, 205767 bytes, 85 tensors)

attn.0.weight f4 [7]
00000000: bc8b ef3f 96e2 1e40 e589 753f 2838 c23d
00000010: 6dcb c43c 7dec f4be 35af c5b7
1.8714519 2.4825797 0.95913535 0.09483367 0.024022782 -0.47836676 -2.3565817e-05

attn.0.bias f4 [7]
00000000: aa38 193d fcd5 e33c 139e 3f3c fc5f 79ba
00000010: bacf 82bb 6422 173c 0921 16bc
0.037407555 0.027811997 0.011695403 -0.0009512899 -0.003992048 0.009224508 -0.00916315

attn.0.running_mean f4 [7]
00000000: 5f7d 3f40 3aaf db40 d6b5 1941 0c97 1c41
00000010: dd41 8040 9baf 8440 4ab9 693f
2.992027 6.86514 9.606894 9.786877 4.00804 4.146436 0.91298354

attn.0.running_var f4 [7]
00000000: fd56 ec3c 68c3 963f 5a57 333f 69d0 253f
00000010: 66c2 a442 2d80 a342 a15a cd42
0.028850073 1.1778383 0.7005516 0.64771134 82.379684 81.75034 102.67701

attn.1.weight f4 [1, 7]
00000000: 8738 9ebf 78df d0bf 39cf fa3e 4140 ba3d
00000010: 2ee1 c13c 0697 efbe 0b5b 2d38
-1.2361001 -1.6318197 0.48986223 0.09094287 0.023666944 -0.4679491 4.1331205e-05

attn.4.weight f4 [7, 1]
00000000: eedf 3dc0 d2ae 35c0 9d40 6ec0 e1d9 7040
00000010: 5641 30c0 fae2 013f 38a8 78c0
-2.9667926 -2.8387952 -3.7226937 3.7632983 -2.7539878 0.50736964 -3.8852673

conv1.0.weight f4 [16, 2, 3, 3]
00000000: 7263 e6bf 7732 ed3e 80db 703f f262 df3e
00000010: ac8b 9fbe b662 343f 6981 073f f41b 33bd
00000020: 4596 89c0 e80b e0be 7d2b 323f 8cf5 fe3e
00000030: 31c0 22c0 00ad 52bf 3db6 d1bf 30cf 74be
00000040: 17e2 09be f575 713f f189 193f 8b15 12c0
00000050: 0cd5 ac3f 5ea8 a63e 122d 18bf e780 103f
00000060: 532c 203f 2563 abbf 02c4 8d3f 74a0 8ebf
00000070: 45b1 8fbe 37e6 12bf fd33 b13f 42e9 d5be
00000080: 8d35 f8be e069 1d3e e7a9 a4be 5cf2 fc3f
00000090: 9ea5 be3e e4ce 843d 30ea 0d3f 813d 2d3f
000000a0: 340c 2540 ea5d 1fbf fff5 6e3f 43cb ea3f
000000b0: cf94 103f e153 09be dd07 47bf 547c 75bf
000000c0: 7023 173f c38e 14be 269e a8be 7c11 3dbf
000000d0: 87a4 853f 36b4 d23f cb9a 61bf b5e0 943f
000000e0: 8b1e 75c0 7cba fa3f 34bc 58bf 60ac 103f
000000f0: 9500 873f 08d3 3bbf 6f3d 1540 4a8a ba3e
00000100: e19e 9ebd ebc7 133f 5693 b2be 9663 5ebe
00000110: 3759 153f d9db acbe 656d d6be 0a14 32bf
00000120: e2bf dfbf ec46 783e 10f8 5fbf b9a6 5f3e
00000130: 8027 ed3e de93 f3be 35c0 ffbd ea89 10c0
00000140: f8ce 123e ebeb 8f3f d7d8 ba3f f297 afbe
00000150: c68c 5bbf aa1d d33d b000 dbbe f913 f9be
00000160: 0fda 0fbe f5a4 3bbf 0536 06bf 7874 acbe
00000170: 336d 9cbe 106c a93e 6025 eb3c 9c9f 9cbd
00000180: 4df7 dabf cf01 f63e 00f7 a03e caa8 a33f
00000190: 8474 c03e d6ce e43f a7b1 53bd 0b6e 0440
000001a0: 9286 2f40 330a 11bf 9d18 b5be a714 79be
000001b0: bb60 ba3f b786 8a3e 7455 ebbe 3897 af3e
000001c0: 2faf eaba 4196 9bbe 98ba 0ebd c6ef 1240
000001d0: a35c 1dbf 846a 1540 6d52 db3e 3a1a 1e3d
000001e0: 0517 87be e6bc 763f 74a9 4c3f 6996 8fbf
000001f0: 55d5 a5be e25f 81bd 57ec 93bf ca34 14bf
00000200: 1d77 06c0 f236 5abf da0b 97bf dba4 b63e
00000210: eb9e 963f ad67 9ebf 3863 95be 896e 89be
00000220: ffb6 42bf 0fdc 13bf ac74 87bf 4bee a3bf
00000230: e9b6 1abe 6c64 2bbe 1049 80bf 7f6e 88bf
00000240: 5a49 06bf 61d1 a2bf 8e04 213d 0148 be3f
00000250: 9cd3 763f 5803 0b3f 0625 783f a655 2a3f
00000260: 78d9 cd3f 8cd4 0ebe 21a3 c8bd 6790 a43e
00000270: ab5d 8fbf 7e77 5abc 0c15 24be ee8e c0bf
00000280: 8095 dfbf 3b99 b23f 843a 6abf 6e78 ebbf
00000290: c01d 97bc 86e9 5bbe 2093 8ebc 3529 a1bf
000002a0: 4bfb 71bf 4a76 8f3f f391 44bf 0311 ef3f
000002b0: 7a38 eebe 9533 7fbe 824d b1bf bece f33e
000002c0: 6fee 3f3f 1122 84bf 9993 1fbf 5b58 683f
000002d0: a4ff eabe b728 4f3f 0dac 583f 6c9b b53f
000002e0: fc26 4a3f 7016 8f3f 8514 633f f527 b7bd
000002f0: 0068 0140 31c5 a4bf d3f6 33bf 1828 58bf
00000300: 5aca 63bf 3fd9 3c3e 7532 3f3e 055e 2ebe
00000310: 55a8 adbf 3a79 233f 09da e63b 4830 813f
00000320: 2306 2e3f 7f4d 743f a884 2440 1358 23bf
00000330: c498 e03e f32b 2ebe 19cd 363c ea62 24bf
00000340: 74f4 c1bf 9b2f 53bf 3954 ef3c a7de 66bf
00000350: 754f c33c 18be 913f e28c 8b3f d935 b03f
00000360: 7e53 ad3d e163 82bf 5d35 e83e dd45 0340
00000370: 3039 ca3f 9d5e 573f cf22 943d 66ee 963e
00000380: 5070 a93f 3ccd 873f 40c0 d73d 7417 a83f
00000390: 0a34 0ebf 671f 753f 9271 9e3e 79f9 2dbf
000003a0: 03b7 f1be 089b a13f 4f27 f6bf d4ed aebf
000003b0: 141c 993f fd75 83be b200 5c3c 2b42 6e3e
000003c0: 13ea af3f 13f2 013f d7b1 cebf 7cc4 c1be
000003d0: 10c8 c2bd b357 5fbf c37f 19bf 7e89 8bbf
000003e0: 008d 9bbf e24e 9d3f 8cf6 9abe 6ea5 5dbe
000003f0: c67e e7bf 8763 75be e8e2 5bc0 d941 1dbf
-1.7999098 0.46327564 0.9408493 0.43630177 -0.3116125 0.7046312 0.5293184 -0.04372783
-4.2995934 -0.43759084 0.6959761 0.49796712 -2.5429804 -0.8229523 -1.638374 -0.23907161
-0.13465153 0.94320613 0.59976107 -2.2825649 1.3502517 0.3255033 -0.5944377 0.5644669
0.62567633 -1.3389632 1.1075442 -1.1142716 -0.28064933 -0.5738253 1.384399 -0.41779524
-0.48478356 0.1537242 -0.32160875 1.9761462 0.3723573 0.06484774 0.55435467 0.6767197
2.5788698 -0.62252676 0.9334411 1.834328 0.56477064 -0.13410904 -0.77746373 -0.95892835
0.5903845 -0.14507584 -0.32933158 -0.73854804 1.0440835 1.6461246 -0.8812682 1.1631075
-3.8299892 1.958816 -0.84662175 0.56513023 1.0547053 -0.73368883 2.3318746 0.3643363
-0.077451475 0.57726926 -0.34878033 -0.21717677 0.58339256 -0.3376148 -0.41880336 -0.6956183
-1.7480433 0.24245805 -0.8748789 0.21840943 0.463192 -0.4757375 -0.124878325 -2.2584176
0.14336765 1.1243871 1.4597424 -0.34295613 -0.8576168 0.10308392 -0.42773962 -0.4864805
-0.14048027 -0.7329858 -0.5242618 -0.3368261 -0.30552062 0.33090258 0.028704345 -0.076476306
-1.710672 0.48048255 0.31438446 1.2785885 0.37588894 1.7875621 -0.051683094 2.0692165
2.7425885 -0.5665619 -0.3537034 -0.24324284 1.456077 0.27055904 -0.45963633 0.34295058
-0.0017904992 -0.30388072 -0.03484592 2.2958846 -0.6146948 2.3346262 0.42836323 0.03859923
-0.2638475 0.96381986 0.79946065 -1.1217777 -0.32389322 -0.06317116 -1.15565 -0.5789305
-2.10102 -0.8524009 -1.1800492 0.3567265 1.1767248 -1.2375389 -0.2917726 -0.26842144
-0.7606048 -0.5775766 -1.058248 -1.2807096 -0.15108837 -0.16737527 -1.0022297 -1.0658721
-0.52455676 -1.2720147 0.039310984 1.4865724 0.9641664 0.5430198 0.96931493 0.6653694
1.6081991 -0.13948268 -0.09796739 0.3214142 -1.120046 -0.013334153 -0.16023654 -1.5043619
-1.7467499 1.3953012 -0.9149554 -1.8396127 -0.018446803 -0.21475801 -0.017404139 -1.25907
-0.9452407 1.1207974 -0.767852 1.8677067 -0.46527463 -0.2492202 -1.3851779 0.4761867
0.74973196 -1.0322896 -0.6233459 0.9075982 -0.45898163 0.809215 0.8463753 1.4188056
0.78965735 1.1178722 0.88703185 -0.08943168 2.0219727 -1.2872678 -0.702985 -0.8443618
-0.8898064 0.18442248 0.18671592 -0.17028053 -1.3566996 0.6385685 0.007045035 1.0092859
0.67978114 0.9543075 2.5705967 -0.63806266 0.4386655 -0.17008953 0.0111572975 -0.6421343
-1.5152726 -0.82494515 0.029214965 -0.9018349 0.023841599 1.1386137 1.0902369 1.3766433
0.084631905 -1.0186731 0.45353213 2.051139 1.5798702 0.84128743 0.07233202 0.2947876
1.32374 1.0609508 0.10534716 1.3132157 -0.55548155 0.9575104 0.30946022 -0.6795879
-0.4720994 1.2625437 -1.9230746 -1.3666329 1.1961694 -0.25675955 0.0134279 0.23267429
1.3743309 0.5076 -1.6148022 -0.37845218 -0.09510815 -0.87243193 -0.59960574 -1.0901334
-1.2152405 1.2289698 -0.30266225 -0.21645138 -1.8085563 -0.23963748 -3.4357243 -0.614286

conv1.1.weight f4 [16]
00000000: 5a56 f83f 875c e93f d1ec 223f 0a12 e83e
00000010: cb69 863f cf59 b73f 2068 6d3f 3a6a 7c3f
00000020: e015 9e3f 7445 a43f 34db 773f 9211 bd3f
00000030: 9ddb f43f f15f 1a40 4f6f cb3f 35eb ab3f
1.9401352 1.8231362 0.63642603 0.45326263 1.0501035 1.4324282 0.9273701 0.9859959
1.2350426 1.2833695 0.9681885 1.4770987 1.9129521 2.4121058 1.5893344 1.3431154

conv1.1.bias f4 [16]
00000000: a08b b53e 18f8 8bbf 1f85 febe 7cb4 86bf
00000010: cf46 cebe b753 05bf e5b0 8dbf feb9 b3be
00000020: 5b01 62bf 2272 e2bf 39b7 663f e382 223e
00000030: ce11 dabf 8ada b63e 2a45 45bf bf20 78bf
0.35458088 -1.0935087 -0.49710938 -1.052383 -0.40288398 -0.52080864 -1.1069609 -0.35102838
-0.8828332 -1.769108 0.90123326 0.15870242 -1.7036684 0.35713607 -0.7705866 -0.96924967

conv1.1.running_mean f4 [16]
00000000: dc83 7fc3 281e a741 15b2 0742 d007 f9c1
00000010: 115e 0bc2 c530 e643 9f51 4243 6de7 d9c3
00000020: f652 3cc3 4631 15be c27c 82c3 5add 06bf
00000030: 3b70 6d43 4bbc 70c3 a094 07c2 6b6a 2843
-255.51508 20.889725 33.92391 -31.128815 -34.84186 460.381 194.31883 -435.808
-188.32407 -0.14569578 -260.97467 -0.52681506 237.4384 -240.73552 -33.89514 168.4157

conv1.1.running_var f4 [16]
00000000: f88c 3948 8c09 2c46 9ba9 af46 123d 9a46
00000010: 250b 4d46 18ae 1349 2274 d347 f0b9 f748
00000020: 2d07 f247 cc01 3a46 54cb 5e48 4c3f 9c46
00000030: b9e7 1748 a181 2148 caf2 a246 f850 a247
190003.88 11010.387 22484.803 19742.535 13122.786 604897.5 108264.266 507343.5
123918.35 11904.449 228141.31 19999.648 155550.89 165382.52 20857.395 83105.94

classifier.0.weight f4 [80, 40]
00000000: 3111 9e3e f5e5 73bf c98c 1f3f 38b9 863f
00000010: 083b e03e db01 92bf 880b a1be 7293 563f
00000020: 717b 22bf f03d 7c3f 2ad1 4fbd df1c 33bf
00000030: c68d eabe 50b5 6f3f 7172 443f 1d31 a03f
00000040: 9aae 473f 308d 48be 9922 5f3f 9151 5f3f
00000050: 8051 cfbe eae6 033f e7a3 723f 5cae 323f
00000060: f73b dc3e 2628 c6be d23d d0bd 8fb4 8c3e
00000070: a43d 2f3f 1d6f 85be 8ca6 613f 2eb6 5a3e
00000080: c218 a23b ad50 563e 5a83 253f 8fd4 543e
00000090: 46cc ee3e 1b9f edbe 3d25 c53f e13b 3f3f
000000a0: d1e5 29be 26d2 e9be 6722 00bf f4cd ccbe
000000b0: 1ce8 8bbe cc4d 67bf 0a3f 3cbf e377 9b3e
000000c0: 62f6 8f3e 592b 39bf c71b c53e a2a5 143e
000000d0: 8f05 893e c4a1 31bf c5e3 943d 87cb 26bf
000000e0: b7e1 203f 2ae5 40bf e3ac a1be 144c f0be
000000f0: cbc8 49bf f610 653f 182e f0be 9e37 003f
00000100: de07 513f 4602 ecbd d557 1abe bd2a 9e3f
00000110: 5f24 42bf a7a3 27be 8eab 6bbe 983e 6e3e
00000120: e1ad 9f3e a41a e6be 256c 3ebe 764b 703f
00000130: 8638 043f b1ed 0c3f 29f3 5abf febd 0ebd
00000140: 7b95 0dbf e137 693f a182 5dbe 001a d33e
00000150: 5de9 1cbe 30e8 c83e 142c 37bf 7e36 9b3e
00000160: f84b c7be cc6c 6f3f 2466 0fbf 7ce7 8a3e
00000170: 4c80 0c3f 97c7 4dbe ef14 4b3d df0b 15bd
00000180: 5c3f 043f eb86 813f be75 b73d fb5d 1f3f
00000190: f840 edbe 20ff c43e 0d13 163e d4ac 88be
000001a0: ccf3 ee3d 90c8 3d3f 9be3 723f 3020 123f
000001b0: 6a78 06bf 844c da3d 9802 c33e 2397 f73e
000001c0: 63cb d43e bdc3 9b3e 8d64 763f 9255 223f
000001d0: 42ac 143e cf93 943e 7e41 c4bd 17fb c23e
000001e0: 0dba 35bf 0e21 b03e 6cd6 34be d87e 553e
000001f0: 455b d5bd 59cb 3bbf 4e3d 333e 3302 c5be
00000200: 7864 99bd cd80 bc3e 5087 5bbf 1250 193f
00000210: 96f3 ea3e 945a 963e 58a4 64bf 126f 00bf
00000220: 4162 973e 5d63 4c3f 9226 95be fd9e 57be
00000230: eb4f a1bd 5891 8bbf adf6 9a3e 4eed 7fbf
00000240: 1fd6 ab3e 0c6c 383e 1e01 b3bf 3b04 b0bf
00000250: 1bfc 7a3e 8b88 b13d 4654 05be 7f9a a13d
00000260: 5677 55bf a61e bebf ce66 0cbd 13b8 d6bf
00000270: c95f bb3e 3d83 69bf 2b68 4bbe a37e 13bf
00000280: 2ab2 09bf 4ff4 f43e 97c4 08bf aa64 183e
00000290: 9e43 17bd cb0f 263f 7d3c 23bf 1abc 41be
000002a0: 1677 6b3e a246 0dbe 248d 2f3e c367 8a3e
000002b0: d6b4 0f3d 7f4f c9bd 9262 67be 5813 4bbe
000002c0: c6fd 49be 8981 dabe b596 f0be cace 8fbe
000002d0: 7971 f2be d50e 9e3d f505 8cbe 3b09 52be
000002e0: 9ede c7be a169 f9bc 0287 67be ce20 d4bc
000002f0: b164 03bf ca75 a43d b1e5 a1be 4066 103e
00000300: e468 363f 32bd 363e 270a f53d 0b28 6c3d
00000310: 7fb1 b13d 3e79 c83e 19ee 0d3e a979 07bf
00000320: 86a9 413e 15a6 92be cdd7 073f a362 b1be
00000330: 1bd9 893e 04a2 57bf 3bb2 0c3e 1c63 153f
00000340: e055 acbf 68c5 d93e 1ef2 eebd b1d2 c8be
00000350: ff39 6fbf 3e66 d13e 716b 193f 5241 dc3d
00000360: 6323 babd c34c 22bf 9a1a 823f 4b1f 8e3e
00000370: 177e af3d 4904 0dbf 81ac 353f ab75 663e
00000380: 67d2 e83e 83d6 993e d47a 84bf 94e4 40bf
00000390: 50d9 2f3f 3297 51be 1f46 953e f90d 2cbe
000003a0: b225 ecbf 21a6 4fbf b769 65bc f9d8 37bf
000003b0: f166 c13d 8c44 1ec0 4839 bbbe 7a3b fe3d
000003c0: 0220 f6bf 6270 3dbe 2a22 82bf ce90 c9be
000003d0: 4ba2 a9be 5aeb dcbe 22ce 89bf 6a79 9dbf
000003e0: a6f4 483e ab2a 4b3f 1385 19be b1d3 a03d
000003f0: 6862 933f 8bf1 ccbe 3219 28bf 9ba5 89bf
0.3087249 -0.9527276 0.62324196 1.0525274 0.43795037 -1.1406816 -0.3145411 0.83818734
-0.63469607 0.9853201 -0.050736584 -0.6996593 -0.4581129 0.93636036 0.76737124 1.2514988
0.78000796 -0.19585109 0.87162167 0.87233835 -0.40491867 0.5152422 0.94781345 0.697973
0.430145 -0.38702506 -0.10168041 0.27481505 0.6845343 -0.26061335 0.88144755 0.21358559
0.004946799 0.20929213 0.6465355 0.2078421 0.46640223 -0.4641045 1.5401989 0.7470074
-0.16591574 -0.45668143 -0.50052494 -0.4000088 -0.27325523 -0.90353084 -0.7353369 0.30364904
0.28117663 -0.7233177 0.38497755 0.14516309 0.26762053 -0.6938746 0.07270006 -0.6515431
0.62844414 -0.75349677 -0.31577215 -0.46933043 -0.7882201 0.89479005 -0.46910167 0.50084865
0.8165263 -0.11523871 -0.15072568 1.2356793 -0.7583675 -0.16371022 -0.23014662 0.23266065
0.31187347 -0.449422 -0.18595941 0.93865144 0.5164875 0.5505019 -0.8552728 -0.03484916
-0.55306214 0.9110089 -0.21631862 0.41230774 -0.15323396 0.39239645 -0.7155163 0.30315012
-0.38925147 0.93525386 -0.5601523 0.27129734 0.54883265 -0.20095669 0.04958051 -0.036388274
0.5165918 1.0119299 0.089580044 0.6225278 -0.4633863 0.38475895 0.14655705 -0.26694357
0.11667594 0.7413416 0.9487855 0.57080364 -0.5252749 0.106591254 0.38087916 0.48357496
0.41561422 0.30422774 0.9624718 0.6341182 0.14518836 0.2901902 -0.09582804 0.3808219
-0.70987016 0.3440022 -0.1765992 0.20849168 -0.10417799 -0.7335716 0.17503855 -0.3847824
-0.07489866 0.36817017 -0.85753345 0.598878 0.45888966 0.2936598 -0.8931327 -0.5016948
0.2956715 0.79839116 -0.2913099 -0.21056743 -0.07876571 -1.090373 0.30266324 -0.99971473
0.335618 0.18009967 -1.3984716 -1.3751291 0.24510233 0.08668622 -0.13020429 0.07890796
-0.8338522 -1.4853103 -0.03427773 -1.6774925 0.36596516 -0.9121588 -0.19863956 -0.5761511
-0.5378748 0.47842643 -0.5342497 0.1488215 -0.03692972 0.6486785 -0.6376417 -0.18919411
0.22994646 -0.13796476 0.17143685 0.2703229 0.035084568 -0.09829616 -0.22596195 -0.19831598
-0.19725713 -0.42676952 -0.4698998 -0.28087455 -0.47352198 0.07717673 -0.27348295 -0.20511334
-0.3903703 -0.030445876 -0.22610095 -0.025894549 -0.5132552 0.08030279 -0.31620553 0.14101505
0.712538 0.1784561 0.11964827 0.057655375 0.08676433 0.39155 0.13860358 -0.52920014
0.18912324 -0.28642336 0.5306366 -0.34645566 0.2692345 -0.8423159 0.13739865 0.58354354
-1.3463707 0.42533422 -0.11667274 -0.39223245 -0.9344787 0.40898317 0.5992957 0.10754646
-0.09088781 -0.6339838 1.0164368 0.2775825 0.085689716 -0.55084664 0.70966345 0.22505824
0.45473024 0.30046472 -1.0349984 -0.7534878 0.6869097 -0.20467833 0.2915506 -0.16802205
-1.8449004 -0.8111287 -0.014002255 -0.7181545 0.09443463 -2.4729338 -0.3656714 0.12413688
-1.9228518 -0.18499902 -1.0166676 -0.3936829 -0.33131632 -0.4314831 -1.0766032 -1.2302678
0.19624576 0.7936198 -0.1499217 0.07852877 1.1514406 -0.40028033 -0.65663445 -1.0753664

classifier.0.bias f4 [80]
00000000: 8181 85bf 746e 913e 052e fe3e 907d fc3d
00000010: 57b3 2a3f 5fd4 d8be 54a7 57bd 5c39 5ebf
00000020: fd3f 1d3e c11d adbf 9307 c6be 5b5f 8fbe
00000030: 4570 7cbf 2be6 723d 5778 cebe 2e2a 09bf
00000040: a6c5 2fc0 f722 d9bc 319c f1bf 1600 20c0
00000050: d2ce b3bf 9e3c 3fbf eb02 273d 216c a0bf
00000060: 1310 74bf 0aa4 08be 115d 50be ea2a a0bf
00000070: e75c 74bf 7cfa 853e 49d9 cdbe 2a54 e93e
00000080: a7e6 69bf a706 973e e3e3 16be 607e 45bf
00000090: f2cf 00be 8361 a8be 71e8 2fbe 967a 64be
000000a0: c96b 993e 7b00 f1bd 3177 5ebf 1476 b3bf
000000b0: ca80 d0bf c2a4 80bf eb3e c5bf 0526 233e
000000c0: 8ea0 70bf e7a9 69bf b3dc 81bf 4ea5 a13e
000000d0: ca5f f9bf 6c2b 8cbf 521b 5ac0 b2ee 90be
000000e0: 4773 8fbf ddc7 2fc0 f662 27be a0e9 2ebf
000000f0: 28a6 c5bf 280f a7bf d240 2ebe 4bbd efbe
00000100: 7237 d0bd 1535 9abf 1b63 c2bd e8cf 64bf
00000110: 54ea 1bbf 0f07 5ebf 2cd6 e1bd ee6d 51bf
00000120: f559 ecbf 17ec 813e 5279 d03e a814 9bbd
00000130: 06d7 a53e 9864 de3e a8e7 083e b052 83be
-1.0430146 0.28404582 0.49644485 0.12328637 0.666799 -0.42349526 -0.05264981 -0.86806273
0.15356441 -1.3524705 -0.38677654 -0.28002438 -0.9860881 0.059301537 -0.40326187 -0.53579986
-2.7464385 -0.02650593 -1.8875791 -2.5000052 -1.4047492 -0.7470187 0.040774267 -1.2532998
-0.9533703 -0.13343826 -0.20348002 -1.2513096 -0.9545426 0.26167667 -0.40204838 0.45572025
-0.9136757 0.29497263 -0.1473537 -0.7714596 -0.12579325 -0.32886896 -0.17178513 -0.22312388
0.29965046 -0.1176767 -0.8690062 -1.402041 -1.6289303 -1.005028 -1.5409826 0.15932472
-0.93994987 -0.91274875 -1.0145477 0.3157143 -1.9482358 -1.0950751 -3.4079175 -0.2830711
-1.1207055 -2.7465737 -0.16346344 -0.68325233 -1.5441332 -1.30515 -0.17016914 -0.46824107
-0.10166825 -1.2047449 -0.09491559 -0.8937974 -0.6090443 -0.8672952 -0.11027178 -0.81808364
-1.8464953 0.25375435 0.4071756 -0.07572299 0.32390612 0.43436122 0.1336962 -0.25649023

classifier.3.weight f4 [16, 80]
00000000: b0b1 0a3f 30b6 e0bd e9d2 8c3f c17e 123f
00000010: 3a7c 1d3f d587 203f edc4 333e 186b 21c0
00000020: 82b8 9b3f 572c aabf a4a9 cebe 61b5 02bd
00000030: dbaf a7bc f6ac 97bf 29fd 4e3e b9f6 e6bf
00000040: 0bcb e9bc 4a5d b6bf 9c2f 68bf b824 713f
00000050: f7c5 3940 10f0 d13f c7e9 843e 9350 e4bf
00000060: 5274 32bf 0022 dd3d 97c8 3f3f 6009 c6bf
00000070: 92fd cf3f 9c6c 433e 3bf4 1a3f 8b66 d33e
00000080: b458 3d3f 7136 8f3f e74b 3b3f 3ef4 8d3f
00000090: 366c f23e ac90 ae3f 31c3 02c0 07d1 d8bf
000000a0: 0c62 343f a19c 2d3f 07a7 61c0 2d04 b1bd
000000b0: 4d42 8640 843d 1ec0 61bb c3bc 4fcb 59be
000000c0: de3a 3cc0 4ec1 ff3e eaa9 afbf dd64 12be
000000d0: e6f8 973d dda5 90be 145b 483f 6053 d0be
000000e0: 4a44 18bf 440a 2bbf 2288 fabe 02da acbe
000000f0: 0ace 003f 8c4b afbf ac4a 94bf 3079 e6bf
00000100: 5dfe a43f 0e78 093f f386 faba 6109 6e3f
00000110: d02e 52bf b81c fbbe 2227 623f 342c 703e
00000120: 47e8 78bf 21a6 473f 4dba 7f3e 133c fc3f
00000130: ee1e d53e 80da aa3d 6a47 0140 cdae d73f
00000140: 3064 5f3f bd55 96be 2753 adbf 82b7 843c
00000150: 4a45 86bf 8ed1 a8bf a9b5 8b3f 3015 2540
00000160: 55cd b6bf d7b8 f13f f5b4 de3e 4e81 5f3e
00000170: 8020 5cbf feb3 f63d fb53 d9be 77ce 2a3f
00000180: e85e aa3f 39db 953e 67d6 183f 151e c7bd
00000190: 9670 01bd b152 d03f 4dab 273f 05e5 2b3f
000001a0: 810e 753d 248f 213f dceb c03d 852f 37be
000001b0: 85cc fb3f 192e 45be 01e7 913f e149 683d
000001c0: 5843 ecbe 3177 a7bf ce65 703f 147c b23e
000001d0: a524 c73e 9a00 3dbf fcb7 bf3e cc3d 433e
000001e0: 7bfc 633f 2cab a53f 35e1 3c40 83d8 7e3f
000001f0: eb8c 8f3f 4d40 d53e fb15 f23f 8a02 733f
00000200: 5f7b 1f40 a761 b13f 46a2 813e 2c8d dd3e
00000210: 3c4b c63f f633 a2bf ed37 3f3f db21 143f
00000220: 186e c33f d75c 7b3f 4d9e 893e 7898 943e
00000230: 7751 a03f ffb1 6f40 6c75 b8be 4fbc 4e3f
00000240: a57a 0dbf f8be 76bf 92e7 263d d082 0f40
00000250: 8c9e 2a40 eb12 22bf 2679 7b3f f306 43bf
00000260: 049e bd3f 3661 1d3f 7548 b2bf f928 363f
00000270: f81a 673f 1e30 9bbf f141 e5bf edd1 8a3f
00000280: 8669 2b3e 99bd 583f e276 2dbe 26c9 febe
00000290: a151 2bbf 0af9 ffbd f7aa b5bf 39ad 90bf
000002a0: 0dc7 7fbe b122 ae3f f4ec e9bd 069f 613f
000002b0: 2c1a b1be 3c51 423f 629d 96bf 44d5 39c0
000002c0: 48c9 743f 1bf0 903e c227 a3bf 7575 d0bf
000002d0: 7d25 8ec0 ca1c 703f 242e df3f 68ed 4fc0
000002e0: cc7d 59be 16ef 1fbf 6420 75bf 7a85 d73f
000002f0: 6636 1c3f b68f b83e 2e0e 08be b4bf 4b3d
00000300: c0c0 5b3f 9129 9bbe c9f7 25bf 2fb0 8b3f
00000310: 55bc 823f 1a5e 3dbe 4427 403f 4971 9e3f
00000320: 1a96 f93f ec89 0540 5d33 32bf 03ea a0be
00000330: 7b94 82c0 364a 833f 912f c53a e701 4f3f
00000340: 6999 46c0 2892 963f cec8 95be c315 193e
00000350: c471 c8bf a301 8d3e d9f8 b13f d4cd 02bf
00000360: 3eee bfbe 3192 873e b825 fbbe a640 6a3e
00000370: f923 bf3e f724 80bc be23 bebe 7aa2 aabf
00000380: d423 47bf dd91 46c0 ec44 323e 9448 48c0
00000390: 07f9 b0be 5a64 0cbe 89e2 9f3f f360 aa3e
000003a0: e2ef 6cbe 8d80 00bf f91d b6bd 1df1 91be
000003b0: 2f03 8e3f d1e4 a2bf f41c aebe d559 af3c
000003c0: fd16 92be fe7e b33e b3dd 213f 5ae3 de3e
000003d0: a2b1 cf3e aa8b 853e 996a 953f e6c0 15c0
000003e0: 4867 4c3f 32e6 7d3e 9750 24bf 402c c9bf
000003f0: b4bb 9fbd caa4 673f 63b6 00bf 99df ecbf
0.5417738 -0.109722495 1.1001865 0.5722466 0.6151768 0.62707263 0.1755559 -2.5221615
1.2165682 -1.3294781 -0.403638 -0.031911258 -0.020469597 -1.1849658 0.2021376 -1.8044044
-0.028539201 -1.424722 -0.90697646 0.94196653 2.9027078 1.6401386 0.25959608 -1.7837089
-0.6970874 0.107975006 0.7491545 -1.5471611 1.6249259 0.190844 0.60528916 0.41289172
0.73963475 1.1188489 0.7316269 1.1090162 0.47348183 1.36379 -2.0431635 -1.693879
0.7046211 0.6781712 -3.5258195 -0.086433746 4.1955934 -2.4725046 -0.02389306 -0.21268962
-2.941093 0.49952167 -1.3723729 -0.14296289 0.074205205 -0.28251544 0.78263974 -0.4068861
-0.594792 -0.6681254 -0.48931986 -0.33760077 0.5031439 -1.369493 -1.1585288 -1.8005733
1.2890126 0.53698814 -0.0019113704 0.9298306 -0.8210268 -0.49045348 0.8834096 0.23454362
-0.9722943 0.7798787 0.24973412 1.9705833 0.4162516 0.08342457 2.0199838 1.685022
0.8726225 -0.29362288 -1.3541001 0.016200785 -1.0489895 -1.3188951 1.0914813 2.5794182
-1.4281412 1.8884534 0.43497434 0.2182667 -0.8598709 0.120460495 -0.42446885 0.6672129
1.3310213 0.29268816 0.5970215 -0.097225346 -0.03160151 1.6275235 0.6549576 0.6714633
0.059828285 0.6310904 0.094199866 -0.17889221 1.967179 -0.19255866 1.1398622 0.05671108
-0.4614513 -1.3083249 0.9390534 0.3486029 0.38895145 -0.7382904 0.37445056 0.19066542
0.8905713 1.2942863 2.9512455 0.9954912 1.121488 0.4165062 1.8912958 0.9492575
2.491905 1.3857926 0.25319117 0.43271768 1.549171 -1.2672107 0.7469471 0.5786416
1.5267973 0.9818854 0.26878586 0.29022574 1.2524861 3.745239 -0.36027086 0.80756086
-0.55265266 -0.96385145 0.040748186 2.2423592 2.665927 -0.63310117 0.9823173 -0.7618248
1.4813848 0.6147646 -1.3928362 0.7115627 0.90275526 -1.2124059 -1.7910749 1.0845314
0.16739473 0.84664303 -0.16939881 -0.4976284 -0.6692143 -0.12498672 -1.4192799 -1.1302863
-0.24978276 1.3604337 -0.11422148 0.88133276 -0.3459028 0.75905204 -1.176678 -2.9036417
0.9561963 0.28308186 -1.2746508 -1.6285845 -4.442076 0.9379393 1.7435956 -3.2488651
-0.21239394 -0.6247419 -0.9575255 1.6837609 0.61020505 0.36047143 -0.13286659 0.04974337
0.8584099 -0.3030515 -0.64831215 1.0913142 1.0213724 -0.18492928 0.75059915 1.2378322
1.9498932 2.086543 -0.69609624 -0.31428537 -4.080625 1.0257022 0.0015044083 0.8086228
-3.1031134 1.1763353 -0.29254764 0.14949708 -1.5659719 0.2754031 1.3904067 -0.5109532
-0.37486452 0.26478723 -0.49052215 0.22876224 0.37332132 -0.015642626 -0.37136644 -1.3330834
-0.77789044 -3.1026528 0.17409104 -3.1294298 -0.34564993 -0.13710156 1.2491008 0.3327709
-0.23138383 -0.5019615 -0.088924356 -0.28504267 1.1094722 -1.2726079 -0.34006464 0.02140514
-0.28533164 0.35057825 0.6322891 0.4353283 0.4056521 0.26083118 1.1673156 -2.3398986
0.79845095 0.24794844 -0.6418547 -1.5716629 -0.077994734 0.90485823 -0.502783 -1.8505737

classifier.3.bias f4 [16]
00000000: ac0e 36c0 80a4 3bbf 4f3b abbd 7ce0 a8bf
00000010: ad4e f8bf ea47 e83c eae9 1740 fc28 2840
00000020: b354 27c0 f49d 993f 69c1 0240 ee75 f83f
00000030: 9c14 d23f c850 e7bf 397f 0140 a656 9ebf
-2.8446455 -0.7329788 -0.083609216 -1.3193507 -1.939901 0.028354604 2.373652 2.6275015
-2.6145446 1.2001328 2.0430548 1.9410989 1.641254 -1.8071527 2.02339 -1.2370193

last_Linear.weight f4 [16, 2]
00000000: 2c83 91c1 47a2 993d 71d9 5441 b2d0 e73b
00000010: edf0 893f 0e44 3c3e eb0f 9d3f 27d5 383e
00000020: f730 18c0 b7ea b33d dd5e 8ac1 0cc8 e93c
00000030: 6bb3 5241 5023 aabd 9900 90c1 04c1 0f3d
00000040: d855 4a41 2e08 05bc 0ca8 81c1 5dbb c73c
00000050: 31a6 00bf d77e 92be 4424 8dc1 5085 0b3d
00000060: 7bc3 9c3f 8eb8 a0be afbc 5a41 240b cdbc
00000070: 6eea 4cc1 7862 d73c 2cd1 4941 8e74 3d3c
-18.189049 0.07501655 13.303086 0.007074439 1.077665 0.18385336 1.2270483 0.18050061
-2.3779886 0.08785003 -17.29632 0.028537773 13.168803 -0.083075166 -18.000292 0.035096183
12.645958 -0.008119626 -16.207054 0.024381334 -0.5025359 -0.28612396 -17.642708 0.034062684
1.2247156 -0.31390804 13.671065 -0.025029726 -12.807234 0.02629207 12.613567 0.011563433

last_Linear.bias f4 [16]
00000000: e352 3f3f f1d2 ed3e 1843 ce3e 5188 e4be
00000010: 78a2 0dbf c695 0dbf 7b2d 0e3f 5c43 8bb9
00000020: a551 18be f5c5 8ebe 6ef2 e9bd 174b 4a3f
00000030: 8d9d c93e 9085 9d3d 6a0e 59bd c2ea 1ebd
0.7473585 0.46449998 0.40285563 -0.4463525 -0.5532603 -0.5530666 0.5553815 -0.00026562333
-0.14874895 -0.27885404 -0.11423193 0.7902083 0.39378014 0.07691491 -0.052992262 -0.0387981

bn_last.weight f4 [16]
00000000: c88c 503f 8c05 1c3f e094 8e3d fbff 083e
00000010: 8b4c 013f ce1b 4e3f c19b 2b3f bba9 5f3f
00000020: c93d 153f 5cfd 573f c097 d13d 7241 553f
00000030: c641 773e ee67 183f d68e 493f 0ffc 2b3f
0.81464815 0.60945964 0.069619894 0.13378899 0.5050742 0.80511177 0.67034537 0.87368363
0.582974 0.8437097 0.10234022 0.83302987 0.24146184 0.59533584 0.78733575 0.67181486

bn_last.bias f4 [16]
00000000: f447 003f 6350 4d3e 59ce 9ebe 720f 0abf
00000010: d013 373e 4059 e13e 66af 183e 2d07 f63e
00000020: c661 133e f363 f63e c259 21bf 4b02 003f
00000030: 01b2 35bf a268 033e 00f4 da3e e885 263e
0.5010979 0.20050196 -0.31016806 -0.5392982 0.17878652 0.44013405 0.14910659 0.4805235
0.14392766 0.4812313 -0.63027585 0.500035 -0.7097474 0.12832883 0.42764282 0.16262019

bn_last.running_mean f4 [16]
00000000: 5077 a9c0 3b2d e140 c2ad f740 90c0 da40
00000010: b9ac e63f d4e0 02c1 08c7 7640 f0a7 ffc0
00000020: 74dc a940 9cf0 efc0 aebb 2fc1 23f0 dfc0
00000030: 8c33 2bc1 81a4 af40 e9df aec0 3b89 d040
-5.2958145 7.0367713 7.7399607 6.836006 1.8021461 -8.17989 3.855898 -7.98925
5.308161 -7.4981213 -10.98332 -6.9980636 -10.700085 5.488831 -5.464833 6.516752

bn_last.running_var f4 [16]
00000000: 329b b442 7537 1d42 b846 d241 d830 c941
00000010: ed07 2741 b433 8d42 0de3 5642 5cb1 9842
00000020: d7bf 1742 9473 7642 142f 8442 310d 9342
00000030: 56a6 a942 2aa2 3942 f339 1e42 ff35 0a42
90.303116 39.304157 26.28453 25.14885 10.439435 70.60098 53.72173 76.346405
37.937344 61.61287 66.09195 73.525764 84.824875 46.408363 39.55659 34.55273

head.weight f4 [1, 16]
00000000: ab28 ccbe a3b3 9e3e d8bc 4dbc 9631 813c
00000010: 12b4 59be e734 c3be 054b a53e db8f c8be
00000020: 1e3c 883e b5dd cbbe ffd7 793c 2a73 c6be
00000030: 8b67 c0bc c4b5 933e 4fd0 ddbe e025 b33e
-0.39874777 0.30996427 -0.012557231 0.015770715 -0.21260098 -0.381263 0.32283798 -0.39172253
0.26608366 -0.39817587 0.015249251 -0.38759738 -0.023486873 0.28849614 -0.4332299 0.34989834

DW1.pointwise1.weight f4 [64, 16, 1, 1]
00000000: 6f81 e3be 0dae 0a3e 5afe c93d 17a8 b83f
00000010: bf22 d33e b810 813d a005 3ebd a8db a33e
00000020: b0f4 5d3f 1707 88bd 5cc6 7d3e 09eb 8f3e
00000030: edc3 8e3f e545 6c3d eca4 13bf 0db6 b63f
00000040: a8dc 6e3f 1b84 093f 450c 30bd 67a7 1cbf
00000050: 97cb 29bf 15d3 1b40 e298 113f 9ce8 babe
00000060: 67e2 763e 2034 d63f 1e21 a7be 82e1 883f
00000070: 9cff ed3f 219f 3a3f 589e 7abf 07e9 333f
00000080: cdd6 a6be 6555 583e 8e19 133f 2fb7 8b3e
00000090: 2465 5bbe ec67 003e 3f4a 5f3e e895 8d3e
000000a0: 4c9e 72bd 2a9b b23d f447 e13c 288e 5abe
000000b0: 2159 d33e 3e66 39bf fae0 efbd 043f 9a3f
000000c0: c239 24be e2d9 5bbf 0c12 a3bf 1956 9abf
000000d0: decb 65be 0029 0e3f 821a 0dbf 9e90 273f
000000e0: 145e c1be afcd a8be 1630 8abf 7483 41bf
000000f0: 0897 373e fbea ddbe 5672 933e ad63 1dbf
00000100: 7ee2 833f 3181 373f 0532 8dbe ae13 38bd
00000110: 764a e9bd 8f62 1f40 882d cd3e 07e2 91bf
00000120: 8f06 00bf 499f b03f ab2b 1abe aba3 4a3f
00000130: 2bf4 ca3f 463b 623f 377b 90bf e282 093f
00000140: 9288 b4be e2da ccbd d593 6e3e e168 41be
00000150: d59d b6be 5802 553c 447d 8e3e 7d6e 2bbe
00000160: 799f cebe f576 073e 0be5 e5be ed3b 3bbf
00000170: f14b b23e d23d a63d 4946 bd3b 9c28 f33e
00000180: 9db7 aebf b9ef 87be 3d99 19c0 ebed 9ebe
00000190: 70d1 503f 8469 1440 16eb 0ac0 fa4b 403f
000001a0: 3d16 22bd 9926 69bf 06a0 9a3e 7a53 1ebf
000001b0: 8d92 043f b770 ffbe 9cd3 a43f f27b 353e
000001c0: 016d 423e 937d 3e3e 4b48 2d3f 0ac5 31bd
000001d0: 55ca 473e 5eb9 0b3e 4ea5 983d bf6f af3d
000001e0: c244 883e 57aa ee3d 374b e93d 143a f63d
000001f0: b0a1 bf3e 7d78 963d eb4c 0f3e 5528 4f3e
00000200: 7fc7 3c3f 48af 303e e3d7 96be d0c8 78bf
00000210: 0a4a 39bf 54df d83f 47b2 a1be e395 8f3e
00000220: 243f 03bf 6a9e 8a3f 01d2 f5bb 7f73 ab3f
00000230: 535a c03f 0a52 df3f d4ef 33bf 4d7a 1d3f
00000240: 3155 9fbf f5af 23c0 fdee e93d c51a 073f
00000250: 8291 debe 52f6 083e 1b98 6b3e 6d6e c9bd
00000260: 77c9 95be 7997 623e a515 79bd 64fb a23f
00000270: 4199 30be 46ae 7fbe c83d 1fbf 4c78 e6bf
00000280: fe4b f83d 7b77 3fbf dc15 d2be 01a8 61bd
00000290: 3dca abbd 3903 0ebf 513b 09be 5d8e 9dbe
000002a0: e5a1 4fbe 3ac4 b7be df4f f4be 9ffa 06bf
000002b0: fd2f e03d 2ba2 913e 6fd1 9a3e e3b4 0bbf
000002c0: 0652 11be 155b 683f 8b6f c23e 1c73 9dbe
000002d0: aa07 6dbe efaf 8fbe 4708 a53d d0fd bb3d
000002e0: 9229 0abf cfad 9e3e a5bf 0a3e 5dcd 623e
000002f0: 31f3 e5be 5ea7 403e 465b cb3b 0ab0 6f3e
00000300: ce9e 983f 532d 8cbf acdf 15bf 2f52 cdbe
00000310: fa0b 8bbd 74cb 1abf 8062 5fbe b124 ee3e
00000320: 8b10 23bd 10b4 2c3f e8b6 f63a cbcb 083f
00000330: cb65 3dbc 4230 98bf 83f1 3d40 74dc cdbf
00000340: 0458 cbbf d6e4 0d3f 5d1c 753e cd2f b53e
00000350: 57e1 34bf f853 c6bf 7118 67bf 8124 b2be
00000360: c364 9d3f 858b afbf 9a4e 0a40 1a89 923f
00000370: 5544 3dbf 3929 a9bf 7a95 cfbe 5962 b7be
00000380: 08d0 9c3b 6bbb 893f f3b6 6c3f 8466 28bc
00000390: 02b7 a33e 8217 8fbd 2e7d b3be 49f4 62bd
000003a0: b14b 113d 6849 673d f131 d83e 6d3f 273e
000003b0: 5341 83be 5c9e c0be 4c9f 8b3e c72b 193f
000003c0: 3d90 de3d 1b98 7dbf 20ce ecbd c919 67be
000003d0: 51fd d0be 7b39 11bf 28d4 58be 1a40 85be
000003e0: 373b 84bb b8d8 913d dff9 b5be 92d7 15bf
000003f0: dbce 4dbd 8904 243f 5814 b1bd e38c 54bf
-0.44434687 0.13542958 0.09862967 1.4426297 0.41237447 0.06302017 -0.046392083 0.32003522
0.8670149 -0.06641977 0.247827 0.28109005 1.1153542 0.057683844 -0.57673526 1.4274307
0.93305445 0.537172 -0.04298045 -0.61192936 -0.6632628 2.4347584 0.56873906 -0.36505592
0.24109803 1.6734657 -0.32642454 1.069382 1.8593631 0.7289906 -0.97897863 0.70277447
-0.32585755 0.21126325 0.5746087 0.27288195 -0.21425301 0.12539643 0.21805666 0.27653432
-0.059232995 0.087210014 0.02750013 -0.21343291 0.41278937 -0.72421634 -0.11712833 1.2050481
-0.16037658 -0.8587934 -1.2739882 -1.2057525 -0.2244105 0.5553131 -0.5511857 0.65455043
-0.37767088 -0.32969424 -1.0795925 -0.75591207 0.17928708 -0.43343338 0.2879817 -0.6148022
1.0303495 0.71681505 -0.27577224 -0.044940643 -0.113911554 2.4903905 0.400738 -1.1397103
-0.5001001 1.379861 -0.1505572 0.7915599 1.5855764 0.88371694 -1.1287602 0.53715336
-0.35260445 -0.10002686 0.23298581 -0.18887664 -0.3566729 0.013001047 0.27829945 -0.16741367
-0.40356043 0.13228972 -0.44901308 -0.73138314 0.34823564 0.0811726 0.005776201 0.4749192
-1.3649784 -0.2655008 -2.399978 -0.31040892 0.81569576 2.3189402 -2.1705985 0.7511593
-0.03957199 -0.9107452 0.30200213 -0.61846125 0.5178612 -0.49890682 1.2877078 0.17723063
0.18986894 0.1860259 0.67688435 -0.0434008 0.19510777 0.1364493 0.07453404 0.08566236
0.26614958 0.116535835 0.11391299 0.12022796 0.37428045 0.073472 0.13994186 0.20230229
0.73741907 0.17254364 -0.29461583 -0.97181416 -0.723786 1.6943154 -0.31581327 0.28044042
-0.5126822 1.0829594 -0.007501841 1.3394622 1.5027565 1.7446911 -0.70287824 0.6151474
-1.2447873 -2.5576146 0.114225365 0.5277522 -0.4347039 0.13375214 0.23007242 -0.09835515
-0.29255268 0.22128095 -0.060811657 1.2732968 -0.17245962 -0.24968824 -0.62203646 -1.8005462
0.12123869 -0.7479169 -0.41032302 -0.05509186 -0.08388183 -0.5547367 -0.13401534 -0.30772677
-0.20276602 -0.35891896 -0.47717187 -0.5272617 0.10946653 0.28444037 0.3023791 -0.54572886
-0.14191446 0.9076398 0.37975726 -0.30751884 -0.23147455 -0.28063914 0.080582194 0.0917927
-0.5396968 0.3099198 0.13549669 0.22148652 -0.44912103 0.18813846 0.006205949 0.23406997
1.1923463 -1.0951332 -0.5854442 -0.40101764 -0.06789394 -0.60466695 -0.21814919 0.46512368
-0.0398107 0.67462254 0.0018822821 0.53435963 -0.011559914 -1.1889727 2.9678657 -1.6082902
-1.5886235 0.554273 0.23936601 0.35388032 -0.7065634 -1.5494375 -0.9027167 -0.34793475
1.2296375 -1.3714453 2.1610475 1.144809 -0.7393239 -1.3215705 -0.4054373 -0.3581722
0.0047855414 1.076032 0.9246666 -0.010278348 0.3197556 -0.06986906 -0.35056442 -0.05540875
0.035472576 0.05646649 0.42225602 0.16332789 -0.25635776 -0.3762082 0.2726997 0.59832424
0.10867355 -0.9906022 -0.11562753 -0.2256843 -0.40818265 -0.56728333 -0.21174681 -0.26025468
-0.0040353793 0.07121414 -0.355422 -0.5853206 -0.0502461 0.6406942 -0.086464584 -0.83027476

DW1.depthwise.weight f4 [64, 1, 3, 3]
00000000: ade5 003f be55 a7be 7eb2 60bf 85e4 d23f
00000010: 0233 3ebf 8f2a febe e875 243f b0fe 67bd
00000020: 8e6a 4fbf c43b d2bf 6599 dcbf 9a21 5fbf
00000030: 9bc4 4f3f 58dd 633e 7754 093f 1403 cd3c
00000040: b6fb 0fbd 14d7 fd3f dbec 943d 58d0 873e
00000050: 783f 8ebe 260f 5b3f a7f8 2f3f 4ded a9be
00000060: c24b c03e 5b3c 043f d8ce c0be bf34 1dbe
00000070: ea4c cb3d 8865 0abd 572d e53e a811 843d
00000080: b44c 3040 f983 fa3f 7218 ac3f 91aa 0d40
00000090: 7cb5 b0bf a841 97bf 887a 32bf 1e1c 8e3f
000000a0: d75f 2e3f 5e76 c13e 7caf 12bf e642 bdbe
000000b0: 4f03 c63f b63a 00be 12be 19bf 14a4 c7be
000000c0: 31c5 80bc acfa ddbe 247e 1fbf a08c b0bd
000000d0: 52cb 80be 6747 3fbf 4c7e 8bbf e129 623f
000000e0: 8e51 0a3f a63d 993f 4d76 cdbe bbeb 25be
000000f0: baba ffbf cb13 92bf b4f0 62bf 468a b63b
00000100: 7779 acbd 36e0 7bbe 739c 81be 35ab a4bd
00000110: 9585 bbbe 3fc5 e1be a004 eabe 2a68 713d
00000120: 5fe5 05bf 963e a2bf 1ccd 8dbf 0ea8 163f
00000130: 043e 09bf 5178 8c3f 94ba b1be 4ce3 4abe
00000140: b0cb 0640 cd22 703c 9d85 b8bf ba51 25bf
00000150: 94f6 893f 9a2c 143e 49a9 8ebf e4d4 da3f
00000160: 8c1f 81bf 4589 82be 1e55 d3be ebb0 f7be
00000170: 7128 9cbe 57bf 443d 8f81 91be 0be6 a3be
00000180: d3b2 91bd 5376 49be 425c 493d e605 a6bd
00000190: 671e 1d3c aa98 20bf caea fbbe 4cf0 05bf
000001a0: ad66 febe 277e cabd 46ea d5be 3a15 fcbe
000001b0: b640 f9be 5316 e8be 9efc c63f f0d3 8b3e
000001c0: e89a a1bf 2bcc a23e 0be8 77bf a97c c9be
000001d0: c34a 16bf 7fb0 6abf 0852 733e 7eba 8ebf
000001e0: a1da 913f ec29 7f3f 8a55 0140 6143 0f3b
000001f0: 3466 b13f 453a 12bf b85d adbc 57d1 04be
00000200: 4bc1 f5bd 1fb3 36bf aa0c 52bf 0609 2ebf
00000210: 095f a4bd ce41 acbe 3802 61be ffe5 15bf
00000220: 1cd9 1abe 0ae6 5fbe 9105 febd 2fdc 4c3d
00000230: 0d2c 7539 c849 e6bd b4ab d23c f57c 8abe
00000240: d2c4 613d 4adf b9be c555 a2be 1cb1 833f
00000250: 268b c83d bb18 f83d 1a49 e73e 24c5 943e
00000260: 09fe 053f c5fa 91bf 00b3 f03f e423 35bf
00000270: 9e22 21bf 09aa c53d a0d6 f9bd 92fa 81bf
00000280: d188 21bf 7695 bc3f 6b1a 35bf f61f 62bd
00000290: 0839 92be 89e5 00bf 4cff 81bd 56af 01be
000002a0: 67bf d6bd 6716 093c bd78 c5be 9ace 3a3f
000002b0: 143e 333f e777 2e3f 7ef7 a73e 3fbc d13e
000002c0: a9b0 043f e38a 243e 79d3 d33d cac2 5dbe
000002d0: a10c 56be 5d97 5abf 5ee1 62bf 4d87 723d
000002e0: 4b49 e1bd f850 88bf b144 ddbe f7e1 c93e
000002f0: 024d 9bbf 1bc3 a13f 547f a5be 826d 89bf
00000300: e3cd a0bf d2b4 43be c394 3b3f 9fc9 983f
00000310: 5386 f43e 4ae0 0840 fe71 c83d f584 f9be
00000320: e621 bdbd 9ac3 ed3d 0432 be3f 214d 18bf
00000330: a043 adbf c614 b2bf 290d e33f eb56 a9be
00000340: dbaf e43e 5043 8b3f e07d c03d dbd6 953e
00000350: 9ce1 513e cc91 cabd cba6 e83e 1ab9 d8bd
00000360: e52b 00bd 190f 70be aab3 9bbe 34d2 92be
00000370: 041a 21bf e9b4 92bd 9da8 24bf 39d5 d4bd
00000380: 4319 d9bd 3cd3 fd3f cbb2 8ebf 8627 e93e
00000390: 4e39 26bf 7188 0f3f dd70 37bc 63e2 12bf
000003a0: 9089 933f 7884 98bf 5a25 8a3f b40e 9dbf
000003b0: 67b6 ebbe e51d 313f 0a00 0340 914e 023f
000003c0: 2b44 e6be e67c 3c3f bd81 4dbf 939f 1a3f
000003d0: 2b6a 4ebf 6d63 1ebe 4681 2d3f 028f 883f
000003e0: b7d5 abbf 63a7 ecbe b8ab 4dbe c300 fe3f
000003f0: 03ac 12be 73a9 b2be 0f90 2abf 4b58 953e
0.5035046 -0.32682604 -0.8777236 1.6475989 -0.7429658 -0.49641845 0.6424241 -0.056639373
-0.81021965 -1.6424489 -1.7234312 -0.87160647 0.8115937 0.22252405 0.5364451 0.025025882
-0.03515216 1.9831262 0.07271739 0.2652614 -0.27782798 0.8556999 0.6873879 -0.3318886
0.375578 0.51654595 -0.3765781 -0.15352152 0.099267796 -0.033788234 0.44761154 0.0644868
2.7546816 1.9571525 1.344496 2.2135355 -1.3805385 -1.1816912 -0.6971822 1.1102331
0.6811499 0.3778562 -0.5729902 -0.36965102 1.546976 -0.12522396 -0.6005565 -0.3899237
-0.015719028 -0.4335531 -0.6230185 -0.08620572 -0.2515512 -0.74718326 -1.0897918 0.8834515
0.5403069 1.1971939 -0.4012932 -0.16203205 -1.997886 -1.141229 -0.88648534 0.0055706827
-0.08421605 -0.24597248 -0.25314674 -0.08040468 -0.36625353 -0.440958 -0.45706654 0.05893723
-0.5230312 -1.267535 -1.107822 0.5885018 -0.53610253 1.0974218 -0.3471266 -0.1981327
2.106182 0.014656735 -1.4415776 -0.6457783 1.0778375 0.14470139 -1.1145412 1.7096219
-1.0087752 -0.25495353 -0.41275877 -0.48377165 -0.30499604 0.04803404 -0.28419158 -0.32011446
-0.07114186 -0.19674043 0.04916025 -0.08106594 0.009589768 -0.62732947 -0.49202567 -0.5231979
-0.4968771 -0.09887343 -0.417803 -0.49234945 -0.48682183 -0.45329532 1.5545843 0.27310133
-1.2625399 0.31796393 -0.96838444 -0.3935292 -0.5870783 -0.9167556 0.23761761 -1.1150663
1.1394845 0.9967334 2.020846 0.002186023 1.3859315 -0.5712016 -0.021162853 -0.12970482
-0.11999758 -0.7136707 -0.82050574 -0.6798252 -0.08025939 -0.33643955 -0.21973503 -0.5855407
-0.15121883 -0.21865097 -0.124034055 0.05001467 0.00023381431 -0.112445414 0.02571664 -0.2704846
0.055119343 -0.3630317 -0.31706062 1.0288424 0.097921655 0.12114092 0.4517296 0.29056656
0.5234075 -1.1404654 1.8804626 -0.7075789 -0.62943447 0.09651572 -0.121991396 -1.0154593
-0.6309939 1.4733112 -0.70743436 -0.05520626 -0.28559136 -0.5035024 -0.06347522 -0.12664542
-0.10485726 0.008367158 -0.38568678 0.729715 0.700166 0.68151706 0.3280601 0.40963933
0.5183206 0.16068606 0.103430696 -0.21656337 -0.20903255 -0.8538721 -0.88625133 0.059211064
-0.11000308 -1.064971 -0.4321647 0.3943021 -1.2132876 1.2637666 -0.32323706 -1.0736544
-1.2562832 -0.19111946 0.7327387 1.193653 0.4775873 2.1386895 0.09787367 -0.4873425
-0.09234981 0.11609574 1.4859014 -0.5949269 -1.3536263 -1.391259 1.7738391 -0.33074126
0.44665417 1.0879917 0.09399009 0.29265484 0.2049622 -0.0989109 0.45439753 -0.1058218
-0.03129186 -0.2344326 -0.3041051 -0.28675997 -0.6293032 -0.07163412 -0.64319783 -0.103922315
-0.106005214 1.9830089 -1.1148313 0.45537966 -0.6493119 0.5606757 -0.011196342 -0.5737669
1.1526356 -1.1915426 1.0792649 -1.2270112 -0.460376 0.6918624 2.0468774 0.5090113
-0.44973883 0.7362808 -0.8027609 0.6039974 -0.8063075 -0.15467615 0.6777538 1.0668643
-1.3424596 -0.46221456 -0.20085037 1.9843982 -0.1432343 -0.34894904 -0.66626066 0.29168925

DW1.pointwise2.weight f4 [24, 64, 1, 1]
00000000: ce36 9a3e 519d da3f a32d 0f3f b79f 383f
00000010: 1652 633f 3e49 8bbd 298c c63f 37a5 84be
00000020: 57b3 5d3f 211d f2bf 22b9 7b3e 9791 703d
00000030: c0b7 293f 9990 68bd c0f4 8bbe 453a dc3d
00000040: f31f d7bd 80fe 95bf e623 b83e 13d7 a63d
00000050: 0dc0 1abe 5bfd 743f e8a0 07be a117 f43d
00000060: 354a b93e e27e 943f 1247 873f d2b5 363f
00000070: d9d7 00bf 258e d4bd ad78 a93e 19dc 963f
00000080: 805b c6be 9379 6e3f bba4 363f 8e4d 8f3f
00000090: 2efb 7d3d 1c16 00be 2f0f 0b3e c8e2 823e
000000a0: e37a 8a3f 33e0 18be 020f 093f 190b 9f3f
000000b0: d380 b53e d5d8 3340 f30a 273f a6ea 933f
000000c0: da3a e0bd 4456 56be d406 873e 30b9 0e3f
000000d0: 296e 87be c14d 9e3f cf2e f7be 953a bc3e
000000e0: ea77 0b3e d1a0 e6bd 6ef1 26be a4d5 1b3e
000000f0: 625a bf3f 3974 11bd abbc 473d 865e b53e
00000100: 4470 083e da37 86bf c4ab 073e 928a cfbf
00000110: 41b0 a1bf 7e2d 453e b4ae c9bf d51e 433d
00000120: ec88 c1bf da6e b13f e031 3f3c 578d afbe
00000130: fdfb 9fbf 3f78 2a3f 47db 86be 66a5 e1be
00000140: e74f 89bf 190f cc3c 36aa 40be 8195 b4be
00000150: 2a42 133d b530 cf3e a983 e1be a038 44be
00000160: 1b7d debd 436d 8b3f 0773 62bf 81b8 fd3e
00000170: 7534 85bf e68f c2be 014b 46be 1e04 a1bf
00000180: 0853 813f 2bed 22bf e7b0 db3f 4166 413e
00000190: ea35 af3d 7604 ad3e 6def 07be a60a 183f
000001a0: 0aff e53e 0420 31bf c10b 8cbf 9b64 bbbe
000001b0: 41b2 f93e 291e 113f 81f9 72bf 08c5 f7bf
000001c0: da02 7dbe bc89 553e 8a35 193f 4da6 4a3e
000001d0: 9948 503f be0b f03d e394 2740 55fb 3f3e
000001e0: 8037 75be b068 f0bd e4cb 13bf bdb5 a3bd
000001f0: 7efa 47bf 6d3c bbbe ce75 7cbe 39cd 963e
00000200: d2f3 cbbd 6cb3 a23f de4d 6f3e ad80 80bf
00000210: 0b4c a73f 5912 a8be af9c 843f a68d 88bd
00000220: 961f c43e d359 cdbe 417d 033e d913 fd3d
00000230: f6cc 0e3f d4e5 4b3f 77d4 55be 2ae9 7e3d
00000240: ef13 e7be 2a5e 7a3f f5c3 953e d697 d43d
00000250: e79a 3d3e def8 b93f 57fd 0d40 df6c f5bd
00000260: 5b0e 3fbb 838b d6bf a21a e73f f14b 8e3f
00000270: 9f48 0440 1d43 833d 1013 31be d959 d2be
00000280: f453 b7bf 4080 60bf 628d c83f 41aa 7abe
00000290: bbea 97bd 2543 77bf 1cc3 cfbc b719 a6be
000002a0: 4181 a03f 07a1 663e f389 79bf bc8c 8a3f
000002b0: d4f2 4c3f 9fdf 1640 4fba 84be bfb7 0bbf
000002c0: a234 a1be 1c57 9f3e 00ee 3ebf 171b 763e
000002d0: 7109 9cbf 6589 f73f f675 d23f 1378 ac3e
000002e0: 586d c53d aa5b b3bc d87f 16bf cbf2 113e
000002f0: ce1d c63e 782f a5bf 3ea7 2ebe 7307 dd3e
00000300: 6aae 6e3d 9fb0 d3be 0047 32be 9150 a23e
00000310: 7b03 80bf d814 583e a012 293f 545f fc3d
00000320: bea9 fdbe 3d7f 9a3f c467 223e f519 c9bd
00000330: 78a9 96be 2109 65be 681a aabd a78b 803d
00000340: c1fd 28bd ea8a a9be 4055 a1bb e41a e4bd
00000350: 97b3 493e 1ee1 e63d fdca 563f b2c6 083f
00000360: 9dcb fe3e b14f f03f f810 82be baf3 1b3f
00000370: 4317 6e3f f37c da3d fa4c 0c3e ee28 8d3e
00000380: ae78 9e3d aca8 af3e cae7 f9be f8a8 893e
00000390: 61b7 5d3e 9c53 b23e 4b4c d23c 26ad 31be
000003a0: b937 833f 42ab 08bd 811c 0c3f 10b1 a5bf
000003b0: c5fc 393e fe23 b43f 2230 103e 926d 273f
000003c0: 2d5c b13e 6b6b 833c 3aba 623f 890e a53f
000003d0: 98d7 753e 2539 59bf 8dd7 b33f eec0 8bbd
000003e0: 7f3e 113e 6a5e a33c 7241 813e 0365 613e
000003f0: 2233 e73d a6a8 803e 728a b33d 6c30 9a3e
0.30119938 1.7079259 0.5592901 0.72118706 0.8879713 -0.06801079 1.5511523 -0.259073
0.86601776 -1.891514 0.24582341 0.058732595 0.66296005 -0.056778524 -0.27335167 0.107533015
-0.10504141 -1.1718292 0.35964888 0.08146491 -0.15112324 0.9569909 -0.13244975 0.11918569
0.36189428 1.1601222 1.0568564 0.71371186 -0.5032936 -0.103786744 0.3309988 1.1785918
-0.38741684 0.9315426 0.7134511 1.1195543 0.06200712 -0.12508434 0.13580011 0.25563645
1.0818752 -0.14929275 0.53538525 1.2425262 0.35449848 2.8101094 0.6525108 1.1555984
-0.10948725 -0.20931345 0.26372397 0.55751324 -0.26451233 1.2367479 -0.482779 0.36763445
0.13619962 -0.11261142 -0.16303036 0.15218216 1.4949458 -0.03551123 0.048763912 0.35423678
0.13324076 -1.0485795 0.13249117 -1.6214163 -1.2631913 0.19255635 -1.575644 0.047636826
-1.511991 1.3861954 0.011669606 -0.3428752 -1.2498776 0.6658973 -0.2633917 -0.44071501
-1.0727509 0.024909543 -0.1881493 -0.35270312 0.03595177 0.40466848 -0.4404576 -0.19162226
-0.10863706 1.0892719 -0.8845677 0.49554828 -1.0406634 -0.3800041 -0.19364549 -1.2579381
1.0103464 -0.6364314 1.7163361 0.18886663 0.08555205 0.33792466 -0.13274927 0.5939125
0.44921142 -0.69189477 -1.0941087 -0.36600193 0.4876881 0.56686646 -0.9491196 -1.9357004
-0.24708119 0.20853323 0.5984732 0.19790001 0.81360775 0.1172099 2.6184623 0.1874822
-0.23946953 -0.117387176 -0.5773299 -0.07993648 -0.78116596 -0.3656954 -0.24654314 0.29453447
-0.099586144 1.2711005 0.23369548 -1.0039269 1.3070081 -0.32826498 1.0360316 -0.06667642
0.38305348 -0.40107593 0.1284075 0.12357301 0.55781496 0.79647565 -0.2088183 0.06223408
-0.45132396 0.9779993 0.29251066 0.10380523 0.18516122 1.4529073 2.2185876 -0.11983656
-0.0029152844 -1.6761326 1.8055003 1.1116925 2.0669324 0.06409285 -0.17292428 -0.41084173
-1.4322495 -0.87695694 1.5668147 -0.24479009 -0.07417818 -0.9658683 -0.02536159 -0.32441494
1.2539445 0.22522365 -0.9747612 1.0824199 0.80058026 2.3573987 -0.25923392 -0.5457725
-0.31485468 0.31121147 -0.7458191 0.24033771 -1.2190381 1.9338804 1.6442249 0.3368536
0.09639996 -0.021894295 -0.58788824 0.14252774 0.38694614 -1.2905111 -0.17055985 0.43169746
0.058271803 -0.4134569 -0.17409897 0.31702092 -1.0001062 0.21101701 0.66044044 0.1232287
-0.49543566 1.207008 0.15859896 -0.09819404 -0.2942617 -0.22366764 -0.08305818 0.062766366
-0.041257624 -0.33113796 -0.0049234927 -0.111379415 0.19697414 0.112734064 0.83903486 0.53428185
0.4976472 1.877432 -0.2540357 0.6091877 0.93004245 0.106683634 0.13701239 0.2757029
0.077378616 0.34308374 -0.48809654 0.26886725 0.21651985 0.34829414 0.025671145 -0.17351207
1.025138 -0.03336645 0.54730994 -1.294466 0.1816283 1.4073484 0.14080861 0.65401566
0.34640637 0.016042432 0.8856541 1.2895061 0.24008024 -0.8485282 1.4050156 -0.06823908
0.14183997 0.019942481 0.25245243 0.22011189 0.1128905 0.2512867 0.08766641 0.30115068

DW1.bn1.weight f4 [64]
00000000: 73c3 273f eeac ad3f d9d9 303f fabb c13f
00000010: dbdf a63f 16a6 b63f ab7b e93f 9251 623f
00000020: fc92 913f 54c9 db3f 95f7 b03e 8d6e 753f
00000030: a679 903f 1018 4940 2c1e 063f e32e b23f
00000040: 6073 b33e b17e 20bf 4a3e 9b3f 6b39 be3f
00000050: cbec 833f 1482 463f 298b e03f cf71 883f
00000060: 334d 9f3f 5e09 e83e 3aad ec3f 1e68 233f
00000070: 44a5 5b3f fad2 b73e f978 bd3f 9219 753f
00000080: ff03 d93f ad53 be3f 33bd 0d40 252e 2740
00000090: 9d54 b53f 6abb a33f 1195 6a3f e988 323e
000000a0: 1147 c63f 365e d83f 0335 7a3f 8af0 a13f
000000b0: 3c62 9140 c0cc bd3f e2bc 0340 492c 4d40
000000c0: dc76 b63f 2c90 a53f ec6d 583d cf73 983f
000000d0: 3d80 0b40 53af 8e3f 4b18 b43f 678b 84be
000000e0: d9e1 d13f f7d9 3e3f 7e81 893e f17f b23f
000000f0: 7bbf 2e3f 5e8c 2e40 a79b 8c3f e666 f63f
0.65532607 1.3568399 0.6908241 1.5135491 1.3037065 1.4269435 1.8240865 0.88405716
1.1372981 1.7170815 0.3456389 0.9587181 1.1287124 3.1420937 0.5238979 1.3920559
0.35048962 -0.62693316 1.2128384 1.4861273 1.0306638 0.77542233 1.7542468 1.0659732
1.2445434 0.45319647 1.8490365 0.63830745 0.8579905 0.3590315 1.4802543 0.9574214
1.6954345 1.4869286 2.2146728 2.6121914 1.4166447 1.2791569 0.9163371 0.1743504
1.5490438 1.6903751 0.9773714 1.2651532 4.5432415 1.482811 2.0584035 3.205828
1.4255023 1.2934623 0.052839205 1.1910342 2.179702 1.1147255 1.4069914 -0.25887606
1.6397048 0.7455134 0.26856607 1.3945295 0.68260926 2.7273173 1.0985001 1.9250152

DW1.bn1.bias f4 [64]
00000000: 4792 41bf 4098 44bf 40ef 0f3f ef29 55be
00000010: 3f89 12bf e697 653b 5ed2 16bf 31e7 92be
00000020: 5b66 3abf 9554 b6be cb30 26bf 25d5 babe
00000030: 36da 8abf b9eb 4f3e eef5 0b3f 733b 7e3b
00000040: 8f59 62bf b20f b43f 8dc2 9fbc 9b7d 9f3e
00000050: f71d 643f be0e 64bf 4ae4 55bf 22a9 a4be
00000060: 58b1 8c3c 9e5d c8bf 353b 15bf ce97 8ebf
00000070: 0002 c7bf 192a 45bf d52e 723e 2c93 57bf
00000080: 2a63 2abf 5f10 af3e 401a a8be 6a6d d1bc
00000090: 5de1 f43d 1c9b b53e 08d7 873e 85c3 aebf
000000a0: bbd3 b33e 115a 0fbf a391 98bf 4f7d 2abf
000000b0: e805 263e 9208 6bbf 3126 eb3e 4b84 56be
000000c0: b093 8a3d 0cbf 8a3d ec73 b1bf 0887 75bf
000000d0: 0440 413e 4d29 5cbf ee14 15bf fd31 8ebf
000000e0: 3ac7 77bd 1012 c5be c3b2 8cbf b9db 1cbe
000000f0: 8be7 c53f b270 9bbe 4b1c 173e d379 813d
-0.75613827 -0.76794815 0.5622444 -0.20816778 -0.5724067 0.0035033165 -0.58914745 -0.2869201
-0.7281243 -0.35611406 -0.649182 -0.3649074 -1.0847843 0.20304765 0.54672134 0.0038792759
-0.88417906 1.406729 -0.019501949 0.31150517 0.8910822 -0.89084995 -0.83551466 -0.32160288
0.017174408 -1.565357 -0.5829347 -1.1140077 -1.5547485 -0.7701736 0.23650678 -0.8420894
-0.6655756 0.34192178 -0.32832527 -0.025564868 0.11957047 0.35469902 0.26531243 -1.3653418
0.35122475 -0.55996805 -1.1919445 -0.66597456 0.1621319 -0.9180995 0.45927575 -0.20948903
0.067664504 0.067747205 -1.3863502 -0.95909166 0.18872076 -0.8600052 -0.5823506 -1.1109005
-0.06049273 -0.38490343 -1.0992054 -0.15318193 1.5461286 -0.30359417 0.14756887 0.06322064

DW1.bn1.running_mean f4 [64]
00000000: c4ad 823f 1c4c 8140 097e 19bf 3f4b 0cc0
00000010: 4379 8640 49d1 36bf 3800 6cbf 2e73 583f
00000020: 81dd 9f40 1356 12c0 9e3c 49bf f833 733e
00000030: 2bb2 79bf 3f80 fcbf 5c0f 873e e293 c5be
00000040: a70f 23be dee8 633f 14a8 68be 87ee 7fbf
00000050: 74ca 853e 4164 cc3f 82c4 b540 0d3c 28bd
00000060: c53c 1fbe ddfe d23f c5fc 273e eb53 8340
00000070: 6d93 a3bf 2a83 d2bc 3b51 343e d870 2340
00000080: 33f7 0841 6bc8 92c0 4a74 99be 7045 f13f
00000090: f3f0 e03e 0c47 59be 193b fa3e 683d 163f
000000a0: 585b 68c0 e0de bf3f 61a9 b53e ff9e 5e40
000000b0: 9bf0 25c0 921d a7c0 26d4 ccbf 2c38 cabf
000000c0: f511 913c 00bd c4be a515 0a3f 8d18 4340
000000d0: 5b84 263f 0555 b140 51f2 87c0 02d8 42bf
000000e0: cc16 06be cef0 283d 8618 8bbe 873a 61be
000000f0: 0929 bac0 8565 a6bf a574 13c0 e4f3 2d3e
1.0209279 4.0405407 -0.5995794 -2.1920927 4.2023025 -0.71413094 -0.92187834 0.8455075
4.995789 -2.2865036 -0.7860812 0.23750293 -0.9753749 -1.9726638 0.26378906 -0.38589388
-0.1592394 0.890272 -0.22720367 -0.9997334 0.26131022 1.5968095 5.680238 -0.041072894
-0.15550525 1.6484028 0.16405018 4.103994 -1.2779366 -0.02569731 0.17609112 2.5537624
8.560351 -4.586965 -0.29971534 1.8849316 0.4393383 -0.21218508 0.48873213 0.5868745
-3.6305752 1.4989891 0.35480788 3.4784544 -2.5928104 -5.2223597 -1.6002243 -1.5798392
0.017708758 -0.38425446 0.53939277 3.0483735 0.6504571 5.5416284 -4.2483296 -0.7611085
-0.13094634 0.041245274 -0.27167147 -0.21994983 -5.817509 -1.2999731 -2.3039944 0.16987568

DW1.bn1.running_var f4 [64]
00000000: f048 9340 05ec 5041 c4cd 7240 6a92 0a41
00000010: 7354 1041 6ba2 ec3f 2de4 5741 101e 4c3f
00000020: df7e ab40 3aa5 0741 0137 5b40 0349 f03f
00000030: 515a a240 34d3 fe40 a2c4 5a40 ad4a b840
00000040: ddde e940 f4df 7a41 ef82 5b3f fb27 5d40
00000050: 3a60 7240 fdaa b040 4fb1 b940 d9ab 4040
00000060: 9fdd 5c3f 99ed 3740 594f 8a41 8094 8c40
00000070: b3c7 c141 ac73 6840 7283 de40 fa1f d340
00000080: 39e7 4d41 57f5 8e41 152a 5c41 a86c 9341
00000090: a98d e340 420d 1141 7fd3 8c3e 4f1d 0141
000000a0: 3f5f 9340 3efe 0140 2b8a 8641 a230 2041
000000b0: 4153 5141 9bef 8d40 3184 c240 6674 4c41
000000c0: 082b 2140 a54d c73e e351 7f40 2111 5e40
000000d0: 8e57 d540 9adb 9840 114c b240 7993 af3f
000000e0: fb61 6340 91c9 3e3f 452c db40 82f1 2040
000000f0: 6290 7241 e84f 6140 6364 8240 5454 ae3f
4.6026535 13.057622 3.793809 8.660746 9.0206175 1.8487066 13.493207 0.7973337
5.359237 8.4778385 3.4252322 1.8772281 5.073525 7.9632816 3.4182515 5.7591157
7.308455 15.679676 0.85746664 3.4555652 3.7871232 5.5208726 5.802894 3.0104887
0.86275667 2.8738768 17.288744 4.3931274 24.22251 3.63206 6.9535456 6.5976534
12.868951 17.869795 13.760274 18.428055 7.1110425 9.065737 0.2750511 8.069655
4.6053767 2.0311427 16.817465 10.011873 13.082826 4.4354987 6.0786366 12.778418
2.5182514 0.38926426 3.989373 3.4697955 6.666938 4.776807 5.5717854 1.371688
3.5528553 0.74526316 6.849154 2.5147405 15.16025 3.520502 4.074754 1.3619485
