python/model_pth/huattn/hu_nobn_attn_net_best.pth (torch, 12693 bytes, 17 tensors)

attn.0.weight f4 [7]
00000000: c45d a23f 3cce c23f 2c06 763f a681 873f
00000010: 03c0 783e fda6 c83d 0c6a 2c3f
1.2684865 1.5219188 0.9610317 1.058644 0.24291997 0.097974755 0.67349315

attn.0.bias f4 [7]
00000000: e018 07bf 373b d6be 23c2 16bf 072e 8a3e
00000010: 2971 81be f609 443e 2f8d 2bbe
-0.5277233 -0.41842052 -0.5888998 0.2698824 -0.25281647 0.19144425 -0.16753076

attn.0.running_mean f4 [7]
00000000: dae2 3e40 8a14 d840 25a7 1a41 b9b7 1d41
00000010: 6cc5 a340 0ca1 9840 9069 933d
2.982596 6.752507 9.665807 9.857354 5.1178493 4.769659 0.07197869

attn.0.running_var f4 [7]
00000000: 76d3 d23c fd6e 803f 308f 223e b75c b53d
00000010: 41ba 9442 a78c 9d42 e005 cb42
0.025735598 1.0033871 0.15874934 0.088555746 74.36378 78.77471 101.511475

attn.1.weight f4 [1, 7]
00000000: 362a 25bf a5f4 58bf 5ddb 62be 8553 d23e
00000010: c143 a0bd 32e3 113c d4ca 4cbe
-0.64517534 -0.847483 -0.22153993 0.41079345 -0.07825423 0.008904265 -0.19999248

attn.4.weight f4 [7, 1]
00000000: 7e7a 14c0 00ef 17c0 b8f0 1cc0 3ee4 19c0
00000010: d766 c8bf 09a9 c3bf e21d 3dbf
-2.3199763 -2.3739624 -2.4521923 -2.4045558 -1.5656384 -1.528596 -0.7387372

bn0.weight f4 [7]
00000000: 3f37 953f 26b2 c63f 2777 883f 1914 603f
00000010: 7e14 503f 6065 533f 595c 4a3f
1.1657485 1.5523117 1.0661362 0.87530667 0.8128127 0.8257656 0.7904716

bn0.bias f4 [7]
00000000: 6642 45be 48f9 a23d fc70 88be c514 dabd
00000010: 1b25 f53c 988a 76bd b07a 46bc
-0.1926361 0.07957703 -0.266487 -0.10648493 0.02992492 -0.060190767 -0.012114212

bn0.running_mean f4 [7]
00000000: 84e3 3e40 d9ff d740 5ca7 1a41 f8b8 1d41
00000010: 60cd a240 f538 9940 a057 9f3d
2.9826365 6.7499814 9.665859 9.857658 5.08757 4.788203 0.07780385

bn0.running_var f4 [7]
00000000: f293 d13c fa2e 803f d2f3 213e b6ce b33d
00000010: 3090 9542 0027 9d42 7d0f cb42
0.025583241 1.0014336 0.15815666 0.08779661 74.78162 78.57617 101.53025

fc1.weight f4 [32, 7]
00000000: 39d9 d13d 4643 a03e 0505 9b3d 99cc b7be
00000010: 9979 b1be e4ba e7be 1435 bd3d ab76 223f
00000020: 4a8f 0dbf 1ce6 a83e c466 1c3e 26f6 f0be
00000030: 2446 0cbe 1f0e 58bd 779d 843e 4689 e2be
00000040: b79d b8be d79c a1be 51b8 413c de37 6f3e
00000050: 980b 7c3e df26 eb3e 64d1 cd3e 5647 06be
00000060: f776 1f3f 50b9 183e bedf 8bbd 455f d23e
00000070: 899a f23e c159 b13e 0665 bb3e 2297 333e
00000080: 9339 20bd 8ad0 b93c 33e4 92bd 6f3b 38bd
00000090: a330 f73d 4fe9 17be 9e5c 2cbe 50e4 19bf
000000a0: 95b8 f5be d9f3 aa3d a07a 36be 8818 dbbe
000000b0: 054b 01be 7017 afbe 99a0 8abe 3b85 833e
000000c0: 3ac2 f6be e6d5 34be 0799 2f3f 89af c03e
000000d0: 711a 41bd 604c b0bd f374 363e 7719 3abe
000000e0: a1a6 113f 02ee 08be bfc7 903e 995c edbd
000000f0: 90f5 1f3f 7d52 e7bd fe68 3ebd 104c 0b3f
00000100: 7571 793e fc5c 303f 2aed e63e a17d a0bc
00000110: 9bf1 89be be65 5bbe d0c0 08bf 7079 25be
00000120: b9c9 c2be a942 1bbe e7ed 643e 78f5 033f
00000130: a3aa 4e3e 8a95 d6bd bb45 91be be6d a43d
00000140: c83a ee3e d084 cb3d d16c dcbe 15f8 56bd
00000150: 551f edbe 9ecf 0abe adb4 80be 1cd3 9ebe
00000160: cd3f 063f efb3 d0bc f58e b03e c797 193e
00000170: 85c5 a43e 774d c2bd bcdc 6c3e bd86 a3be
00000180: 0bfe 61be 5bfc fb3e edbc ab3e e9d9 133f
00000190: b846 d9be 2de5 38be 12e0 77be 863f c1be
000001a0: 17e8 523e d412 963e 79db 1dbf 85b4 00bf
000001b0: 7a07 8c3d 8309 563e 3932 7fbd 4ac7 21be
000001c0: 2250 82bb e901 b63e 39ca 8e3e e927 143e
000001d0: e847 123e 8ee7 b33c 9deb c0be 7f30 38be
000001e0: 94dd dc3e f8ef 7c3e 7444 fe3d 314d b3bc
000001f0: bd9c 01be 1894 afbe a403 28be 0a14 e13e
00000200: 1533 393e 00b1 2b3e 3c10 f7bc 0e63 753e
00000210: 9792 31be 62bb 36be 0b57 d8be 5b1a 0f3e
00000220: 11a4 94be 65e4 1b3e 7277 853e b410 a73d
00000230: fb1b a5be a26b 5cbe b0d2 ecbe 72db 9a3c
00000240: 6b9f 513c 759f 6e3e 0809 88be fcb3 97be
00000250: 8e00 fcbe c810 273f 8c8e 173f 9326 e63d
00000260: 59b6 9d3d 3c98 e33d 92ad 1f3e f277 f63e
00000270: 89a7 433d 7cb4 6ebe 92e8 523e cf37 81be
00000280: 21a2 11be e26c 4abe 1dbb 3ebe 82b8 0d3f
00000290: f8b0 063d d5d9 b43e 96eb 6d3d 9e3e a9bc
000002a0: f673 093e 2549 d1be afee 543e 0f4a 6b3e
000002b0: add3 4c3e 54c4 aa3d 37fb ed3d 5965 9abe
000002c0: ba79 4dbe 5dfd 41be 07ac 81be 7811 94be
000002d0: 202d 0a3e a787 b9be 9548 2a3e bd23 c53e
000002e0: 448b 08bf 1a28 97be fd02 88be 30ee c4be
000002f0: 9091 18be 7d29 29be 4f96 273d 38ae 543e
00000300: 9730 09bf 1a73 2abe c0f4 263f 6874 96bc
00000310: b5ea c2be d3d0 ce3b 9196 2bbe 43f7 f8bd
00000320: e308 f03d 91c9 9dbe d7cd dfbe 3dc8 2abf
00000330: dc0a e8be 3e24 d0bc 8376 a5bd d6d2 a0bd
00000340: 87de b7bd 535a 79be 475d ed3e efe6 c63e
00000350: a72b 47be fdb7 8c3e e0ba 6b3e 5aa8 a3bd
00000360: 87a8 b2bd e4cd f83e 77e3 313e 5946 673d
00000370: b5f3 8dbe 6cef 113f 265b edbc bf26 58be
0.1024651 0.31301326 0.07569317 -0.35898283 -0.34663084 -0.45259774 0.092386395 0.6346232
-0.55296767 0.3298806 0.15273577 -0.47062796 -0.13698632 -0.052747842 0.25901386 -0.44245356
-0.36057827 -0.31564972 0.01182373 0.23361155 0.24613798 0.45928094 0.40198815 -0.1311315
0.622909 0.14914441 -0.06829785 0.4108831 0.47383526 0.3463879 0.36600512 0.17538121
-0.039117407 0.022682447 -0.07172432 -0.044978555 0.120698236 -0.14835094 -0.16832206 -0.60114
-0.47992387 0.083472915 -0.17820215 -0.42792153 -0.12626274 -0.3419757 -0.2707565 0.25687584
-0.48195058 -0.17659721 0.68592876 0.37633923 -0.047144357 -0.086083174 0.1781805 -0.18173777
0.5689488 -0.13372043 0.28277394 -0.11589927 0.62484074 -0.1129503 -0.046486847 0.5441294
0.24359687 0.6889188 0.45102817 -0.019591155 -0.26942143 -0.2142553 -0.5341921 -0.16159606
-0.38044527 -0.15162148 0.22356378 0.5154643 0.2018228 -0.10477741 -0.28373513 0.08028744
0.46529222 0.09937441 -0.4305177 -0.052482683 -0.46312967 -0.13555762 -0.25137845 -0.3102044
0.524411 -0.025476424 0.34484068 0.14999305 0.32181945 -0.094874315 0.23131078 -0.31938735
-0.22069566 0.4921597 0.33542576 0.5775438 -0.42436767 -0.18056174 -0.2420657 -0.37743777
0.20596348 0.2931124 -0.61663014 -0.5027545 0.068373635 0.20902066 -0.062303755 -0.15798679
-0.0039768377 0.35548332 0.2788866 0.1446835 0.14285243 0.021961 -0.3767976 -0.1798725
0.431378 0.24700916 0.124154 -0.021887394 -0.12657447 -0.34292674 -0.16407639 0.439606
0.18085892 0.16766739 -0.030159108 0.23963568 -0.17341076 -0.17844918 -0.4225391 0.13974898
-0.29031423 0.15223844 0.26067692 0.08157483 -0.3224791 -0.21525434 -0.46254492 0.018903468
0.012794356 0.23303016 -0.2656939 -0.29629505 -0.49219173 0.6525998 0.59201884 0.11237826
0.07700796 0.11113021 0.15593556 0.48138386 0.047767196 -0.23311037 0.20596531 -0.2523789
-0.14222004 -0.19768098 -0.18626066 0.5535966 0.032883614 0.35322443 0.058086 -0.020659741
0.13423142 -0.40876117 0.20794176 0.2297747 0.20002623 0.08338228 0.11620181 -0.30155447
-0.20065966 -0.18944307 -0.2532656 -0.28919578 0.13493776 -0.36236307 0.1662925 0.3850383
-0.533375 -0.29522783 -0.2656478 -0.38462973 -0.14899278 -0.16519733 0.04091483 0.20769584
-0.5358977 -0.1664547 0.6521721 -0.018366054 -0.38069692 0.006311515 -0.16756655 -0.121565364
0.11720445 -0.30817845 -0.4371173 -0.6671179 -0.45320785 -0.025407907 -0.08079245 -0.07852714
-0.089779906 -0.24350862 0.46360227 0.38848063 -0.19450246 0.27484122 0.23020506 -0.07991095
-0.0872355 0.48594582 0.17371927 0.056463573 -0.27724996 0.57005954 -0.028974127 -0.2110853

bn1.weight f4 [32]
00000000: 7fbb 863e 21a9 313e 6e95 723d ae19 653e
00000010: 8bb0 433e 3227 5d3e 81e3 833e 9de2 393e
00000020: d145 183f 4882 033e e8ed f8bb fd6e c1bd
00000030: b555 003e f887 183e 58a2 0a3f b546 853e
00000040: 5b7b 6b3e 3dad 4d3e bf42 813e 597e 8e3e
00000050: 1a7a 173d 7f04 933e 9731 d43d 0827 b43e
00000060: 45d0 8dbc 0bb8 7e3e 1443 963e a234 613e
00000070: bf80 543e 3a82 2d3e b624 3b3e 53cb 333e
0.26314923 0.17349674 0.05922454 0.22373077 0.19110315 0.21596983 0.2575951 0.18152852
0.5948153 0.12842667 -0.00759672 -0.094449975 0.12532695 0.14895618 0.54153967 0.26030508
0.22996275 0.20085616 0.25246236 0.2783077 0.03698168 0.28714368 0.10361021 0.35186028
-0.017311225 0.24874894 0.29348052 0.21992734 0.20752238 0.16944209 0.18275723 0.17558031

bn1.bias f4 [32]
00000000: 0482 563d 495e 903e e195 0cbe 8102 aabd
00000010: 6185 18bd b2f6 81be 58bb debc aeda 5bbd
00000020: e683 62be c66e adbe 52e4 e93c 6985 c5be
00000030: 56d3 c93c 5adf edbd c05c 1d3e 617d 87be
00000040: aa79 01bd 51ba 39bc 88dd 7abd 6caf 58be
00000050: 42c0 5cbe 0086 403e 9f48 063e 986b 76bc
00000060: f8ed 97be ffa2 87be 352b 0c3e fb2d 1f3e
00000070: 979b 633d 6303 033e b01d e0bc 2265 d0be
0.052370086 0.28196934 -0.1372905 -0.08301259 -0.037236575 -0.25383526 -0.027188942 -0.053675346
-0.22120628 -0.33873576 0.028551254 -0.38578346 0.024636906 -0.116148666 0.15367413 -0.26462844
-0.03161017 -0.011335925 -0.061246425 -0.21160668 -0.21557716 0.18801117 0.1311364 -0.015040301
-0.29673743 -0.26491544 0.13688357 0.15544884 0.055568304 0.1279426 -0.027357906 -0.40702158

bn1.running_mean f4 [32]
00000000: 9a73 b63e dd46 5a3e ec3a b23e b26f ff3e
00000010: d1df ca3e 5f4e c93e 5938 f53e 94a3 c23e
00000020: fa0c 783e 5f79 f13e 64e0 163f 91f5 533e
00000030: 6f5a 073f 27f0 c63e f5a6 173f 2a96 ba3e
00000040: 013d 923e 7edb 923e eb72 833e 8d2b c53e
00000050: ab92 eb3e 8e50 b73e c088 b13e 42b9 703e
00000060: 8e61 433e 12ef d33e 158d 043f 4c63 843e
00000070: a2c4 bb3e 8047 1d3f 6c5b d73e 8e53 993e
0.35635072 0.21316095 0.3481058 0.49889904 0.39623883 0.39317605 0.47894552 0.38015425
0.242237 0.4716291 0.5893614 0.20699145 0.52872366 0.38855097 0.5923913 0.3644269
0.28562167 0.28683084 0.25673613 0.3850979 0.46010336 0.35803646 0.34674644 0.2350817
0.19080183 0.41393334 0.51777774 0.25857008 0.36673456 0.61437225 0.42061937 0.2994656

bn1.running_var f4 [32]
00000000: dc9b a03e b0df 063e d515 aa3e 28c3 f03e
00000010: 6697 bc3e 1dd4 d23e d42a 263f 5b29 1a3f
00000020: abae b33d 3b80 ee3e c23e 733f ee1a ce3d
00000030: 43a4 4b3f 5b2e a93e 2439 243f f19e 7c3e
00000040: 3411 5c3e 7583 893e 6041 753e da88 bb3e
00000050: c638 183f 1ab2 a83e d95b b73e 8ece fc3d
00000060: 9a39 8e3d 0161 063f 6003 e63e cd91 423e
00000070: 31d1 aa3e cd4d 733f ae27 ba3e e1cb 343e
0.3136891 0.13171268 0.33219782 0.47023892 0.36834258 0.41177455 0.649091 0.60219353
0.0877355 0.46582207 0.95017636 0.1006373 0.7954752 0.3304318 0.6414969 0.24670006
0.21490937 0.26858106 0.2395072 0.36627847 0.5946163 0.3294838 0.35812262 0.12344085
0.069445804 0.52491766 0.4492445 0.19000931 0.33362725 0.9504059 0.36358398 0.17655899

fc2.weight f4 [16, 32]
00000000: 71c5 133e a5a4 73bd 744e a9bd f3e6 843d
00000010: 9214 bd3d 9de1 46bc b6b5 c93d 8ce3 c63d
00000020: c6fb 9fbc 4451 a4bc 3ec7 453e a58e aabd
00000030: c7bd e9bd 612d 3d3d 01ab 963d 65a1 7a3b
00000040: 5929 b5bd c527 1b3d 7bc2 ebbd e3af fabd
00000050: b2b2 173d 369d 883d fd3c 7a3d fb06 e63d
00000060: 872b c43b cd19 1fbb 65c8 ce3c a578 983d
00000070: 40b1 3c3b 022e 633d 8221 67bd aa63 9b3c
00000080: 031c 06be 796d c53d c553 103d 67ea b7bc
00000090: a9f3 023e 5acb 39bc 0ea1 b5bc 1c82 55bc
000000a0: 39c1 0cbe 674e bbbd b305 633c dbe6 233d
000000b0: aefc 473d b86c 793c a158 53be c492 7a3c
000000c0: 3428 6a3d b14c 8d3d 356c e43c 0d5d eabd
000000d0: 2247 ec3c 661a 55bd e4ca 08bd bb60 65bd
000000e0: 7506 2c3d 7438 28bd 28d0 1a3c f925 9c3b
000000f0: 587b a9bd 1cd8 f53d a30b bcbd d938 acbd
00000100: da2a 7a3d 3a86 dcbd 77be a9bc 9cf3 a63d
00000110: 292b c9bd 4a46 b53d 011b ca3d 0815 66bd
00000120: 8641 143e cd75 c83d 9d96 45bd 026f 563d
00000130: 7ae2 e539 465b b93d 340f 7c3d d0bc 04be
00000140: feb5 b33c 15fc 73bd e43b 61bd 6dbd 42bc
00000150: 027d bebb b388 aabd fbc4 05be 3337 df3d
00000160: 3765 a6bc ed9e 09bd 7a76 203e 8223 0cbd
00000170: bcfb 3a3d 598a 86bc 2c3b c03c 0cb5 fa3d
00000180: add8 093d af9e 613d 11d6 14be b86b 9d3d
00000190: 2993 2f3d b89e fa3b 16b6 7fbc e9a9 96bd
000001a0: dfc6 34bc c97e 83bd db80 963d 4792 6abd
000001b0: 961a 60bd ebd2 46bd 4a5c fe3b 3102 40bc
000001c0: 1f05 353c ac3e b2bd 257b bdbc e761 853d
000001d0: f6da 043d 6336 0dbb 26d6 6e3c b6c7 c83c
000001e0: 7f54 e2bc 008f 07bd 3dc8 343d b308 213b
000001f0: 0653 093d 886e 36bd 51e9 ed3d 3f67 a53c
00000200: 4c75 093e b5f4 38bd b472 85bc 1a35 07bc
00000210: e68f d8bd e1b6 1fbd 8462 713d 4449 f73d
00000220: ab9d edbd ca0b 653d 1f6b 453c ebd4 acbd
00000230: da07 953c 88ae 36bc e4ee 503d 5319 153e
00000240: 1070 7abd 3cc9 813b 8214 3fbd 4679 00bd
00000250: 46ee 233c 3175 3bbd 0d82 7bbc 3713 8d3d
00000260: 4cc7 1e3d 8bde 21bc bb4d a1bd c075 323d
00000270: 3c26 18bd 1bc1 5cbe 6edf 153e c6f6 09bd
00000280: 0628 81bc 5984 193d 54b4 95bd 9de6 4e3c
00000290: eae4 8bbd a0a8 d1bc 8c36 ddbd a3c0 2dbe
000002a0: 7d47 043d b387 71be 9231 c2bc 770f ccbc
000002b0: b4a7 bf3d 67b0 063d 1569 73bd 3af3 60bc
000002c0: 18c5 1e3e 08e7 023e 29a5 d03d 17e5 6bbd
000002d0: b22a 0fbc e191 66bc f954 39bd 1e7b 873c
000002e0: 3e4f 0dbd e363 773d a465 b4bd 5f95 b03d
000002f0: 3187 9bbd a9b5 163e 4007 443d 52fb 8fbd
00000300: a9a0 84bd 0cb8 113e dd2c 3f3c f8a7 983d
00000310: 7652 05be 3551 88bd 39e8 bcbd d7c5 0d3e
00000320: 991f 143e 9996 e7bd cc9c ac3b 65df 053e
00000330: 3028 373c 691c 61bd a852 213c 8dbe 763d
00000340: b49b 2e3e 5bcb 2f3d 2ea3 fd3b 103b ac3c
00000350: aacd c43d 5b09 433e e231 ab3d acf2 a1bd
00000360: b03d 9cbd 4322 ce3d 754c c43d 51b3 723d
00000370: 892e 4fbc 9fdd c9bd a32d 8a3d 3c04 683b
00000380: e4b1 bbbd 759e fd3d 5729 2d3e 847a 08be
00000390: e4e0 70bd 5403 aabd 4a00 bdbd 69c4 4c3d
000003a0: 916e 8ebe c16f 6e3d 59b7 07be 50a4 b4bd
000003b0: e855 3d3d 8e13 c83c 40e0 b6be 70c7 6d3e
000003c0: a6bf 883d 7f93 aa3d 376e 993d 149c 4bbc
000003d0: 0318 39bd 583b 47be 5e1c 28bb 2b83 17bd
000003e0: de83 0bbe 6fa1 d4bd 9f02 65bd e209 323e
000003f0: 54df 0abd eadb d4bd c65b 1a3d 69aa a2bd
0.14430787 -0.05948319 -0.08266917 0.064893626 0.09232439 -0.012138751 0.09849112 0.0971137
-0.019529235 -0.020058282 0.19314286 -0.083279885 -0.1141315 0.046185855 0.07356835 0.0038243171
-0.08845777 0.037879724 -0.115117036 -0.12240579 0.03703565 0.066706106 0.06109332 0.112318
0.005986634 -0.0024276853 0.02524204 0.07444886 0.0028792173 0.0554638 -0.05642844 0.018968422
-0.13096623 0.09640021 0.03523614 -0.022450639 0.12788261 -0.011339987 -0.022171523 -0.013031509
-0.13745584 -0.091458134 0.013856339 0.040015083 0.04882496 0.0152236745 -0.20639278 0.015293781
0.057167247 0.06899393 0.027883628 -0.11443529 0.028842513 -0.05202713 -0.033396617 -0.056000452
0.041998345 -0.041069463 0.009449042 0.004765269 -0.08275479 0.1200411 -0.09181907 -0.0840928
0.061076023 -0.10767789 -0.020720704 0.081519336 -0.09822685 0.08851297 0.09868432 -0.0561724
0.1447812 0.09788094 -0.04823934 0.05235196 0.00043847022 0.09050612 0.061537936 -0.12962651
0.021937367 -0.059566576 -0.054988757 -0.011885983 -0.005813242 -0.083268546 -0.13063423 0.108992
-0.020311935 -0.03359883 0.15670195 -0.03421355 0.04565023 -0.016423391 0.023465715 0.12241563
0.033653904 0.055082973 -0.14534785 0.07686561 0.042864952 0.0076483153 -0.0156073775 -0.073566265
-0.011033743 -0.06420667 0.07348796 -0.057268407 -0.054712854 -0.04854099 0.0077624666 -0.0117192725
0.011048584 -0.0870336 -0.023130009 0.06512814 0.03243538 -0.002154731 0.014577424 0.024509292
-0.027628182 -0.03309536 0.044136275 0.0024571836 0.033526443 -0.044539005 0.11616767 0.020190833
0.13423651 -0.045155246 -0.016290046 -0.0082524065 -0.105743214 -0.038992766 0.058931842 0.12074521
-0.116023384 0.055919446 0.012049465 -0.084390484 0.01819222 -0.01115001 0.051009074 0.14560442
-0.061142027 0.0039607566 -0.046650417 -0.031365655 0.010005539 -0.04576606 -0.015350831 0.068884306
0.038764283 -0.009879719 -0.07876154 0.043569326 -0.03714584 -0.21558039 0.14636013 -0.033682607
-0.015766155 0.037479732 -0.073097855 0.012628225 -0.06830771 -0.025593102 -0.108014196 -0.16968016
0.03229474 -0.23586921 -0.023705278 -0.024909718 0.09358159 0.032883074 -0.059426386 -0.013729865
0.15504873 0.12783444 0.10187752 -0.057591524 -0.008738207 -0.014072866 -0.045247052 0.016538199
-0.0344994 0.060397994 -0.08808449 0.0862224 -0.07594145 0.14717735 0.047858477 -0.070303574
-0.06475956 0.14230365 0.011668411 0.074539125 -0.13019738 -0.06656114 -0.092239805 0.13845001
0.14465179 -0.11308021 0.005267715 0.130735 0.011179015 -0.054958735 0.009846367 0.060240317
0.17051584 0.042918544 0.0077404 0.021024257 0.0960954 0.19046538 0.08359124 -0.07907614
-0.076289535 0.10065129 0.095848955 0.05925304 -0.012645372 -0.09856724 0.06746986 0.0035402915
-0.09164789 0.12383739 0.16910301 -0.13327986 -0.058808222 -0.08301416 -0.09228571 0.049992
-0.2781873 0.058212046 -0.13253535 -0.088204026 0.046224505 0.024423387 -0.35717964 0.2322061
0.06677179 0.08328914 0.07491725 -0.012427349 -0.045188915 -0.19456232 -0.0025651674 -0.036990326
-0.13624522 -0.103823535 -0.055910703 0.17386582 -0.03390439 -0.10393508 0.03768518 -0.079426594

head.weight f4 [1, 17]
00000000: b2c9 a2bc 2e90 3f3c 97eb a83c df34 00bb
00000010: 39c6 3b3c 39ed 803c 7b4a 41bb 06f4 8dbc
00000020: d856 7ebc 8137 9f3c 3034 90ba 9546 e03c
00000030: 9410 92bc cb58 9bbc 8ec7 823b 7b84 77bc
00000040: c8a8 fabb
-0.019871566 0.01169209 0.02062015 -0.0019562764 0.011460834 0.015738117 -0.0029493857 -0.017328274
-0.015523635 0.019435646 -0.0011001881 0.027377406 -0.01783017 -0.018963238 0.003991074 -0.015107269
-0.007649515
