python/best_siamese_hunet.pth (torch, 218197 bytes, 26 tensors)

fc1.weight f4 [64, 7]
0.30797222 0.32483995 -0.042757068 0.4167281 -0.07320235 0.033620127 -0.1489555 0.2160817
0.3604133 -0.2377378 0.3532349 0.06865314 0.26610693 0.06003763 0.22219673 -0.023953026
0.28285936 0.09027895 -0.15972967 0.08900781 -0.18632501 -0.073194586 -0.18517356 0.24928023
-0.30603266 -0.15196969 -0.064269505 -0.2321718 0.012292593 -0.37213662 0.33735636 -0.32149333
0.31938598 0.092374325 -0.123121254 0.23331782 0.0966418 0.34231848 0.056724235 -0.087356836
0.09904681 -0.10200927 0.13353273 0.33348992 0.21176746 -0.17849775 0.22328049 0.05478268
0.21502054 -0.2521674 -0.41924602 -0.14479163 -0.27316096 0.31375188 0.11694588 0.11550003
0.13000388 -0.015353231 0.28306532 -0.28286302 0.03171269 -0.2433248 0.14261971 -0.11592564
0.12769027 -0.09792708 0.3294377 -0.22216679 -0.18355268 -0.2484162 0.35596824 0.14427756
0.36736384 -0.30254233 -0.35822362 -0.29874048 -0.26113752 0.13980354 0.16078725 0.31465656
-0.17080222 -0.25064427 0.20253268 -0.16923854 0.24121207 -0.07721744 0.2176696 -0.27733976
-0.1735311 0.18963462 0.0559567 -0.05846742 0.24826781 0.27481958 -0.23521955 -0.2094058
0.34260118 -0.15227428 -0.15293668 -0.41756114 -0.22716293 0.06629555 -0.00514043 -0.2340202
-0.0014875323 -0.22947906 -0.37807816 -0.17677456 -0.31649163 -0.23442309 0.40311894 0.04992382
0.12045559 -0.40363172 -0.22297683 -0.14281105 0.09077287 -0.32207906 -0.13817033 -0.23945318
-0.0005892118 -0.17098933 -0.057771865 -0.23511675 -0.2467662 -0.21748498 -0.13043997 -0.31526524
0.29815575 -0.101883575 0.3458334 0.13082898 -0.31244043 0.32181907 -0.037140198 -0.093724996
-0.25388443 -0.39874846 0.12952696 -0.11979071 0.18545136 -0.25600213 0.30957448 -0.25208318
-0.106131755 0.055316057 0.22360203 0.33728462 0.36588302 -0.2889515 0.105214156 -0.14529757
-0.07916778 -0.24842209 0.34269574 -0.25626227 0.20435506 0.18888128 0.2241101 -0.16197696
0.33263418 0.08236775 0.069084026 -0.33065817 0.15312901 -0.030370394 -0.13828038 0.3711012
0.1159268 -0.17898507 -0.17794007 -0.017330157 0.20900893 -0.07911058 -0.25166872 -0.15199569
-0.31789112 0.13118695 0.27697396 -0.33866748 0.1318049 0.16323546 0.08265406 -0.10044414
0.19567128 0.24147546 0.1413816 -0.10773974 -0.099463515 0.029552795 -0.06525304 -0.11860046
0.2600507 0.34458748 -0.059069462 -0.03854006 -0.019595362 -0.06013886 0.07155856 0.05136721
-0.2877565 -0.071027085 0.40427816 0.15380223 0.0031083857 -0.22795151 -0.22419353 -0.36316058
-0.08609633 0.122970946 0.28419518 0.20912853 -0.26406723 -0.16899806 -0.052481875 0.41140556
0.09682405 -0.105873324 0.10869853 -0.119475946 -0.26124904 0.34056264 -0.109374575 -0.11216261
-0.4234448 0.24951214 0.23590994 0.12291735 -0.22549643 -0.387469 -0.3002139 0.29070735
0.2139708 0.32050228 0.21384303 0.10086827 -0.022608805 -0.25623357 -0.28801966 -0.4308656
0.18057044 -0.19058768 -0.032404106 -0.17601274 -0.04997152 -0.2811854 -0.33346263 0.111603856
-0.12988977 0.2427964 -0.08706741 -0.23270746 -0.09099128 -0.23459604 -0.11870903 -0.36633447
00000000: 89ae 9d3e 6c51 a63e 0922 2fbd 635d d53e
00000010: 1deb 95bd 42b5 093d ca87 18be 8544 5d3e
00000020: 1888 b83e 8a71 73be 34db b43e 049a 8c3d
00000030: 2b3f 883e 05ea 753d 8a87 633e 2339 c4bc
00000040: f1d2 903e 2ce4 b83d 2d90 23be ba49 b63d
00000050: fccb 3ebe 0be7 95bd 239e 3dbe 5143 7f3e
00000060: 50b0 9cbe f19d 1bbe bb9f 83bd 72be 6dbe
00000070: df66 493c b188 bebe f9b9 ac3e c69a a4be
00000080: 8f86 a33e c02e bd3d ff26 fcbd deea 6e3e
00000090: 23ec c53d 5e44 af3e ac57 683d 24e8 b2bd
000000a0: 0ed9 ca3d 3cea d0bd cebc 083e 31bf aa3e
000000b0: 92d9 583e 1dc8 36be a4a3 643e ce63 603d
000000c0: 582e 5c3e 161c 81be 6aa7 d6be 4244 14be
000000d0: c1db 8bbe 16a4 a03e 5281 ef3d 488b ec3d
000000e0: bd1f 053e 1e8c 7bbc f0ed 903e 6cd3 90be
000000f0: 2ae5 013d 232a 79be e70a 123e 6c6a edbd
00000100: 3dc1 023e fe8d c8bd 0fac a83e b17f 63be
00000110: 3cf5 3bbe d160 7ebe 7841 b63e 7fbd 133e
00000120: 1d17 bc3e d4e6 9abe 1669 b7be 83f4 98be
00000130: d1b3 85be a928 0f3e 6aa5 243e aa1a a13e
00000140: c7e6 2ebe 7254 80be ba64 4f3e de4c 2dbe
00000150: 4c00 773e 2d24 9ebd c8e4 5e3e 7aff 8dbe
00000160: 23b2 31be 942f 423e da32 653d 897b 6fbd
00000170: eb39 7e3e 27b5 8c3e 65dd 70be 796e 56be
00000180: 6c69 af3e caed 1bbe 6f9b 1cbe 93ca d5be
00000190: 669d 68be f6c5 873d 0d71 a8bb fea2 6fbe
000001a0: 4df9 c2ba 8ffc 6abe 7693 c1be 6404 35be
000001b0: 310b a2be 9b0c 70be 9b65 ce3e eb7c 4c3d
000001c0: 6cb1 f63d d1a8 cebe 0a54 64be 0f3d 12be
000001d0: 20e7 b93d 8ce7 a4be 867c 0dbe 3733 75be
000001e0: 5675 1aba d417 2fbe 31a2 6cbd 72c2 70be
000001f0: 47b0 7cbe 62b4 5ebe 0e92 05be 726a a1be
00000200: dfa7 983e 56a8 d0bd 1311 b13e 08f8 053e
00000210: 31f8 9fbe 78c5 a43e 5220 18bd e4f2 bfbd
00000220: 24fd 81be c228 ccbe b7a2 043e d554 f5bd
00000230: f6e6 3d3e b612 83be 8c80 9e3e 0c11 81be
00000240: 9b5b d9bd 1793 623d eef7 643e 92b0 ac3e
00000250: 0555 bb3e 73f1 93be 857a d73d e3c8 14be
00000260: b822 a2bd 5c62 7ebe d175 af3e cf34 83be
00000270: 7442 513e 186a 413e 1e7d 653e 4add 25be
00000280: 074f aa3e 6cb0 a83d ed7b 8d3d 074c a9be
00000290: dacd 1c3e 55cb f8bc 5f99 0dbe fa00 be3e
000002a0: 086b ed3d dd47 37be ec35 36be f9f7 8dbc
000002b0: 7006 563e ba04 a2bd b9da 80be c2a4 1bbe
000002c0: a0c2 a2be df55 063e 88cf 8d3e d365 adbe
000002d0: ddf7 063e 3227 273e 8846 a93d a8b5 cdbd
000002e0: 0d5e 483e 5845 773e 57c6 103e a7a6 dcbd
000002f0: 87b3 cbbd b418 f23c 63a3 85bd cce4 f2bd
00000300: 5e25 853e c56d b03e d2f2 71bd 2fdc 1dbd
00000310: 7486 a0bc 2a54 76bd 4b8d 923d 6c66 523d
00000320: d254 93be a676 91bd 8cfd ce3e 557e 1d3e
00000330: 0fb6 4b3b 1f6c 69be fd92 65be 2ff0 b9be
00000340: 4653 b0bd 31d8 fb3d 0882 913e ca25 563e
00000350: d233 87be d40d 2dbe 3cf7 56bd c0a3 d23e
00000360: b04b c63d 1dd4 d8bd 569d de3d ceaf f4bd
00000370: 6fc2 85be 3a5e ae3e c7ff dfbd 83b5 e5bd
00000380: c2cd d8be 1c80 7f3e 6092 713e 17bc fb3d
00000390: 89e8 66be 5662 c6be a3b5 99be 98d7 943e
000003a0: 291b 5b3e e018 a43e abf9 5a3e 0694 ce3d
000003b0: 1a36 b9bc 0c31 83be 5077 93be 6a9a dcbe
000003c0: 75e7 383e 6b29 43be 2bba 04bd af3c 34be
000003d0: f0ae 4cbd 88f7 8fbe 9dbb aabe 9090 e43d
000003e0: d301 05be 9f9f 783e 6650 b2bd dd4a 6ebe
000003f0: a359 babd f239 70be b81d f3bd 3190 bbbe

fc1.bias f4 [64]
0.3008411 -0.3108073 -0.05086145 -0.39582327 -0.30895323 0.070770636 0.11430399 0.09268432
-0.10472673 0.36253828 0.032037757 -0.23875831 -0.0017819275 0.08594458 0.1270515 -0.29199433
0.123543635 -0.22282632 -0.35636222 -0.20179307 0.33060184 0.33136177 0.37093285 0.17663337
0.28383937 -0.08241669 -0.16191873 0.22770452 -0.20400769 -0.27408978 -0.120548464 0.05089575
0.17716259 -0.20309621 -0.24733429 0.028032258 -0.22140579 -0.24896166 0.21141 -0.046651587
0.37769228 0.36324626 0.116388105 0.16196547 0.0899816 -0.0014603048 -0.030460976 -0.022950966
0.112334356 0.35693666 -0.09037337 -0.15806106 -0.0998217 -0.15777084 0.061643697 0.28631052
0.32104352 0.14514762 -0.28655735 -0.22941385 -0.053060938 -0.040711682 0.053022295 -0.35742372
00000000: d807 9a3e 2222 9fbe 1954 50bd 59a9 cabe
00000010: 1e2f 9ebe 32f0 903d 3618 ea3d 47d1 bd3d
00000020: f87a d6bd 9e9e b93e 063a 033d 0f7d 74be
00000030: 918f e9ba b603 b03d ca19 023e 4880 95be
00000040: 7204 fd3d 952c 64be 1c75 b6be d8a2 4ebe
00000050: a544 a93e 40a8 a93e e9ea bd3e 61df 343e
00000060: 6553 913e 15ca a8bd 06ce 25be 602b 693e
00000070: 64e7 50be 7f55 8cbe 1de2 f6bd 1078 503d
00000080: 1c6a 353e 74f8 4fbe 3345 7dbe e8a3 e53c
00000090: 33b8 62be ceef 7ebe dd7b 583e bc15 3fbd
000000a0: e260 c13e 6afb b93e e35c ee3d 47da 253e
000000b0: 4648 b83d b367 bfba 4c89 f9bc aa03 bcbc
000000c0: 8e0f e63d 67c0 b63e ac15 b9bd c2da 21be
000000d0: 526f ccbd ae8e 21be 1a7e 7c3d 4b97 923e
000000e0: d15f a43e 94a1 143e a5b7 92be 77eb 6abe
000000f0: 6d56 59bd 4bc1 26bd e82d 593d 3e00 b7be

bn1.weight f4 [64]
0.9954949 0.99066097 0.9803979 0.9765572 0.9600231 1.0320604 1.0363756 0.95379317
1.007211 0.9673049 0.98368734 0.988086 1.0200251 0.98060733 0.97598565 0.9887968
0.9864682 1.0064136 1.0132588 1.0183436 0.97677827 0.9487635 1.0031878 0.9871841
0.977598 1.0147856 0.99502426 1.0207001 1.0260499 1.0034275 0.99109393 0.96834993
0.9635952 1.0207285 1.0543152 0.97806543 0.96644866 1.0230513 0.9864365 1.0123429
1.0057659 0.9708596 0.96169245 0.98266757 0.9918128 1.017961 1.0000093 1.0169755
1.0357999 1.02009 1.0144191 0.95316404 1.0106019 0.99990356 0.9854251 0.9798186
0.9952264 1.0256494 0.99864346 0.985579 1.0244031 0.9898606 1.0105639 1.019752
00000000: c1d8 7e3f f59b 7d3f 5bfb 7a3f a7ff 793f
00000010: 13c4 753f 8e1a 843f f5a7 843f ca2b 743f
00000020: 4aec 803f 4ba1 773f efd2 7b3f 34f3 7c3f
00000030: 2f90 823f 1509 7b3f 32da 793f c921 7d3f
00000040: 2e89 7c3f 29d2 803f 77b2 813f 1559 823f
00000050: 240e 7a3f 2ae2 723f 7568 803f 19b8 7c3f
00000060: dd43 7a3f 7fe4 813f e9b9 7e3f 4da6 823f
00000070: 9a55 833f 5070 803f 55b8 7d3f c8e5 773f
00000080: 2dae 763f 3ba7 823f cdf3 863f 7f62 7a3f
00000090: 2e69 773f 58f3 823f 1a87 7c3f 7494 813f
000000a0: f0bc 803f 418a 783f 7a31 763f 1a90 7b3f
000000b0: 72e7 7d3f 8c4c 823f 4e00 803f 412c 823f
000000c0: 1795 843f 4f92 823f 7cd8 813f 8f02 743f
000000d0: 675b 813f aef9 7f3f d244 7c3f 64d5 7a3f
000000e0: 28c7 7e3f 7b48 833f 19a7 7f3f e84e 7c3f
000000f0: a41f 833f 8167 7d3f 285a 813f 3c87 823f

bn1.bias f4 [64]
0.06642981 -0.048655845 -0.032413606 0.017616676 -0.010533177 0.022739336 0.017097529 0.003630474
0.052086394 -0.038686067 0.007892282 -0.012489313 -0.06323954 -0.03850573 0.013028966 0.05473698
0.030121509 -0.062767565 0.08424576 0.008521079 -0.02140594 -0.010702407 0.021253785 0.00697989
-0.01733205 0.023616798 -0.031583298 0.029977864 0.00052392756 -0.045354832 -0.035875447 -0.0042773383
-0.027666211 0.033668827 0.048118472 0.02677226 0.015038653 0.011952773 -0.041204255 -0.03195021
0.04485994 -0.02512774 -0.03535895 0.020895742 -0.061528977 0.046474874 -0.05757082 -0.015200361
-0.029619696 0.041201856 0.0044333306 -0.015478307 -0.009785697 -0.010428951 -0.04009929 -0.075685576
0.047102295 -0.004585649 0.040365994 -0.025042517 0.012068351 -0.003136052 0.033882968 0.017954793
00000000: 5a0c 883d 5a4b 47bd 21c4 04bd d950 903c
00000010: 5993 2cbc d847 ba3c 1e10 8c3c 3fed 6d3b
00000020: 8b58 553d 4875 1ebd a14e 013c fa9f 4cbc
00000030: bb83 81bd 2fb8 1dbd 7277 553c e233 603d
00000040: 62c1 f63c 488c 80bd 0b89 ac3d ff9b 0b3c
00000050: 835b afbc 2659 2fbc 6b1c ae3c 90b7 e43b
00000060: f1fb 8dbc 0478 c13c 7d5d 01bd 2394 f53c
00000070: 2f58 093a fdc5 39bd 22f2 12bd ea28 8cbb
00000080: 40a4 e2bc 53e8 093d e017 453d 8051 db3c
00000090: af64 763c 90d5 433c cbc5 28bd 39de 02bd
000000a0: 0ebf 373d b1d8 cdbc 8cd4 10bd 8c2d ab3c
000000b0: cf05 7cbd 705c 3e3d 61cf 6bbd ef0a 79bc
000000c0: 01a5 f2bc 47c3 283d 7945 913b ba98 7dbc
000000d0: 3054 20bc 31de 2abc 273f 24bd 0a01 9bbd
000000e0: 56ee 403d 3643 96bb d056 253d f725 cdbc
000000f0: 55ba 453c 3986 4dbb dec8 0a3d ee15 933c

bn1.running_mean f4 [64]
0.32460046 -0.30811098 -0.0321163 -0.39888337 -0.32733658 0.0957678 0.13071916 0.047597583
-0.084113896 0.37673157 0.066430435 -0.22463264 0.0017400417 0.089042835 0.1096297 -0.3366338
0.09996976 -0.22948074 -0.37707734 -0.21048173 0.3423418 0.33379433 0.39721924 0.18233457
0.2586765 -0.06714137 -0.1456418 0.22022113 -0.1776053 -0.2769784 -0.14335784 0.027286293
0.20927379 -0.17421073 -0.25482157 0.0054910365 -0.24241239 -0.23498917 0.21059969 -0.06671847
0.35660696 0.3820649 0.107716486 0.1314945 0.12999116 0.03503859 -0.029050618 -0.03306164
0.10049237 0.35509574 -0.04209893 -0.12779374 -0.085672885 -0.16289899 0.047056258 0.27615058
0.34481555 0.1487411 -0.28760624 -0.23488046 -0.08142023 -0.028358487 0.042759407 -0.2976288
00000000: 0832 a63e b9c0 9dbe 628c 03bd 713a ccbe
00000010: a998 a7be e921 c43d 3edb 053e aff5 423d
00000020: e843 acbd f6e2 c03e ae0c 883d 1906 66be
00000030: 1c12 e43a 175c b63d 8985 e03d 445b acbe
00000040: f2bc cc3d 00fd 6abe 4810 c1be 8688 57be
00000050: 6d47 af3e 17e7 aa3e 5260 cb3e eab5 3a3e
00000060: 3f71 843e 6a81 89bd 2023 15be a681 613e
00000070: 2ade 35be 1dd0 8dbe 66cc 12be 8187 df3c
00000080: de4b 563e 4c64 32be f977 82be 27ee b33b
00000090: f43a 78be 00a1 70be 72a7 573e b1a3 88bd
000000a0: 3095 b63e 039e c33e 769a dc3d 7fa6 063e
000000b0: 671c 053e a084 0f3d 90fb edbc a46b 07bd
000000c0: f2ce cd3d 1ccf b53e ed6f 2cbd 5ddc 02be
000000d0: 4475 afbd fece 26be 10be 403d 9c63 8d3e
000000e0: aa8b b03e 964f 183e 2041 93be 8184 70be
000000f0: a6bf a6bd 0f50 e8bc 7d24 2f3d cd62 98be

bn1.running_var f4 [64]
0.73963624 0.3498662 0.2899887 0.13840659 0.3643447 0.36002368 0.26769197 1.1449451
0.10930295 0.29740405 0.8313964 0.23214002 0.07483356 0.17533049 0.37642515 1.0463824
0.3289954 0.2995115 0.44320178 0.21350466 0.11799554 0.51480323 0.39317048 0.18585138
0.15137887 0.25832474 0.16488679 0.11370336 0.2826093 0.25134733 0.23599684 0.24848877
0.54305327 0.7655551 0.408973 0.43527555 0.48224735 0.2964508 0.26807332 0.42072186
0.3112317 0.82409054 0.111045875 0.49082735 0.37120205 0.43282142 0.64200693 0.22860071
0.09054724 0.41842732 0.6081056 0.2791415 0.26819262 0.1728754 0.31297845 0.13011873
0.30506 0.1838016 0.48611248 0.24219972 0.207539 0.22586897 0.12927726 1.0170366
00000000: cd58 3d3f aa21 b33e 6679 943e 75ba 0d3e
00000010: 638b ba3e 0655 b83e ec0e 893e 908d 923f
00000020: 3ada df3d 5845 983e 65d6 543f 1db6 6d3e
00000030: 5642 993d d689 333e ccba c03e dcef 853f
00000040: 1672 a83e 9259 993e 58eb e23e f7a0 5a3e
00000050: a5a7 f13d 25ca 033f a44d c93e d34f 3e3e
00000060: 1003 1b3e 2443 843e 15d8 283e 4fdd e83d
00000070: 2bb2 903e 99b0 803e 28a9 713e d773 7e3e
00000080: 8a05 0b3f 6bfb 433f e964 d13e 70dc de3e
00000090: 20e9 f63e 66c8 973e e840 893e db68 d73e
000000a0: c359 9f3e 99f7 523f 056c e33d b94d fb3e
000000b0: 320e be3e c59a dd3e 915a 243f 4e16 6a3e
000000c0: d570 b93d 1b3c d63e cfac 1b3f a2eb 8e3e
000000d0: 8b50 893e 4006 313e b63e a03e d83d 053e
000000e0: d330 9c3e 7d36 3c3e bce3 f83e 3403 783e
000000f0: 1b85 543e 324a 673e 4261 043e 412e 823f

res.fc1.weight f4 [128, 64]
0.031508956 -0.09286096 -0.10020474 -0.11162355 0.11293925 -0.12789872 0.12145002 0.016025046
-0.020207219 0.07053536 -0.02552211 0.064465165 0.06108007 -0.12437026 0.053136695 0.03737959
0.04097428 0.039618175 0.03291085 -0.0914867 -0.011441335 0.098051175 0.0832141 -0.0026246023
-0.11948891 -0.029709872 -0.098612845 0.08621503 -0.08277653 -0.0018125686 -0.021538652 0.053475548
0.11682339 0.012944894 0.07026212 0.095454894 0.1298454 -0.033423666 -0.015869806 0.029246403
-0.03584235 0.050751872 -0.027241295 -0.05452447 0.05789229 0.025256624 0.044058383 0.11228618
0.10238125 0.1169931 0.0032991418 -0.11569274 -0.079058945 -0.059390474 -0.10389028 -0.083530225
-0.124922834 -0.12802128 -0.056656465 -0.13090481 -0.06737095 0.038100403 0.1368092 -0.041198395
-0.018729394 0.07773017 -0.07539705 -0.08317724 0.05550605 -0.09807052 0.048511583 0.11171434
0.055685733 0.040306192 -0.04802257 0.011881241 -0.0013184282 0.04590653 0.04129195 0.100254275
-0.10145572 -0.006560699 -0.08536568 -0.13711959 -0.02943106 -0.0798226 0.091667436 0.05645923
-0.08159688 0.037454184 -0.15343995 -0.079727806 0.017945776 -0.07602697 -0.10024415 -0.03137539
0.11131895 0.12768129 0.069505535 -0.08233283 -0.07245363 0.14467683 0.042609032 0.012352406
0.0023146986 -0.07657654 -0.017161619 0.12930599 -0.023302559 0.0050039836 -0.103498325 -0.068498746
-0.0055543757 -0.09949473 0.012596796 0.059142537 -0.056862935 0.07061841 -0.11547978 -0.06286277
0.07776213 0.10995835 -0.035572648 -0.06460661 -0.14361653 -0.07870464 -0.09304856 0.0071474216
0.023770448 -0.13177532 0.112335645 0.088946074 -0.12331099 -0.079142824 0.0018874833 -0.0035128628
-0.033313878 -0.050272357 0.08909981 -0.05783548 0.15362917 0.01951467 0.0386632 0.14573057
0.0010255029 -0.047342204 -0.029819908 0.14025259 -0.064686745 0.039639078 -0.1405 0.0812694
0.06868461 0.050492052 0.059567537 0.020250374 0.08851348 -0.06720274 -0.004586117 0.083349906
0.1209256 0.053185545 -0.096253775 0.094103 -0.011517967 -0.011944257 -0.086621046 -0.018071288
0.11272756 0.015651576 -0.048638817 0.06379486 -0.024092028 0.0933815 -0.09004683 -0.013642536
-0.087839484 -0.04590157 0.03159217 0.11013362 0.056400217 0.16084212 0.03726575 0.088077135
0.09614946 0.093414895 -0.030819291 0.13114679 0.09978502 -0.057938192 -0.052685488 -0.121051796
0.008034194 -0.11877754 0.034825094 0.06698856 -0.09976964 0.0037916664 -0.034366116 0.06970961
0.047972005 -0.116332196 0.10364387 0.09410435 0.043780155 -0.09807846 -0.031383336 -0.015769258
-0.025132963 0.085647196 0.06152103 0.118082054 -0.05834177 0.025738768 0.023812857 -0.115618214
-0.11812699 -0.040922932 0.059643738 -0.14660305 -0.11935466 0.061516773 0.076035544 0.107192025
-0.08358945 -0.11994291 0.0899639 0.13197482 0.08394271 0.011971548 0.039780825 0.10765678
-0.055445857 -0.07377699 0.0822273 -0.07679837 -0.070901796 0.06380929 0.03662449 0.06324449
-0.04553754 0.014407565 0.10238017 -0.07739301 -0.0105701815 0.052349273 -0.09351827 0.11424872
-0.07698992 -0.013375564 -0.025717178 -0.096386716 -0.110784054 0.0860781 0.05236456 -0.14589407
00000000: 890f 013d e32d bebd 2538 cdbd e39a e4bd
00000010: b24c e73d e2f7 02be caba f83d f546 833c
00000020: 9c89 a5bc d874 903d be13 d1bc 5006 843d
00000030: 182f 7a3d d6b5 febd dda5 593d 571b 193d
00000040: a6d4 273d ab46 223d 87cd 063d 615d bbbd
00000050: 7074 3bbc 0ecf c83d 276c aa3d 8501 2cbb
00000060: 9ab6 f4bd 1e62 f3bc 88f5 c9bd 8191 b03d
00000070: be86 a9bd b693 edba d471 b0bc 2d09 5b3d
00000080: 1a41 ef3d d216 543c 96e5 8f3d db7d c33d
00000090: 31f6 043e 41e7 08bd 6501 82bc 2796 ef3c
000000a0: 6ecf 12bd 32e1 4f3d 2329 dfbc 0d55 5fbd
000000b0: 7720 6d3d fbe6 ce3c 9076 343d 4cf6 e53d
000000c0: 43ad d13d 149a ef3d 6a36 583b 51f0 ecbd
000000d0: a8e9 a1bd 6d43 73bd 6dc4 d4bd e511 abbd
000000e0: 8bd7 ffbd 0318 03be 9c10 68bd e90b 06be
000000f0: c8f9 89bd 2b0f 1c3d b617 0c3e a6bf 28bd
00000100: 636e 99bc ff30 9f3d c569 9abd d458 aabd
00000110: 505a 633d 32d9 c8bd 15b4 463d 7dca e43d
00000120: b916 643d 1b18 253d 50b3 44bd 89a9 423c
00000130: 1ccf acba 7c08 3c3d bf21 293d 1d52 cd3d
00000140: 04c8 cfbd 22fb d6bb 34d4 aebd 1469 0cbe
00000150: 6819 f1bc 087a a3bd 23bc bb3d cb41 673d
00000160: 441c a7bd 8f69 193d 5d1f 1dbe 5548 a3bd
00000170: 0503 933c 07b4 9bbd ce4c cdbd 7b83 00bd
00000180: 31fb e33d e2be 023e eb58 8e3d 1d9e a8bd
00000190: 9262 94bd 2a26 143e cf86 2e3d bf61 4a3c
000001a0: 33b2 173b 29d4 9cbd 8696 8cbc ca68 043e
000001b0: 02e5 bebc 75f8 a33b eef6 d3bd 1249 8cbd
000001c0: 7b01 b6bb e5c3 cbbd cb62 4e3c 723f 723d
000001d0: 1ce9 68bd 63a0 903d aa80 ecbd 32be 80bd
000001e0: c041 9f3d d831 e13d a0b4 11bd 7850 84bd
000001f0: 3610 13be e62f a1bd 3e90 bebd eb34 ea3b
00000200: 3eba c23c 1cf0 06be 3b10 e63d 5c29 b63d
00000210: 798a fcbd a215 a2bd 6e65 f73a 0f38 66bb
00000220: 2274 08bd 63ea 4dbd f679 b63d e5e4 6cbd
00000230: f750 1d3e 3bdd 9f3c 4e5d 1e3d 653a 153e
00000240: 2b6a 863a e6e9 41bd e148 f4bc 609e 0f3e
00000250: 7c7a 84bd 965c 223d 3bdf 0fbe 9270 a63d
00000260: 84aa 8c3d c1d0 4e3d 17fd 733d 1de4 a53c
00000270: 8e46 b53d 97a1 89bd 2347 96bb 5bb3 aa3d
00000280: d7a7 f73d 16d9 593d b320 c5bd 13b9 c03d
00000290: dbb5 3cbc d8b1 43bc 6066 b1bd 3d0a 94bc
000002a0: b5dd e63d bc37 803c 7f39 47bd e1a6 823d
000002b0: a55c c5bc cd3e bf3d 796a b8bd f184 5fbc
000002c0: 30e5 b3bd 4903 3cbd cb66 013d bc8d e13d
000002d0: ea03 673d ccb3 243e f9a3 183d c961 b43d
000002e0: 02ea c43d 4f50 bf3d bd78 fcbc 584b 063e
000002f0: 175c cc3d 9950 6dbd bdcc 57bd 01ea f7bd
00000300: daa1 033c a441 f3bd c2a4 0e3d 4c31 893d
00000310: 0654 ccbd 9b7d 783b 7cc3 0cbd e9c3 8e3d
00000320: 4b7e 443d 933f eebd 3d43 d43d c8b9 c03d
00000330: d252 333d 5cdd c8bd d08b 00bd 882e 81bc
00000340: a5e3 cdbc cc67 af3d 7afd 7b3d 01d5 f13d
00000350: c8f7 6ebd 1cda d23c 2e13 c33c 3ec9 ecbd
00000360: 90ec f1bd ce9e 27bd fe4c 743d 1c1f 16be
00000370: 3770 f4bd 03f9 7b3d 86b8 9b3d 7e87 db3d
00000380: f230 abbd a1a4 f5bd fe3e b83d 6824 073e
00000390: 28ea ab3d 5024 443c 38f1 223d 287b dc3d
000003a0: 321b 63bd 6418 97bd c966 a83d 7748 9dbd
000003b0: f634 91bd 72ae 823d 9003 163d 5486 813d
000003c0: 9285 3abd b50d 6c3c b2ac d13d 3a80 9ebd
000003d0: 8e2e 2dbc 316c 563d 8286 bfbd 3cfb e93d
000003e0: e4ac 9dbd 2e25 5bbc d5ac d2bc 6666 c5bd
000003f0: c0e2 e2bd b749 b03d 397c 563d 4165 15be

res.fc1.bias f4 [128]
-0.12101664 -0.038573373 -0.065022856 0.07316751 -0.0065659406 -0.08359141 0.11050433 -0.0380102
-0.029822938 0.022285232 -0.07453836 0.028764244 -0.032117233 -0.031088233 -0.040753756 0.07901509
-0.066070735 -0.06281719 0.040966265 0.03906101 -0.013597752 -0.007841158 0.11218762 -0.029493153
-0.10443607 -0.14765379 0.050890297 0.0768133 -0.015833745 -0.10809325 -0.10543017 -0.080915906
0.074351795 0.006087489 -0.106681585 -0.12714091 0.057111982 -0.0016802882 0.120708294 -0.10586735
-0.098583855 0.0091214515 0.06583804 0.11423404 0.13917798 0.09273974 0.05006146 -0.07691081
0.13133398 -0.061797287 0.10504332 0.045491543 -0.08966558 -0.021038199 -0.00153968 0.096832424
0.097906254 0.040221434 -0.08269096 0.030046875 0.084041074 -0.08248452 0.085719466 0.013946835
0.07049474 0.036654703 0.058849506 -0.09648866 0.060814828 -0.096362956 -0.0040661423 0.103596285
-0.12281252 -0.082728796 -0.06547247 -0.009191111 -0.00697677 -0.099463046 0.035538375 -0.01072106
-0.080332845 3.3333374e-06 0.0511838 -0.00281432 -0.07011588 0.13059902 0.014782148 -0.035527486
0.09422998 0.03484874 0.06688648 0.088768974 -0.0023762905 0.078506514 0.0056829015 0.10637976
0.0056885434 0.04982861 0.08141541 -0.04960595 0.099184126 -0.010460705 0.014946206 -0.10505684
-0.032619998 0.07793758 -0.046445612 0.017709544 0.10990156 -0.1136271 0.020856189 0.024146149
0.074981324 -0.03370221 -0.14234646 -0.0601396 0.040925756 -0.10756872 -0.12724487 -0.027861819
0.002664766 -0.07675796 -0.055537358 0.052765593 -0.08081972 -0.094682306 -0.01829998 0.08629364
00000000: 92d7 f7bd 1dff 1dbd b42a 85bd d9d8 953d
00000010: 1a27 d7bb f931 abbd 1850 e23d 95b0 1bbd
00000020: 3c4f f4bc 858f b63c 91a7 98bd fea2 eb3c
00000030: 5c8d 03bd c0ac febc 69ed 26bd aad2 a13d
00000040: 1850 87bd 4da6 80bd 3ecc 273d 70fe 1f3d
00000050: 1bc9 5ebc 3378 00bc 9fc2 e53d a09b f1bc
00000060: 94e2 d5bd 8e32 17be 5872 503d 4b50 9d3d
00000070: c5b5 81bc fe5f ddbd c6eb d7bd 3db7 a5bd
00000080: c145 983d 8f79 c73b e07b dabd 3a31 02be
00000090: 41ee 693d 1e3d dcba e935 f73d fbd0 d8bd
000000a0: 55e6 c9bd 2472 153c 18d6 863d 89f3 e93d
000000b0: ac84 0e3e 55ee bd3d 3f0d 4d3d 6a83 9dbd
000000c0: 6a7c 063e 271f 7dbd f420 d73d 5755 3a3d
000000d0: 96a2 b7bd 4d58 acbc 16cf c9ba 1450 c63d
000000e0: 1383 c83d 3bbf 243d e159 a9bd dd24 f63c
000000f0: ba1d ac3d a5ed a8bd b08d af3d 4481 643c
00000100: 8c5f 903d 3e23 163d 2e0c 713d d99b c5bd
00000110: f818 793d f159 c5bd 463d 85bb 4a2a d43d
00000120: 2185 fbbd b76d a9bd 6e16 86bd 5096 16bc
00000130: 639d e4bb 48b3 cbbd b090 113d 63a7 2fbc
00000140: 8c85 a4bd 4db2 5f36 1ba6 513d 7470 38bb
00000150: ea98 8fbd c0bb 053e d330 723c 4585 11bd
00000160: a6fb c03d 8dbd 0e3d c7fb 883d 82cc b53d
00000170: 8abb 1bbb 06c8 a03d a237 ba3b a2dd d93d
00000180: f666 ba3b 1619 4c3d 1fbd a63d 9c2f 4bbd
00000190: 0c21 cb3d 6063 2bbc eee0 743c 0a28 d7bd
000001a0: 8c9c 05bd bd9d 9f3d c13d 3ebd 9b13 913c
000001b0: 1214 e13d 53b5 e8bd 99da aa3c 25ce c53c
000001c0: cf8f 993d 540b 0abd 45c3 11be f154 76bd
000001d0: c4a1 273d fd4c dcbd 7b4c 02be 783e e4bc
000001e0: 5ba3 2e3b 4733 9dbd 247b 63bd bc20 583d
000001f0: cf84 a5bd cce8 c1bd d7e9 95bc b8ba b03d

res.bn1.weight f4 [128]
1.028797 1.0036446 1.0043368 0.96779984 0.99161553 0.9648659 1.0116974 0.9881546
0.97381955 1.0512329 0.9864366 0.9868931 1.0235412 0.9972141 1.0145605 1.0207663
1.009556 1.0342246 0.9930284 0.9701186 0.9970666 0.9827521 0.942035 1.0597631
0.97905916 0.9860003 1.0252074 1.0730317 1.027484 1.0113742 1.0351981 0.9784419
0.9880336 1.0161896 0.9793374 1.0119952 1.0257651 0.9489675 0.9700873 1.018358
0.9764045 0.9696475 1.0058773 1.0274231 0.9497283 0.9950143 1.0031347 0.96792763
1.0030882 0.97268903 1.0012752 0.99688065 0.9808242 1.0366647 1.0154803 1.0271751
0.9830237 1.0026511 1.0773902 0.9792804 0.9874398 1.0067977 0.99662757 0.99933136
1.0428371 0.9755133 1.0103363 0.9840288 1.0131918 1.0020005 0.99008894 1.0105182
1.0020798 1.0033561 1.0080073 0.99955493 0.9880243 0.9807941 0.9905668 1.0060253
1.0236809 0.99415916 0.9537943 0.97928864 1.0198112 1.014595 0.9837201 1.0697393
1.0035731 1.0033641 0.9827288 1.0077358 0.97459805 0.9825868 1.0460787 1.0215578
0.99805385 0.96616644 1.0067321 1.0516609 0.9968794 0.9956504 0.9888137 1.0290009
0.98959225 0.97437656 0.995865 0.9842101 1.0375302 0.9927573 1.0404199 1.0007744
1.0021718 1.0412204 1.0059066 0.98345095 0.96462715 0.9806137 0.9837304 0.98493284
0.96832645 0.9962175 1.0188472 0.9900937 1.0023603 1.0098789 1.0462966 0.96980476
00000000: 9faf 833f 6d77 803f 1c8e 803f bbc1 773f
00000010: 84da 7d3f 7401 773f 4d7f 813f b3f7 7c3f
00000020: 3d4c 793f cd8e 863f 1c87 7c3f 07a5 7c3f
00000030: 6603 833f 6c49 7f3f 1edd 813f 78a8 823f
00000040: 2239 813f 7961 843f 1c37 7e3f b159 783f
00000050: c23f 7f3f a495 7b3f 3529 713f 51a6 873f
00000060: 9fa3 7a3f 846a 7c3f ff39 833f 1a59 893f
00000070: 9984 833f b674 813f 5f81 843f 2b7b 7a3f
00000080: c5ef 7c3f 8012 823f dbb5 7a3f 0f89 813f
00000090: 454c 833f 89ef 723f a457 783f 8e59 823f
000000a0: a5f5 793f d23a 783f 96c0 803f 9a82 833f
000000b0: 6521 733f 42b9 7e3f b866 803f 1bca 773f
000000c0: 3265 803f 2602 793f c929 803f 9233 7f3f
000000d0: 4b17 7b3f 6eb1 843f 42fb 813f 797a 833f
000000e0: 71a7 7b3f df56 803f ece7 893f 1fb2 7a3f
000000f0: dbc8 7c3f bfde 803f fc22 7f3f 2ed4 7f3f
00000100: b07b 853f 3dbb 793f b352 813f 50e9 7b3f
00000110: 45b0 813f 8d41 803f 7876 7d3f a958 813f
00000120: 2744 803f f96d 803f 6206 813f d5e2 7f3f
00000130: 29ef 7c3f 5215 7b3f c995 7d3f 70c5 803f
00000140: fa07 833f 3781 7e3f dd2b 743f a9b2 7a3f
00000150: 2c89 823f 40de 813f 15d5 7b3f 38ed 883f
00000160: 1575 803f 3c6e 803f 1d94 7b3f 7dfd 803f
00000170: 427f 793f cf8a 7b3f e8e5 853f 68c2 823f
00000180: 7580 7f3f af56 773f 99dc 803f d39c 863f
00000190: 7d33 7f3f f2e2 7e3f e522 7d3f 4db6 833f
000001a0: eb55 7d3f be70 793f 02f1 7e3f 31f5 7b3f
000001b0: cacd 843f 5825 7e3f 7b2c 853f 6019 803f
000001c0: 2a47 803f b646 853f 8cc1 803f 71c3 7b3f
000001d0: cef1 763f 8009 7b3f c1d5 7b3f 8f24 7c3f
000001e0: 3ee4 773f 1c08 7f3f 9669 823f c876 7d3f
000001f0: 584d 803f b643 813f 0ced 853f 2045 783f

res.bn1.bias f4 [128]
0.03401895 -0.03583681 -0.048620176 -0.03670298 0.022183822 0.011924022 0.014598687 -0.014863155
0.02083124 0.05837558 -0.090418644 -0.025768757 0.008708877 0.025132269 0.044509683 0.048369415
0.013590669 -0.0010813585 -0.054346718 -0.058963142 -0.018563384 0.050830383 -0.029634256 0.016369827
-0.00977064 0.016201934 -0.0031371983 0.04132262 -0.0004287412 0.009180361 0.03983478 -0.004926901
-0.00757637 0.038658775 -0.0578269 0.02342337 -0.023156345 -0.03436073 -0.00063920685 -0.018155342
-0.008455643 -0.04369337 0.023309583 0.051795073 0.016372567 -0.023896633 0.0512531 -0.008399221
-0.0018756666 -0.0770165 0.012970116 0.039779086 -0.044658277 0.007827416 -0.016515814 -0.03366002
-0.014256428 -0.0027085317 0.032072376 -0.021415858 -0.007924452 -0.016447525 0.04044138 0.01942232
0.028253509 -0.012189365 0.036138143 0.025916122 0.016317863 0.02590262 -0.022904791 -0.040077
0.012391875 -0.021449907 0.0111143505 0.052402407 0.02218857 -0.040220242 0.037103195 0.017002413
0.021742443 -0.026344087 -0.0462218 0.023955774 -0.015135366 -0.070309065 0.03625151 -0.018477563
0.0043822746 0.013349217 -0.03601593 0.0037144157 0.030923212 -0.014228493 -0.0064381114 -0.002686816
0.008977511 -0.01502029 -0.031078152 0.006400982 -0.028617334 0.008996558 0.003491313 0.044005215
-0.023126902 -0.039873976 -0.049911186 -0.018623155 0.02921597 -0.0466391 -0.009806536 -0.0038973535
0.039866265 -0.008139518 0.04591098 -0.021491414 -0.03558377 -0.02990912 0.011007625 -0.029283393
-0.07832467 0.051829003 0.014182001 0.019535484 -0.02337213 -0.035984453 -0.035971057 -0.021567972
00000000: 7457 0b3d 9ec9 12bd f325 47bd dd55 16bd
00000010: d9ba b53c f95c 433c 552f 6f3c 9784 73bc
00000020: 47a6 aa3c 3b1b 6f3d 692d b9bd 0019 d3bc
00000030: adaf 0e3c 30e2 cd3c c94f 363d 021f 463d
00000040: 66ab 5e3c 5fbc 8dba aa9a 5ebd 5683 71bd
00000050: 3d12 98bc 8533 503d 8ac3 f2bc 041a 863c
00000060: 0915 20bc ebb9 843c 7499 4dbb e841 293d
00000070: abc8 e0b9 3a69 163c cb29 233d d771 a1bb
00000080: 3343 f8bb aa58 1e3d e6db 6cbd 5ee2 bf3c
00000090: 60b2 bdbc d6bd 0cbd 7290 27ba 83ba 94bc
000000a0: 8a89 0abc d2f7 32bd bdf3 be3c 1227 543d
000000b0: c31f 863c dfc2 c3bc c5ee 513d e39c 09bc
000000c0: edd8 f5ba d4ba 9dbd 9c80 543c 65ef 223d
000000d0: 99eb 36bd 903e 003c 2c4c 87bc 17df 09bd
000000e0: cb93 69bc 9f81 31bb 535e 033d 4f70 afbc
000000f0: 90d5 01bc f6bc 86bc dca5 253d 8f1b 9f3c
00000100: e773 e73c e7b5 47bc 9705 143d 0c4e d43c
00000110: 0aad 853c bb31 d43c d4a2 bbbc c827 24bd
00000120: 4a07 4b3c b7b7 afbc f718 363c e8a3 563d
00000130: cec4 b53c fbbd 24bd 85f9 173d a548 8b3c
00000140: 351d b23c 8ecf d7bc 1253 3dbd e63e c43c
00000150: 53fa 77bc 33fe 8fbd 777c 143d 425e 97bc
00000160: 2f99 8f3b adb6 5a3c 7185 13bd 8e6d 733b
00000170: ad52 fd3c a01e 69bc cbf6 d2bb 4b15 30bb
00000180: 6916 133c aa17 76bc 9c97 febc 54bf d13b
00000190: e66e eabc 4d66 133c 83ce 643b d03e 343d
000001a0: a174 bdbc e552 23bd ac6f 4cbd 968f 98bc
000001b0: 5456 ef3c a408 3fbd 98ab 20bc be6a 7fbb
000001c0: cf4a 233d 9d5b 05bc 270d 3c3d c30e b0bc
000001d0: 4ac0 11bd f903 f5bc 5359 343c bae3 efbc
000001e0: af68 a0bd a64a 543d a05b 683c e108 a03c
000001f0: e976 bfbc 6f64 13bd 6356 13bd 51af b0bc

res.bn1.running_mean f4 [128]
-0.13459419 -0.3155687 0.38042095 0.018918071 -0.36187315 -0.29227555 -0.09164567 -0.2778151
0.028175812 -0.12810549 0.12504089 0.13672417 -0.080255516 -0.48076245 -0.34915876 0.7111438
-0.30107075 -0.08333023 0.16203396 0.28793082 -0.16397986 -0.647495 -0.047659714 -0.55152255
0.16551647 0.23067942 -0.034553252 -0.2886707 0.14149672 -0.3924863 -0.031092249 -0.17869279
0.2402874 -0.54542464 0.30928996 -0.34121037 0.4669754 -0.09483859 0.07326904 0.2556355
-0.12961511 0.32340375 0.25592932 -0.33362952 0.12935214 -0.2565312 -0.5790361 -0.43793625
0.05882756 -0.11499844 0.029723775 -0.028850704 -0.5305882 0.36623394 0.15241249 0.53655225
-0.2547969 0.16613044 0.32080722 0.17676918 -0.48833746 -1.0383934 -0.43438557 -0.45579135
0.55463433 0.5743114 -0.22118896 -0.01421205 -0.10896867 -0.21931662 0.50602865 0.45062298
-0.07266668 -0.30615413 0.22183184 -0.23642482 -0.39954337 -0.13428244 0.27355352 0.053938776
-0.51094496 0.20873861 0.086852096 0.06346398 -0.56693494 -0.5520364 -0.12368166 -0.5148326
0.26929864 -0.22687498 0.34341955 -0.21486858 -0.21099557 0.4192788 0.56015515 0.062194902
0.13396098 0.1600734 0.029463882 -0.7131868 0.4151214 -0.46469602 0.018221596 -0.23233916
-0.6734987 0.4821566 -0.5203348 0.07215682 0.5209741 0.31128204 -0.53688276 0.33389077
-0.42772785 -0.93476194 -0.17428282 -0.23145506 0.04159832 -0.2802131 -0.25886977 -0.10007997
0.104899615 -0.33785358 0.09207858 0.13063645 0.13850208 -0.38928312 0.3231425 -0.1576219
00000000: 0fd3 09be 3892 a1be 89c6 c23e 12fa 9a3c
00000010: 7047 b9be 24a5 95be bab0 bbbd c83d 8ebe
00000020: f6d0 e63c 162e 03be b80a 003e 6c01 0c3e
00000030: 015d a4bd 7f26 f6be f0c4 b2be 850d 363f
00000040: f225 9abe 0aa9 aabd 3bec 253e ab6b 933e
00000050: 56ea 27be 3bc2 25bf d536 43bd 9530 0dbf
00000060: 267d 293e 3a37 6c3e b687 0dbd a5cc 93be
00000070: 84e4 103e f7f3 c8be 2cb5 febc 3efb 36be
00000080: e60d 763e f3a0 0bbf 415b 9e3e 20b3 aebe
00000090: 6617 ef3e bc3a c2bd 140e 963d a8e2 823e
000000a0: d3b9 04be 2d95 a53e 2b09 833e 7dd1 aabe
000000b0: e374 043e 0f58 83be b63b 14bf 2e39 e0be
000000c0: 2bf5 703d 4d84 ebbd 467f f33c 5058 ecbc
000000d0: a1d4 07bf 0483 bb3e 0512 1c3e 7d5b 093f
000000e0: bd74 82be 191e 2a3e d840 a43e fb02 353e
000000f0: 5e07 fabe 13ea 84bf c967 debe 7c5d e9be
00000100: 84fc 0d3f 1206 133f 5c7f 62be a8d9 68bc
00000110: f72a dfbd 8994 60be 188b 013f 0eb8 e63e
00000120: 45d2 94bd 3cc0 9cbe e327 633e 5919 72be
00000130: f390 ccbe 5681 09be 350f 8c3e e8ee 5c3d
00000140: 4acd 02bf 93bf 553e 83df b13d 67f9 813d
00000150: a622 11bf 4252 0dbf cf4c fdbd 12cc 03bf
00000160: 83e1 893e ea51 68be b0d4 af3e 8206 5cbe
00000170: 390f 58be b6ab d63e 5466 0f3f 15c0 7e3d
00000180: 112d 093e 48ea 233e 3d5e f13c 6993 36bf
00000190: cb8a d43e a3ec edbe 7545 953c 51ea 6dbe
000001a0: 696a 2cbf 3bdd f63e a934 05bf f4c6 933d
000001b0: 8f5e 053f 5c60 9f3e 2671 09bf bbf3 aa3e
000001c0: 25ff dabe 8f4c 6fbf 3277 32be 8e02 6dbe
000001d0: 0063 2a3d 1778 8fbe 948a 84be baf6 ccbd
000001e0: 9cd5 d63d 25fb acbe b293 bc3d 90c5 053e
000001f0: 7dd3 0d3e 1e50 c7be ef72 a53e a367 21be

res.bn1.running_var f4 [128]
0.23068719 0.12500942 0.15117446 0.15420449 0.19547276 0.41989556 0.24258511 0.16493845
0.29195273 0.06222269 0.10714593 0.21366754 0.08229094 0.07992671 0.20182918 0.21394281
0.07172265 0.075069204 0.2406178 0.16672282 0.25794715 0.301473 0.19269061 0.1886746
0.14853838 0.25623456 0.10472533 0.23148866 0.022535508 0.32487616 0.05701144 0.14706933
0.2464117 0.25516033 0.258677 0.33678022 0.055301473 0.13294636 0.12134647 0.09128556
0.17594622 0.40393037 0.09943143 0.06733174 0.23571408 0.13664803 0.17797163 0.4026326
0.33056727 0.23212232 0.20596702 0.17865065 0.35491738 0.04556594 0.06453528 0.16922642
0.14013088 0.25508296 0.057372622 0.16807628 0.17257853 0.39681596 0.1413538 0.3442546
0.16486521 0.1505095 0.2731955 0.26141325 0.20678353 0.116278 0.09851633 0.11639736
0.4189968 0.07647869 0.1132064 0.6046078 0.46069825 0.059326615 0.17368528 0.16862096
0.07627962 0.09318183 0.14003931 0.20612508 0.06600739 0.22623736 0.31953982 0.16414337
0.14403619 0.16173884 0.13568868 0.18447016 0.19186844 0.07445727 0.24011709 0.17468278
0.08277614 0.13182193 0.044995114 0.25941452 0.17635603 0.096305884 0.20302214 0.20565753
0.136358 0.12240709 0.21253687 0.14754206 0.036664616 0.054843463 0.30403823 0.27175143
0.18608008 0.36731267 0.19046201 0.13030334 0.24036172 0.11117107 0.5027258 0.13995959
0.16375576 0.41884464 0.14895749 0.3826896 0.070576206 0.06438174 0.089667864 0.43283916
00000000: 4339 6c3e 7802 003e 7acd 1a3e c8e7 1d3e
00000010: 032a 483e 8dfc d63e 3b68 783e a0e5 283e
00000020: d47a 953e 38dd 7e3d 536f db3d aacb 5a3e
00000030: 2788 a83d 9db0 a33d 4fac 4e3e d313 5b3e
00000040: 53e3 923d e2bd 993d 8364 763e 63b9 2a3e
00000050: a611 843e ab5a 9a3e b050 453e ea33 413e
00000060: 721a 183e 2d31 833e 3c7a d63d 5d0b 6d3e
00000070: 639c b83c 2b56 a63e d484 693d 5899 163e
00000080: 5953 7c3e 60a4 823e 5071 843e 756e ac3e
00000090: cc83 623d 1723 083e 8084 f83d ecf3 ba3d
000000a0: 3f2b 343e f6cf ce3e b5a2 cb3d 39e5 893d
000000b0: 085f 713e 76ed 0b3e 323e 363e dc25 ce3e
000000c0: 1d40 a93e 79b1 6d3e 05e9 523e 32f0 363e
000000d0: bbb7 b53e 5aa3 3a3d 132b 843d b149 2d3e
000000e0: 787e 0f3e 3c9a 823e 8eff 6a3d 301c 2c3e
000000f0: 6db8 303e 762b cb3e 0dbf 103e 2442 b03e
00000100: 6dd2 283e 2a1f 1a3e 48e0 8b3e f5d7 853e
00000110: 10bf 533e 2923 ee3d eec2 c93d bd61 ee3d
00000120: c086 d63e dca0 9c3d c2d8 e73d 94c7 1a3f
00000130: a4e0 eb3e 7700 733d 8eda 313e f9aa 2c3e
00000140: 7d38 9c3d 1ed6 be3d 7766 0f3e 7412 533e
00000150: e22e 873d c4aa 673e b99a a33e 3315 283e
00000160: 397e 133e de9e 253e f9f1 0a3e bfe5 3c3e
00000170: 2979 443e 0e7d 983d 41e1 753e 0be0 323e
00000180: 8986 a93d 54fc 063e cc4c 383d fbd1 843e
00000190: ad96 343e 053c c53d 09e5 4f3e e397 523e
000001a0: 6ea1 0b3e 92b0 fa3d 44a3 593e 4415 173e
000001b0: a32d 163d 8aa3 603d e6aa 9b3e 0123 8b3e
000001c0: c78b 3e3e 6810 bc3e 7908 433e 3d6e 053e
000001d0: 6221 763e a8ad e33d a3b2 003f 9151 0f3e
000001e0: 97af 273e ce72 d63e 5088 183e e4ef c33e
000001f0: 428a 903d 93da 833d c9a3 b73d 189d dd3e

res.fc2.weight f4 [128, 128]
-0.04551745 -0.13400577 -0.097236656 -0.045162912 0.03552683 0.037229866 -0.018561216 -0.087685175
-0.044410095 -0.0053889994 0.0460209 0.0537842 -0.028424608 0.044217996 -0.027822398 -0.021075748
0.062098157 -0.062461805 0.026241928 -0.01527251 -0.0027386898 -0.020511013 0.021440895 -0.14340957
0.03729533 -0.07797229 -0.06333188 -0.015945444 -0.049783643 0.026925232 -0.11053331 0.043405004
0.014717632 0.048139017 -0.09155094 -0.086091585 0.021549001 0.06954205 0.057396896 0.010016237
-0.0015662054 -0.002078077 -0.020378254 0.0020842399 -0.088119194 -0.06422868 0.013062126 0.04326752
0.014011334 -0.06905714 -0.012972531 0.04977318 0.023363577 -0.08094625 -0.10117122 -0.01377664
0.053401727 -0.04407727 -0.03439823 0.018246872 -0.03510978 -0.010379375 0.024694547 0.061718818
0.0018252046 -0.02714329 -0.08807455 9.768961e-05 -0.007903245 -0.056408074 -0.116836734 -0.056916222
-0.06788316 -0.01680884 0.08629821 -0.01727028 0.05200662 -0.036005624 -0.064499594 -0.15931614
-0.061133225 0.023797061 0.031396694 0.06674588 0.05727995 0.09416176 -0.0029480841 0.11124956
-0.090401895 -0.05306526 -0.07552933 0.007278146 -0.05623226 -0.078620166 -0.00028569053 0.08365486
0.04230468 0.018876784 -0.02911901 -0.06284101 -0.11631723 0.07315357 0.012677334 0.06412079
-0.0747374 -0.012439125 -0.050438363 -0.07975414 -0.106330454 0.034284618 0.027105587 0.029913161
-0.013223871 0.065628715 0.077478066 0.019860504 -0.020357236 -0.089798644 0.07965741 -0.06933749
-0.070084944 0.048382726 -0.050576426 -0.020954866 -0.14723265 -0.01256343 -0.0737516 -0.010336755
-0.073396064 0.09920512 0.017677177 0.038173825 0.009979972 -0.0025165945 0.10428272 -0.006099892
0.045171008 0.06210769 -0.0735022 0.049698252 -0.0030844007 -0.07262215 0.025734728 -0.13732977
0.024827287 -0.058797702 -0.043583963 -0.110568516 0.053624194 0.013650626 0.0354181 -0.021449184
-0.102396876 0.010843316 0.053580422 -0.15047939 -0.06024258 -0.011624638 -0.058916852 -0.030298717
0.09368846 0.05935404 -0.10577077 -0.02948292 0.053598758 -0.008847894 -0.051111482 -0.0328818
-0.012400138 -0.01809766 -0.014919135 0.057630785 0.03257722 0.023119068 0.035617232 -0.054459248
-0.10608539 -0.008421693 -0.046204805 -0.04462708 -0.10754148 -0.039147664 -0.09148192 -0.019621065
0.037722055 0.03799605 -0.149363 0.090333104 0.031081794 0.052078016 0.053221986 -0.014384276
-0.105794415 0.018299922 -0.044011552 0.04673689 0.05765068 0.023775132 -0.07196725 -0.102374785
-0.03271276 0.04667359 0.018436061 -0.024534887 -0.055576615 0.024113635 0.027576806 0.020581905
0.052147705 -0.026337897 -0.011312073 -0.03512527 -0.11767258 0.085694045 0.019306924 -0.032092445
-0.0076146415 0.0729974 0.08499449 0.023726668 0.042026866 0.025173977 -0.011999426 -0.01628318
-0.016583033 0.033391133 -0.060187683 -0.09947371 0.023452377 -0.018703213 0.04703084 0.0075195665
-0.02910058 -0.04421077 0.019070843 -8.1983024e-05 -0.097994655 -0.08435058 -0.05902646 0.04779239
-0.06870367 -0.047789164 0.003372783 0.074503675 0.07185903 -0.004790681 -0.008823937 -0.08128306
0.09546896 0.031224137 -0.0061659315 -0.07860281 0.06379109 -0.14746833 -0.08456354 0.014459122
00000000: 8170 3abd cf38 09be 0324 c7bd bffc 38bd
00000010: 9584 113d 587e 183d b10d 98bc 4994 b3bd
00000020: 5ce7 35bd 3496 b0bb 6980 3c3d d24c 5c3d
00000030: b9da e8bc ee1d 353d cceb e3bc 0ca7 acbc
00000040: a35a 7e3d f3d7 7fbd 50f9 d63c 8d39 7abc
00000050: 977b 33bb b606 a8bc d1a4 af3c f5d9 12be
00000060: fdc2 183d f0af 9fbd 25b4 81bd 05a0 82bc
00000070: efe9 4bbd 4e92 dc3c 4a5f e2bd 72c9 313d
00000080: 3922 713c 6b2d 453d 0f7f bbbd c950 b0bd
00000090: 8887 b03c 106c 8e3d 0219 6b3d 251b 243c
000000a0: 2249 cdba 5930 08bb 4cf0 a6bc be97 083b
000000b0: d677 b4bd 548a 83bd 8702 563c 4839 313d
000000c0: cb8f 653c d46d 8dbd bd8a 54bc f6de 4b3d
000000d0: f964 bf3c 26c7 a5bd db32 cfbd 6bb7 61bc
000000e0: c5bb 5a3d 5e8a 34bd 29e5 0cbd 777a 953c
000000f0: 46cf 0fbd 410e 2abc 384c ca3c dfcc 7c3d
00000100: b43b ef3a 9b5b debc 6e60 b4bd b6de cc38
00000110: 9d7c 01bc 270c 67bd 1948 efbd fc20 69bd
00000120: 5406 8bbd b1b2 89bc 1ebd b03d 677a 8dbc
00000130: e504 553d a27a 13bd 5d18 84bd c523 23be
00000140: d566 7abd 0ef2 c23c d299 003d 10b2 883d
00000150: 619e 6a3d e1d7 c03d a534 41bb cfd6 e33d
00000160: a124 b9bd f55a 59bd 1faf 9abd 847d ee3b
00000170: cc53 66bd 9c03 a1bd bcc8 95b9 3d53 ab3d
00000180: ac47 2d3d 7ca3 9a3c fd8a eebc cab2 80bd
00000190: ba37 eebd 8ad1 953d 98b4 4f3c c351 833d
000001a0: ec0f 99bd 79cd 4bbc 7598 4ebd 2356 a3bd
000001b0: c8c3 d9bd 076e 0c3d 890c de3c 720c f53c
000001c0: efa8 58bc 5968 863d d2ac 9e3d 7fb2 a23c
000001d0: 38c4 a6bc 5ae8 b7bd 6d23 a33d d000 8ebd
000001e0: b288 8fbd f72c 463d 3a29 4fbd 8aa9 abbc
000001f0: 28c4 16be d8d6 4dbc 140b 97bd 7e5b 29bc
00000200: ad50 96bd 0e2c cb3d bacf 903c 285c 1c3d
00000210: 0983 233c 73ed 24bb 2e92 d53d 9ae1 c7bb
00000220: 3c05 393d a264 7e3d 5288 96bd 6590 4b3d
00000230: a823 4abb ecba 94bd a3d1 d23c 2da0 0cbe
00000240: 9862 cb3c dcd5 70bd 1985 32bd bf71 e2bd
00000250: 0ba5 5b3d e0a6 5f3c 9212 113d 33b6 afbc
00000260: 74b5 d1bd 2aa8 313c 2577 5b3d 4517 1abe
00000270: ecc0 76bd 4475 3ebc cc52 71bd 0435 f8bc
00000280: bcdf bf3d 391d 733d 589e d8bd 2a86 f1bc
00000290: 5f8a 5b3d c2f6 10bc 465a 51bd 11af 06bd
000002a0: f329 4bbc 8b41 94bc 636f 74bc 420e 6c3d
000002b0: b16f 053d 3364 bd3c 60e3 113d a910 5fbd
000002c0: 4c43 d9bd 24fb 09bc 4041 3dbd e3ca 36bd
000002d0: b53e dcbd 4d59 20bd df5a bbbd 5bbc a0bc
000002e0: 7182 1a3d bfa1 1b3d 9df2 18be 9000 b93d
000002f0: 3f9f fe3c c24f 553d 4cff 593d 07ac 6bbc
00000300: beaa d8bd b8e9 953c 7545 34bd 2e6f 3f3d
00000310: 1f23 6c3d 11c4 c23c 9163 93bd dfa9 d1bd
00000320: d1fd 05bd ce2c 3f3d 3907 973c 63fd c8bc
00000330: 4ea4 63bd f589 c53c c1e8 e13c 629b a83c
00000340: d598 553d 93c2 d7bc 4656 39bc 84df 0fbd
00000350: 52fe f0bd 5c80 af3d 8e29 9e3c 5e73 03bd
00000360: 3e84 f9bb a97f 953d 9711 ae3d 6e5e c23c
00000370: 5d24 2c3d a839 ce3c 3e99 44bc 4e64 85bc
00000380: 24d9 87bc 24c5 083d 5c87 76bd dfb8 cbbd
00000390: 331f c03c 7b37 99bc 69a3 403d b266 f63b
000003a0: 5764 eebc 5a16 35bd 753a 9c3c 4dee abb8
000003b0: 6cb1 c8bd ffbf acbd bbc5 71bd f4c1 433d
000003c0: 82b4 8cbd 92be 43bd e909 5d3b 6295 983d
000003d0: d42a 933d 25fb 9cbb 4692 10bc bc77 a6bd
000003e0: 3b85 c33d c3c9 ff3c 950b cabb 83fa a0bd
000003f0: e7a4 823d f001 17be a62f adbd f4e5 6c3c

res.fc2.bias f4 [128]
0.0644349 0.10953959 0.08849196 0.08829642 -0.062057592 0.007116133 0.07946721 0.04087094
0.06553511 0.075874366 -0.02275815 0.03472422 0.06518594 0.025151944 -0.0528684 0.019907448
0.06836551 0.026328724 0.0210688 0.00640421 0.071482494 0.03892678 -0.01178384 0.0021977979
-0.04284174 0.019766761 -0.066223584 0.014775289 0.057073195 -0.08191951 0.010490193 -0.033963565
-0.047754366 0.04755757 0.022527972 -0.037334554 0.05912108 0.021217616 -0.06670523 -0.020227
-0.051063694 -0.05282191 0.09209649 -0.0007157147 -0.008324641 -0.01087478 -0.028526245 -0.049976647
0.002501012 -0.04686021 0.043540433 0.019171923 -0.09685868 -0.07026737 -0.08072381 0.008551902
0.059042625 0.033197813 0.005399218 0.058375876 -0.019740403 0.061805315 -0.072738454 -0.022203231
-0.012006281 -0.06870124 0.03599654 0.04911587 0.026593173 0.017243594 0.078129046 -0.0037922936
-0.016009443 0.03723027 -0.06271471 -0.05726552 -0.019795699 0.06019136 -0.03399028 0.025376173
-0.006307218 0.057375208 0.010632303 -0.043931093 -0.06538009 0.06362412 -0.07814335 -0.025958564
0.0774705 0.027166769 -0.0026741507 -0.0557048 -0.019020945 0.014674524 0.042486683 -0.030032827
-0.010071972 0.04326873 -0.09065125 -0.013610933 -0.083941266 -0.027732866 -0.060522605 0.03661277
-0.052847113 -0.0800888 -0.018569477 -0.04008929 -0.04863754 -0.019930506 0.036212172 -0.081713974
-0.07691019 -0.010488827 0.03804788 0.0043715406 0.091965035 0.027543627 -0.048906013 0.0515179
-0.030548608 0.06257316 -0.027078308 0.06093309 -0.004893365 -0.04159493 -0.054173935 0.08921713
00000000: 72f6 833d 4b56 e03d 463b b53d c1d4 b43d
00000010: 1a30 7ebd 732e e93b b4bf a23d 4968 273d
00000020: 4637 863d 0564 9b3d 4d6f babc fc3a 0e3d
00000030: 3580 853d 730b ce3c 898c 58bd f214 a33c
00000040: 3703 8c3d 56af d73c 7a98 ac3c 68da d13b
00000050: 6a65 923d b071 1f3d 0211 41bc ee08 103b
00000060: d27a 2fbd e7ed a13c 3ba0 87bd 0e14 723c
00000070: 95c5 693d 6bc5 a7bd 0fdf 2b3c 611d 0bbd
00000080: 159a 43bd bacb 423d 958c b83c 1eec 18bd
00000090: f228 723d 91d0 ad3c c09c 88bd 18b3 a5bc
000000a0: 2a28 51bd c95b 58bd 169d bc3d cd9e 3bba
000000b0: 1364 08bc 222c 32bc dfaf e9bc 50b4 4cbd
000000c0: 05e8 233b 7ef0 3fbd 7457 323d 700e 9d3c
000000d0: d85d c6bd 57e8 8fbd 8652 a5bd 471d 0c3c
000000e0: aed6 713d 6efa 073d eceb b03b 8b1b 6f3d
000000f0: a0b6 a1bc 9227 7d3d e6f7 94bd 8de3 b5bc
00000100: feb5 44bc 3cb3 8cbd 1c71 133d b92d 493d
00000110: edd9 d93c 7042 8d3c 1f02 a03d 2188 78bb
00000120: 3c26 83bc c57e 183d 9270 80bd 408f 6abd
00000130: 972a a2bc 378b 763d 6439 0bbd b1e1 cf3c
00000140: c8ac cebb 4402 6b3d 1c33 2e3c 17f1 33bd
00000150: ffe5 85bd 5d4d 823d 9f09 a0bd 0ea7 d4bc
00000160: daa8 9e3d d88c de3c ce40 2fbb b72a 64bd
00000170: d0d1 9bbc 6a6d 703c 8406 2e3d 6707 f6bc
00000180: ea04 25bc 8d3a 313d 5da7 b9bd 6400 5fbc
00000190: 66e9 abbd 0930 e3bc 8de6 77bd 46f7 153d
000001a0: 3776 58bd 9905 a4bd 041f 98bc ab34 24bd
000001b0: 2838 47bd 4d45 a3bc 3753 143d a859 a7bd
000001c0: 1783 9dbd 54d9 2bbc 18d8 1b3d 243f 8f3b
000001d0: 2a58 bc3d 2ca3 e13c ac51 48bd 6f04 533d
000001e0: 1341 fabc 5b26 803d 54d3 ddbc fa94 793d
000001f0: 8558 a0bb 725f 2abd 7de5 5dbd 78b7 b63d

res.bn2.weight f4 [128]
1.0278033 1.0485809 0.99439764 1.0512046 0.983345 0.97198236 0.9558742 0.957573
0.99459636 1.0703006 1.010258 0.9686909 1.0275322 1.004189 1.0379505 1.0220395
0.9908986 0.96677357 1.0517721 1.0702808 1.0115736 0.98906684 1.0314065 1.0160247
0.96537423 0.99402833 0.9938413 1.024678 0.98234946 0.97315717 1.0223073 0.9749564
0.98775804 1.0350688 1.0145711 1.0481167 0.98641074 0.9697485 0.96501845 1.0122037
1.0366026 1.1029917 0.97699416 1.0136207 0.97642434 1.0136025 0.98344404 0.99613166
1.037142 0.9810007 0.9962013 1.0109754 1.0086019 1.09212 1.0134017 0.9757474
0.98443216 1.0149456 1.0389808 0.98806965 0.99455595 1.0636374 0.9903056 0.97837037
0.9780573 0.9939222 1.0131222 1.0460821 1.0211895 1.0101619 0.98209673 1.025808
1.028137 0.97591674 0.98160297 0.98116434 0.9969089 0.98694146 1.0908773 1.0123714
1.0793017 1.0399563 0.9996656 1.0165551 1.0094858 0.98756486 0.9958946 1.0286887
1.036694 0.97438985 1.0148721 0.986871 1.017173 0.9794234 1.0486468 0.9917599
1.0562989 0.98527914 1.0392084 0.9699116 0.94983965 0.9839563 1.0024483 0.96698916
1.0037084 0.9885326 1.0199205 1.0202696 1.049851 0.99647105 0.99508625 0.9623809
1.0952351 1.0789912 0.993586 0.9778281 1.0115547 0.9824426 0.99536115 0.979637
1.0184767 1.0633633 0.9969177 0.9965651 0.97129107 0.9862989 1.0062428 1.0009094
00000000: 0f8f 833f e637 863f d890 7e3f df8d 863f
00000010: 7fbc 7b3f d6d3 783f 2cb4 743f 8123 753f
00000020: de9d 7e3f 9cff 883f 2250 813f 20fc 773f
00000030: 2d86 833f 4489 803f 90db 843f 31d2 823f
00000040: 88ab 7d3f 797e 773f 78a0 863f f6fe 883f
00000050: 3e7b 813f 7c33 7d3f 2105 843f 190d 823f
00000060: c422 773f a478 7e3f 626c 7e3f a628 833f
00000070: 417b 7b3f d420 793f f7da 823f be96 793f
00000080: b6dd 7c3f 227d 843f 77dd 813f b028 863f
00000090: 6a85 7c3f 7041 783f 730b 773f e48f 813f
000000a0: 65af 843f d52e 8d3f 4a1c 7a3f 53be 813f
000000b0: f2f6 793f babd 813f fdc2 7b3f 7c02 7f3f
000000c0: 12c1 843f dd22 7b3f 0c07 7f3f a467 813f
000000d0: de19 813f 97ca 8b3f 26b7 813f 95ca 793f
000000e0: bf03 7c3f bde9 813f 53fd 843f 22f2 7c3f
000000f0: 389b 7e3f 4525 883f ab84 7d3f 7b76 7a3f
00000100: f761 7a3f af71 7e3f fdad 813f 05e6 853f
00000110: 56b6 823f fc4c 813f b16a 7b3f ad4d 833f
00000120: fe99 833f aed5 793f 554a 7b3f 962d 7b3f
00000130: 6c35 7f3f 32a8 7c3f dea1 8b3f 6395 813f
00000140: 8f26 8a3f 4a1d 853f 16ea 7f3f 7a1e 823f
00000150: d536 813f 0dd1 7c3f f3f2 7e3f 12ac 833f
00000160: 64b2 843f 9d71 793f 54e7 813f 94a3 7c3f
00000170: ba32 823f 7ebb 7a3f 0f3a 863f fae3 7d3f
00000180: cd34 873f 413b 7c3f c804 853f 204c 783f
00000190: b128 733f 8fe4 7b3f 3a50 803f 9a8c 773f
000001a0: 8479 803f 7910 7d3f c18c 823f 3298 823f
000001b0: 8461 863f ba18 7f3f f9bd 7e3f 985e 763f
000001c0: aa30 8c3f 621c 8a3f a75b 7e3f f152 7a3f
000001d0: a07a 813f 5c81 7b3f fdcf 7e3f 7ec9 7a3f
000001e0: 725d 823f 4a1c 883f 0036 7f3f e41e 7f3f
000001f0: 88a6 783f 167e 7c3f 90cc 803f cd1d 803f
