python/final_model.pth (torch, 23621 bytes, 8 tensors)

fc1.weight f4 [64, 7]
0	0x3e0e0442	0.13868812
1	0xbea7ce4c	-0.3277458
2	0x3e4be2f2	0.19910792
3	0x3b4a3a00	0.0030857325
4	0x3ea8ca13	0.3296667
5	0xbd8403bc	-0.06446025
6	0xbe6a8f13	-0.22906141
7	0x3eb40d11	0.3516622
8	0xbea0f39c	-0.3143586
9	0xbd437ef8	-0.04772851
10	0x3e4dac2e	0.20085213
11	0x3daf2fd8	0.08554047
12	0xbe893192	-0.26795632
13	0x3d3c3808	0.045951873
14	0xbe24a068	-0.16076815
15	0xbdc753b4	-0.09732762
16	0x3eaa3ae3	0.33248052
17	0xbc54b340	-0.01298219
18	0x3e9fcebd	0.31212416
19	0xbdc69610	-0.09696591
20	0x3d36c478	0.04462096
21	0x3ddd06cc	0.10792312
22	0xbe75a5d6	-0.23989043
23	0x3d8abe44	0.067745715
24	0x3e70479e	0.2346482
25	0xbebb0192	-0.36524636
26	0xbdbe2a7c	-0.09285447
27	0x3d24ff90	0.040282786
28	0x3ea6039f	0.32424638
29	0xbea6856d	-0.3252367
30	0xbd8e9b68	-0.06963235
31	0xbe881a2a	-0.26582462
32	0xbcff2c30	-0.031149
33	0x3e1953fa	0.14973441
34	0xbeab3bf2	-0.33444172
35	0xbdffe53c	-0.12494895
36	0xbe97dbeb	-0.29659972
37	0xbe7faa59	-0.24967326
38	0xbe7c41e6	-0.24634513
39	0xbeb43cbc	-0.35202587
40	0xbe14a56a	-0.14516225
41	0x3e370f2e	0.17876884
42	0xbea427c6	-0.32061595
43	0x3db62580	0.08893871
44	0xbe8c1f00	-0.273674
45	0x3e25d402	0.16194156
46	0x3e98cd57	0.29844162
47	0xbe394068	-0.18090975
48	0xbd89cb54	-0.06728235
49	0xbe314102	-0.17309955
50	0x3dc26940	0.09492731
51	0xbe598655	-0.2124265
52	0xbd272b98	-0.04081306
53	0x3cbe4bc0	0.02322948
54	0xbd4965d8	-0.04916939
55	0x3c2c9c60	0.01053533
56	0xbe432eae	-0.19060776
57	0x3dd25acc	0.102712244
58	0x3afa1200	0.0019078851
59	0xbd5452f0	-0.051836908
60	0xbbbb5a80	-0.0057175756
61	0x3db3e558	0.08783978
62	0x3eadadc7	0.33921644
63	0xbea74d58	-0.32676196
64	0x3e41fe9e	0.18944785
65	0xbe43610e	-0.19079992
66	0x3d6693d8	0.05629334
67	0x3d5bb8f8	0.053643197
68	0x3e6bfd3e	0.23045823
69	0x3e13472a	0.14382616
70	0xbe3924ec	-0.18080491
71	0x3df77290	0.12082398
72	0xbde966e4	-0.11396578
73	0x3e0fca06	0.1404191
74	0x3c3fee00	0.011714458
75	0x3e9c9ccd	0.3058838
76	0xbe3a6922	-0.18204167
77	0x3e6a1806	0.22860727
78	0x3ce5d3d0	0.028055102
79	0xbe0a7cff	-0.13524245
80	0x3e044f42	0.1292086
81	0xbebfd075	-0.37463728
82	0xbe8c7508	-0.27433038
83	0xbdf4d714	-0.119550854
84	0x3e542be6	0.20719871
85	0xbdb6f918	-0.089342296
86	0x3e635ec6	0.22204122
87	0x3e0c49ae	0.13699982
88	0xbd163360	-0.03667009
89	0xbeb60e78	-0.35557914
90	0x3e9442e7	0.28957292
91	0xbd28b9d0	-0.04119283
92	0xbe809d8f	-0.25120208
93	0x3df3ec50	0.119103074
94	0x3e8d9b29	0.2765744
95	0xbeb91ad0	-0.3615327
96	0x3e242912	0.16031292
97	0xbc861f70	-0.016372412
98	0xbe2cddcb	-0.16881482
99	0xbe8a5514	-0.27018034
100	0x3e644872	0.2229326
101	0x3daf11e0	0.08548331
102	0x3d8266e4	0.06367281
103	0xbe26753d	-0.1625566
104	0x3dc62b3c	0.09676215
105	0xbe3d25b0	-0.18471408
106	0x3d88f6b4	0.0668768
107	0x3e1caac6	0.1529952
108	0x3ca80310	0.020509273
109	0xbce1b880	-0.027553797
110	0x3eaad297	0.33363792
111	0xbe1be563	-0.15224223
112	0xbe8c2f35	-0.27379766
113	0xbe3a5c5d	-0.18199296
114	0xbd890498	-0.06690329
115	0xbd80274c	-0.06257495
116	0xbe1adb4a	-0.15122715
117	0xbdc7c28c	-0.09753904
118	0x3c81b670	0.015834063
119	0xbea5ba8e	-0.32368892
120	0x3e9400d1	0.28906873
121	0xbeacce18	-0.33750987
122	0x3e3ff4b2	0.18745688
123	0x3eb62cf9	0.35581186
124	0x3e89ba59	0.26899984
125	0xbc726720	-0.014795095
126	0x3ea0803f	0.31347844
127	0xbd8029a0	-0.06257939
128	0xbc618fc0	-0.013767183
129	0xbe5278e7	-0.20553933
130	0xbb99cac0	-0.004693359
131	0xbd44e310	-0.048068106
132	0x3ea44649	0.32084873
133	0xbe2e644a	-0.17030445
134	0xbe92a8e3	-0.28644475
135	0xbeac3a7a	-0.33638364
136	0xbd87e858	-0.06636113
137	0xbec07dbe	-0.37595934
138	0x3c9fc810	0.019504577
139	0xbebdf1ea	-0.37098628
140	0xbe8cd349	-0.27504948
141	0xbebb9c80	-0.36642838
142	0xbeb950df	-0.36194512
143	0xbea008f2	-0.31256825
144	0x3ec00a51	0.3750787
145	0x3ddff194	0.10934749
146	0xbe7397d0	-0.2378838
147	0xbd2cb338	-0.042163104
148	0xbe424231	-0.18970563
149	0x3dde7070	0.108612895
150	0xbe6eef0a	-0.23333374
151	0x3e3ea3d2	0.1861718
152	0x3e98b169	0.29822853
153	0x3eb55fab	0.3542455
154	0x3e98adb9	0.2982004
155	0x3ea01aa7	0.31270334
156	0x3e42288e	0.18960783
157	0xbdd8f954	-0.105944306
158	0xbea1c708	-0.3159716
159	0x3e460016	0.1933597
160	0xbdb0a2c4	-0.08624795
161	0xbde7c660	-0.11317134
162	0x3e835b2d	0.256555
163	0x3d30f070	0.04319805
164	0xbea4dffd	-0.3220214
165	0x3db0d2f0	0.08633983
166	0x3e2fde0a	0.17174545
167	0xbe153262	-0.14570001
168	0xbe6904ae	-0.22755691
169	0x3e8ecc29	0.27890137
170	0xbe91473b	-0.28374657
171	0xbe81ebb1	-0.2537513
172	0xbe2d5075	-0.16925223
173	0xbeb70787	-0.3574793
174	0x3ea6eab5	0.32600942
175	0x3e7ed15a	0.24884549
176	0x3d1fcd18	0.039013952
177	0x3e8c3ba9	0.27389267
178	0xbda714e4	-0.081582814
179	0xbe5f1ddf	-0.21788739
180	0x3e5fb71a	0.21847191
181	0x3e8aba53	0.2709528
182	0xbe4209da	-0.1894907
183	0x3ebfad47	0.37436888
184	0x3d091a40	0.0334723
185	0xbcfdcd80	-0.03098178
186	0xbd5c12b8	-0.05372879
187	0x3e8c31d7	0.27381775
188	0xbe9f325c	-0.3109311
189	0x3ea3c8a7	0.31989023
190	0xbea9b22f	-0.33143756
191	0x3d9fd658	0.07804555
192	0xbd2087d8	-0.03919205
193	0x3e94afcf	0.2904038
194	0x3e9ff857	0.31244156
195	0x3e1cef32	0.15325621
196	0xbe93282e	-0.28741592
197	0xbe723114	-0.23651534
198	0x3e0f5976	0.1399897
199	0x3e970863	0.29498586
200	0x3e2214c6	0.15828237
201	0x3e8f7091	0.2801557
202	0xbc440ea0	-0.0119663775
203	0x3eb744b7	0.35794613
204	0x3d3a11b8	0.045427054
205	0xbea00ea2	-0.31261164
206	0xbeaa5e0f	-0.33274886
207	0xbe535b9c	-0.20640415
208	0xbe675c46	-0.22593793
209	0xbe99a819	-0.3001106
210	0xbde1361c	-0.10996649
211	0x3ce965b0	0.028490871
212	0x3d9d7ef4	0.0769023
213	0x3ddfbab0	0.1092428
214	0xbe50a00e	-0.20373556
215	0x3e29f28a	0.16596428
216	0xbe9b8188	-0.30372262
217	0x3e86cfa9	0.26330307
218	0xbda2538c	-0.079260916
219	0x3d8b0070	0.06787193
220	0x3e8df791	0.2772794
221	0x3e47400e	0.19458029
222	0xbe1c3550	-0.15254712
223	0x3d88a3e8	0.06671888
224	0xbdbb63e4	-0.09149912
225	0x3e00839a	0.12550202
226	0xbe2ce11d	-0.16882749
227	0x3d23d898	0.04000148
228	0x3e826197	0.2546508
229	0xbeadeb9b	-0.33968815
230	0xbec12591	-0.37723973
231	0xbe4eff9f	-0.20214699
232	0x3ebd233f	0.36940953
233	0xbe24fb9b	-0.16111605
234	0xbe98f54d	-0.2987465
235	0x3cb77490	0.022394449
236	0x3eb9ebcb	0.36312708
237	0xbe100990	-0.14066148
238	0xbe406af4	-0.187908
239	0x3eb46773	0.35235175
240	0xbe41a9ca	-0.18912426
241	0x3eb2e5d7	0.3494098
242	0x3e9da19d	0.30787364
243	0xbe3ce8f8	-0.18448246
244	0x3e1b5dd6	0.15172514
245	0xbe5404ae	-0.2070491
246	0xbdc9c71c	-0.0985243
247	0x3e601e66	0.21886596
248	0x3ceba2e0	0.028764188
249	0xbec0f6fd	-0.37688437
250	0xbeaeb0ab	-0.34119162
251	0x3ec0d7e3	0.37664708
252	0xbe22c319	-0.15894736
253	0xbe7caecd	-0.24676056
254	0x3cc39510	0.02387479
255	0xbdf8686c	-0.12129292

fc1.bias f4 [64]
0	0x3decd224	0.11563519
1	0xbe350d5b	-0.17680876
2	0xbeaed512	-0.34146935
3	0xbe93d9c2	-0.28877074
4	0xbe402e1c	-0.1876759
5	0xbcb1ccf0	-0.021704167
6	0x3eaf29bd	0.3421153
7	0xbeb30df0	-0.3497157
8	0xbe339dfa	-0.17540732
9	0x3eaf8711	0.34282735
10	0x3e08a7f6	0.13345322
11	0x3eb88781	0.3604088
12	0xbe18926c	-0.14899606
13	0x3e7552ea	0.2395741
14	0x3eae6939	0.34064654
15	0x3ebae8f1	0.36505845
16	0x3e115ff2	0.14196756
17	0x3e923fc9	0.2856429
18	0x3e705406	0.23469552
19	0x3e83caa1	0.2574053
20	0xbe8da2aa	-0.27663165
21	0xbe03ea9e	-0.12882468
22	0x3e9eaa3d	0.30989257
23	0xbe16e7d8	-0.14736879
24	0xbb7c5080	-0.003850013
25	0xbd170720	-0.03687203
26	0x3e817af1	0.2528911
27	0xbe20b89c	-0.15695423
28	0x3e91bd55	0.2846476
29	0x3e074ba2	0.13212445
30	0x3ccf2d90	0.02529028
31	0x3eae8f59	0.3409374
32	0x3e8b1d43	0.27170762
33	0x3eb7cf23	0.3590022
34	0x3e529872	0.20565966
35	0x3ea2fa7b	0.31831726
36	0x3d74da70	0.05977863
37	0xbeb580bd	-0.35449782
38	0x3e668712	0.22512463
39	0xbe83f4ab	-0.25772604
40	0xbebef96a	-0.37299663
41	0x3d2717f0	0.040794313
42	0xbdf3a50c	-0.118967146
43	0x3c24ffc0	0.010070741
44	0xbdcb471c	-0.099256724
45	0xbeba852e	-0.36429733
46	0xbcd992a0	-0.026559174
47	0x3e97cc67	0.29648134
48	0x3e803b8d	0.25045434
49	0xbe884ffe	-0.2662353
50	0xbe2eb358	-0.17060602
51	0x3e22c23e	0.1589441
52	0xbe2af36e	-0.16694424
53	0xbe8074fc	-0.25089252
54	0x3ead4629	0.3384259
55	0x3e52407a	0.20532408
56	0x3d848278	0.064701974
57	0x3e365d66	0.17809066
58	0xbdad219c	-0.08453676
59	0xbe98c89a	-0.29840547
60	0x3d103890	0.035210192
61	0x3df103b4	0.117682844
62	0x3dc56548	0.096384585
63	0xbe468d0a	-0.1938974

bn1.weight f4 [64]
0	0x3f800000	1.0
1	0x3f800000	1.0
2	0x3f800000	1.0
3	0x3f800000	1.0
4	0x3f800000	1.0
5	0x3f800000	1.0
6	0x3f800000	1.0
7	0x3f800000	1.0
8	0x3f800000	1.0
9	0x3f800000	1.0
10	0x3f800000	1.0
11	0x3f800000	1.0
12	0x3f800000	1.0
13	0x3f800000	1.0
14	0x3f800000	1.0
15	0x3f800000	1.0
16	0x3f800000	1.0
17	0x3f800000	1.0
18	0x3f800000	1.0
19	0x3f800000	1.0
20	0x3f800000	1.0
21	0x3f800000	1.0
22	0x3f800000	1.0
23	0x3f800000	1.0
24	0x3f800000	1.0
25	0x3f800000	1.0
26	0x3f800000	1.0
27	0x3f800000	1.0
28	0x3f800000	1.0
29	0x3f800000	1.0
30	0x3f800000	1.0
31	0x3f800000	1.0
32	0x3f800000	1.0
33	0x3f800000	1.0
34	0x3f800000	1.0
35	0x3f800000	1.0
36	0x3f800000	1.0
37	0x3f800000	1.0
38	0x3f800000	1.0
39	0x3f800000	1.0
40	0x3f800000	1.0
41	0x3f800000	1.0
42	0x3f800000	1.0
43	0x3f800000	1.0
44	0x3f800000	1.0
45	0x3f800000	1.0
46	0x3f800000	1.0
47	0x3f800000	1.0
48	0x3f800000	1.0
49	0x3f800000	1.0
50	0x3f800000	1.0
51	0x3f800000	1.0
52	0x3f800000	1.0
53	0x3f800000	1.0
54	0x3f800000	1.0
55	0x3f800000	1.0
56	0x3f800000	1.0
57	0x3f800000	1.0
58	0x3f800000	1.0
59	0x3f800000	1.0
60	0x3f800000	1.0
61	0x3f800000	1.0
62	0x3f800000	1.0
63	0x3f800000	1.0

bn1.bias f4 [64]
0	0x00000000	0.0
1	0x00000000	0.0
2	0x00000000	0.0
3	0x00000000	0.0
4	0x00000000	0.0
5	0x00000000	0.0
6	0x00000000	0.0
7	0x00000000	0.0
8	0x00000000	0.0
9	0x00000000	0.0
10	0x00000000	0.0
11	0x00000000	0.0
12	0x00000000	0.0
13	0x00000000	0.0
14	0x00000000	0.0
15	0x00000000	0.0
16	0x00000000	0.0
17	0x00000000	0.0
18	0x00000000	0.0
19	0x00000000	0.0
20	0x00000000	0.0
21	0x00000000	0.0
22	0x00000000	0.0
23	0x00000000	0.0
24	0x00000000	0.0
25	0x00000000	0.0
26	0x00000000	0.0
27	0x00000000	0.0
28	0x00000000	0.0
29	0x00000000	0.0
30	0x00000000	0.0
31	0x00000000	0.0
32	0x00000000	0.0
33	0x00000000	0.0
34	0x00000000	0.0
35	0x00000000	0.0
36	0x00000000	0.0
37	0x00000000	0.0
38	0x00000000	0.0
39	0x00000000	0.0
40	0x00000000	0.0
41	0x00000000	0.0
42	0x00000000	0.0
43	0x00000000	0.0
44	0x00000000	0.0
45	0x00000000	0.0
46	0x00000000	0.0
47	0x00000000	0.0
48	0x00000000	0.0
49	0x00000000	0.0
50	0x00000000	0.0
51	0x00000000	0.0
52	0x00000000	0.0
53	0x00000000	0.0
54	0x00000000	0.0
55	0x00000000	0.0
56	0x00000000	0.0
57	0x00000000	0.0
58	0x00000000	0.0
59	0x00000000	0.0
60	0x00000000	0.0
61	0x00000000	0.0
62	0x00000000	0.0
63	0x00000000	0.0

bn1.running_mean f4 [64]
0	0x3decd21a	0.11563511
1	0xbe350d59	-0.17680873
2	0xbeaed50b	-0.34146914
3	0xbe93d9bd	-0.2887706
4	0xbe402e18	-0.18767583
5	0xbcb1cced	-0.021704162
6	0x3eaf29bb	0.34211525
7	0xbeb30de7	-0.34971544
8	0xbe339df7	-0.17540728
9	0x3eaf870d	0.34282723
10	0x3e08a7ee	0.1334531
11	0x3eb88777	0.3604085
12	0xbe189269	-0.14899601
13	0x3e7552e6	0.23957404
14	0x3eae6931	0.3406463
15	0x3ebae8eb	0.36505827
16	0x3e115fe9	0.14196743
17	0x3e923fc7	0.28564283
18	0x3e7053fe	0.2346954
19	0x3e83ca9e	0.25740522
20	0xbe8da2a3	-0.27663144
21	0xbe03ea97	-0.12882458
22	0x3e9eaa37	0.3098924
23	0xbe16e7cf	-0.14736865
24	0xbb7c5078	-0.0038500112
25	0xbd170719	-0.036872003
26	0x3e817aeb	0.2528909
27	0xbe20b895	-0.15695412
28	0x3e91bd4f	0.28464743
29	0x3e074b9c	0.13212436
30	0x3ccf2d8c	0.025290273
31	0x3eae8f51	0.34093717
32	0x3e8b1d3f	0.2717075
33	0x3eb7cf21	0.35900214
34	0x3e52986e	0.2056596
35	0x3ea2fa79	0.3183172
36	0x3d74da64	0.059778586
37	0xbeb580b3	-0.35449752
38	0x3e66870c	0.22512454
39	0xbe83f4a6	-0.2577259
40	0xbebef963	-0.37299642
41	0x3d2717e9	0.040794287
42	0xbdf3a504	-0.118967086
43	0x3c24ffbd	0.010070738
44	0xbdcb4712	-0.09925665
45	0xbeba8527	-0.36429712
46	0xbcd9929a	-0.026559163
47	0x3e97cc5d	0.29648104
48	0x3e803b86	0.25045413
49	0xbe884ff6	-0.26623505
50	0xbe2eb355	-0.17060597
51	0x3e22c239	0.15894403
52	0xbe2af369	-0.16694416
53	0xbe8074f7	-0.25089237
54	0x3ead4623	0.33842573
55	0x3e524076	0.20532402
56	0x3d848272	0.06470193
57	0x3e365d5d	0.17809053
58	0xbdad2193	-0.084536694
59	0xbe98c897	-0.29840538
60	0x3d103885	0.03521015
61	0x3df103a8	0.117682755
62	0x3dc56540	0.096384525
63	0xbe468cfe	-0.19389722

bn1.running_var f4 [64]
0	0x00000004	6e-45
1	0x00000004	6e-45
2	0x2546318b	1.7190548e-16
3	0x00000004	6e-45
4	0x00000004	6e-45
5	0x00000004	6e-45
6	0x2546318b	1.7190548e-16
7	0x00000004	6e-45
8	0x2446318b	4.297637e-17
9	0x2546318b	1.7190548e-16
10	0x00000004	6e-45
11	0x2546318b	1.7190548e-16
12	0x00000004	6e-45
13	0x2446318b	4.297637e-17
14	0x2546318b	1.7190548e-16
15	0x2546318b	1.7190548e-16
16	0x00000004	6e-45
17	0x2546318b	1.7190548e-16
18	0x00000004	6e-45
19	0x2546318b	1.7190548e-16
20	0x00000004	6e-45
21	0x00000004	6e-45
22	0x2546318b	1.7190548e-16
23	0x00000004	6e-45
24	0x00000004	6e-45
25	0x00000004	6e-45
26	0x2546318b	1.7190548e-16
27	0x00000004	6e-45
28	0x2546318b	1.7190548e-16
29	0x00000004	6e-45
30	0x00000004	6e-45
31	0x2546318b	1.7190548e-16
32	0x00000004	6e-45
33	0x00000004	6e-45
34	0x2446318b	4.297637e-17
35	0x00000004	6e-45
36	0x00000004	6e-45
37	0x2546318b	1.7190548e-16
38	0x2446318b	4.297637e-17
39	0x00000004	6e-45
40	0x2546318b	1.7190548e-16
41	0x00000004	6e-45
42	0x00000004	6e-45
43	0x00000004	6e-45
44	0x00000004	6e-45
45	0x00000004	6e-45
46	0x00000004	6e-45
47	0x00000004	6e-45
48	0x2546318b	1.7190548e-16
49	0x00000004	6e-45
50	0x00000004	6e-45
51	0x00000004	6e-45
52	0x00000004	6e-45
53	0x00000004	6e-45
54	0x2546318b	1.7190548e-16
55	0x2446318b	4.297637e-17
56	0x00000004	6e-45
57	0x00000004	6e-45
58	0x00000004	6e-45
59	0x00000004	6e-45
60	0x00000004	6e-45
61	0x00000004	6e-45
62	0x00000004	6e-45
63	0x2446318b	4.297637e-17

fc2.weight f4 [64, 64]
0	0x3d714590	0.05890423
1	0xbd177d68	-0.03698483
2	0xbd89f992	-0.06737055
3	0xbdb3c0f8	-0.0877704
4	0xbcf378c0	-0.029720664
5	0xbd03201c	-0.032013044
6	0xbd83d9e6	-0.06438045
7	0x3d0d0904	0.034432426
8	0x3d4226fc	0.04740046
9	0x3d9e3802	0.077255264
10	0xbcfcaa10	-0.03084281
11	0xbc59bb20	-0.013289243
12	0xbddd2d5a	-0.10799666
13	0xbb5d1380	-0.0033733547
14	0x3daccf92	0.084380284
15	0xbdf3dfc0	-0.11907911
16	0xbaba2480	-0.0014201552
17	0xbd438cd8	-0.04774174
18	0x3dcf4a74	0.10121623
19	0xbd541da8	-0.051786095
20	0x3d86d43a	0.06583448
21	0xbca9e640	-0.020739675
22	0x3daaf884	0.08348182
23	0x3ca0a9e0	0.019612253
24	0x3ddff00e	0.10934459
25	0xbda322e6	-0.07965641
26	0xbd99023e	-0.07471131
27	0xbb7f7d40	-0.0038984567
28	0x3cc18ae0	0.023625791
29	0xbc74b110	-0.014934793
30	0x3df983aa	0.12183316
31	0x3d8d2812	0.068924084
32	0x3b747f00	0.0037307143
33	0xbd1d25e4	-0.038366213
34	0x3d192134	0.03738518
35	0x3db1d33c	0.08682868
36	0xbd55be4c	-0.052183434
37	0x3d539384	0.051654354
38	0x3bc00700	0.0058602095
39	0xbd76c594	-0.06024702
40	0x3c9b69c8	0.018971339
41	0xbdd1b4d0	-0.10239565
42	0xbb3e7400	-0.002906084
43	0xbc94aec8	-0.018149748
44	0xbda6b3b6	-0.08139746
45	0xbd8c6a4c	-0.06856212
46	0xbd1b2d9c	-0.037885293
47	0x3d19a340	0.037509203
48	0x3bf749e0	0.0075466484
49	0x3da05cf4	0.078302294
50	0x3d3813d0	0.04494077
51	0xbd4a5680	-0.0493989
52	0xbcfa93e8	-0.030588105
53	0xbd9867ca	-0.07441671
54	0xbd3fec1c	-0.04685603
55	0x3d2a5768	0.041587263
56	0x3df119f8	0.11772531
57	0x3db0dc0e	0.08635722
58	0xbdce3288	-0.10068232
59	0xbd5ba674	-0.05362554
60	0xbdf5a78e	-0.11994849
61	0x3d8a7b08	0.067617476
62	0xbdcb3ac8	-0.09923321
63	0xbd969b9e	-0.073539004
64	0xbd2935e4	-0.04131116
65	0x3dc5df28	0.09661704
66	0xbdccdc42	-0.10002948
67	0xbdfbed7e	-0.123011574
68	0xbd99a402	-0.07501985
69	0x3df07618	0.117412746
70	0xbdc0915e	-0.094027266
71	0xba911b00	-0.0011070669
72	0xbda23eea	-0.07922156
73	0xbdecb3d2	-0.115577355
74	0x3d4aaf50	0.049483597
75	0x3d428cb4	0.047497466
76	0xbd2e0a10	-0.042490065
77	0xbdbb5292	-0.091466084
78	0xbd04ff24	-0.032469884
79	0x3d1d1714	0.038352087
80	0x3d818328	0.06323844
81	0xbdcc2488	-0.09967905
82	0x3d93d4c6	0.07218318
83	0xbdfe8eca	-0.124295786
84	0x3defba54	0.11705461
85	0x3db48840	0.0881505
86	0xbd1d4374	-0.038394406
87	0x3da918de	0.08256696
88	0xbd999860	-0.07499766
89	0x3c543880	0.012952924
90	0x3df7393c	0.120714635
91	0xbd083620	-0.033254743
92	0xbdc939a0	-0.09825444
93	0x3cfddec8	0.03099002
94	0xbc3685e0	-0.011140317
95	0x3dcf3f68	0.10119516
96	0xbcceff18	-0.025268123
97	0xbb150840	-0.0022740513
98	0x3dd2a1c6	0.10284762
99	0x3dda98ea	0.10673697
100	0xbd6743b0	-0.056461036
101	0x3c82b960	0.015957534
102	0xbd57ec74	-0.052715734
103	0xbdba0778	-0.09083456
104	0xbd9c2b44	-0.0762544
105	0xbdc960f0	-0.098329425
106	0xbda7fc66	-0.08202438
107	0x3cbb3318	0.022851512
108	0xbdaf0f48	-0.085478365
109	0x3d72ea54	0.059305504
110	0x3dacebd4	0.08443418
111	0xbdb90dec	-0.090358585
112	0x3d5cf418	0.053943723
113	0x3df12ef8	0.11776537
114	0x3d9ebd78	0.07750982
115	0xbd050fc4	-0.03248574
116	0xbce82c18	-0.028341338
117	0xbc7e1650	-0.015508249
118	0xbdc722c6	-0.097234294
119	0xbd9e7acc	-0.077382654
120	0xbdde5f80	-0.10858059
121	0x3dd8612c	0.10565409
122	0xbd70204c	-0.05862455
123	0xbd152c40	-0.036419153
124	0x3df17e1a	0.1179163
125	0xbd1533d8	-0.036426395
126	0x3cfc4830	0.03079614
127	0x3da2a1e0	0.079410315
128	0xbd450fa0	-0.048110604
129	0xbded05ca	-0.1157337
130	0xbd862bee	-0.06551348
131	0xbd686614	-0.056737974
132	0xbce691e0	-0.02814573
133	0x3d45b90c	0.048272178
134	0xbdc4bc2c	-0.096062034
135	0xbc1dad40	-0.009623826
136	0xbcd7b730	-0.026332468
137	0x3dc18f5e	0.09451173
138	0x3d95a740	0.07307291
139	0x3d29ec58	0.04148516
140	0xbd381120	-0.044938207
141	0x3d5b7d5c	0.05358635
142	0x3dba929a	0.09109993
143	0xbdff98c8	-0.124803126
144	0x3def4060	0.116822004
145	0xbda68b24	-0.08132008
146	0xbcb6d308	-0.022317424
147	0x3d8116fc	0.06303212
148	0x3db04bc2	0.086082
149	0xbda8bfe4	-0.08239725
150	0xbdfeb4f0	-0.12436855
151	0xbcf4d850	-0.029888302
152	0xbc5a5270	-0.013325319
153	0xbd202420	-0.03909695
154	0xbd9cce8a	-0.07656582
155	0xbdc05d18	-0.09392756
156	0x3d9256a8	0.071454346
157	0x3dd06626	0.10175733
158	0xbdd0975a	-0.10185118
159	0x3d8bd1f2	0.06827153
160	0x3d9d02f2	0.076665774
161	0xbd8f4e4c	-0.06997356
162	0x3de91eae	0.11382805
163	0x3d5feb38	0.05466768
164	0xba8d4b80	-0.0010779947
165	0x3d6bfc00	0.057613373
166	0xbd85ee7a	-0.065396264
167	0x3dcabf1e	0.09899734
168	0x3d7391b4	0.059465125
169	0x3c61d540	0.013783753
170	0x3b451c40	0.0030076653
171	0xbc25ea00	-0.010126591
172	0xbdeb6d6e	-0.114954814
173	0x3dcc115a	0.09964247
174	0xbcd77f58	-0.02630584
175	0xbc88a728	-0.016681269
176	0x3db07fc8	0.08618122
177	0xbdc789ca	-0.09743078
178	0x3df50ef6	0.11965744
179	0xbd76bde8	-0.060239702
180	0xbceb3770	-0.028712958
181	0x3dc34bb4	0.095359236
182	0x3d98f9d6	0.074695274
183	0xbd6e0fcc	-0.058120534
184	0x3cf8b230	0.030358404
185	0xbdbed492	-0.09317888
186	0xbdda97be	-0.10673474
187	0x3d8bbc84	0.06823066
188	0xbcf167d0	-0.029468447
189	0x3dcb9a64	0.09941557
190	0xbdfb30be	-0.12265156
191	0xbd34ef9c	-0.04417382
192	0xbdf24120	-0.11828828
193	0x3d64c0b4	0.05584784
194	0x3dbd82e0	0.09253478
195	0xbc68b5d0	-0.014203504
196	0x3cab2f50	0.020896584
197	0xbd2522f4	-0.040316537
198	0x3dc31892	0.09526171
199	0x3d8d700c	0.06906137
200	0x3cefc320	0.029267848
201	0xbc20a260	-0.009804338
202	0x3df7fbaa	0.12108548
203	0xbde99bcc	-0.11406669
204	0xbc8d6478	-0.017259821
205	0x3dd5cd10	0.10439503
206	0x3dd40f44	0.10354474
207	0xbda6eb2c	-0.08150324
208	0x3dd7e33a	0.10541387
209	0x3d0d5a9c	0.03451024
210	0xbde0ae9a	-0.109708026
211	0xbd3e3f2c	-0.046446964
212	0xbb72bb40	-0.003703788
213	0xbde9524a	-0.113926485
214	0x3d628490	0.055302203
215	0xbdd7662e	-0.10517536
216	0x3cae7510	0.021296054
217	0x3da9f352	0.08298363
218	0x3d1b2e24	0.0378858
219	0x3d158cec	0.036511347
220	0x3dc7d8ec	0.097581714
221	0x3d49440c	0.04913716
222	0xbdf056b2	-0.11735286
223	0x3d06c8f8	0.032906502
224	0x3c6cfbb0	0.014464304
225	0x3d9b30ee	0.07577692
226	0x3daad62e	0.08341633
227	0x3d527f74	0.05139108
228	0x3dc4f044	0.096161395
229	0xbc414eb0	-0.011798546
230	0xbde0998e	-0.10966788
231	0xbd9dd9a8	-0.0770753
232	0x3b860ce0	0.0040908903
233	0xbd1c81f8	-0.038209885
234	0x3d62402c	0.05523698
235	0xbd8eb296	-0.06967656
236	0xbd64b950	-0.05584079
237	0x3c2bb990	0.010481253
238	0x3dc3f482	0.095681205
239	0x3dcb64b2	0.099313155
240	0x3ca6ba38	0.020352468
241	0x3df450c0	0.11929464
242	0xbcce9ce0	-0.025221288
243	0xbdb2e2ce	-0.08734666
244	0xbdaf4dc4	-0.085597545
245	0x3cbb2ef0	0.02284953
246	0x3cb59490	0.022165567
247	0xbd199c24	-0.037502423
248	0xbdbf66b0	-0.09345758
249	0x3c790f10	0.015201345
250	0xbcf6d820	-0.030132353
251	0xbd6a0460	-0.05713308
252	0xbbfda800	-0.0077409744
253	0xbd909a70	-0.070607066
254	0x3c149ff0	0.009071335
255	0xbda61174	-0.08108798

fc2.bias f4 [64]
0	0xbd334ac4	-0.043772474
1	0xbc85fb88	-0.016355291
2	0x3dbb4e80	0.09145832
3	0x3d8933da	0.06699343
4	0xbdb3e400	-0.08783722
5	0xbd7b77b0	-0.06139344
6	0xbc939078	-0.018013224
7	0x3d9318f4	0.07182494
8	0xbdd31f5e	-0.10308717
9	0x3bf4dbe0	0.0074725
10	0x3d966de0	0.07345176
11	0x3de15624	0.11002758
12	0xbdeb3608	-0.11484915
13	0xbca36228	-0.019944265
14	0xbddd7960	-0.10814166
15	0x3d643274	0.05571218
16	0xbd4f1750	-0.050559342
17	0x3de5a396	0.11212842
18	0xbdcad954	-0.09904733
19	0x3d57a454	0.05264695
20	0xbd39e400	-0.045383453
21	0xbde42a44	-0.11140874
22	0xbd14a970	-0.0362944
23	0x3d3b3e28	0.045713574
24	0xbdff95a0	-0.124797106
25	0x3d9c0ce2	0.07619645
26	0xbdf23d0a	-0.118280485
27	0xbd466754	-0.048438385
28	0x3db7fabc	0.08983371
29	0xbbb49740	-0.0055111945
30	0xbcbd22c8	-0.023087874
31	0xbc818ab8	-0.015813217
32	0xbc6ec010	-0.014572158
33	0x3da106ac	0.07862601
34	0xbc0ebea0	-0.008712441
35	0x3da58488	0.08081919
36	0x3db6efcc	0.089324564
37	0xbde6ca44	-0.11269048
38	0xbd833a88	-0.06407648
39	0xbdce0740	-0.100599766
40	0xbdc77da6	-0.097407624
41	0x3d64ac34	0.05582829
42	0xbdd97814	-0.10618606
43	0x3ced3148	0.028954163
44	0x3ddc580c	0.10758981
45	0x3ca0d5d0	0.019633204
46	0x3bb73cc0	0.0055919588
47	0x3cf1b830	0.029506773
48	0x3d903660	0.07041621
49	0xbdf1458a	-0.11780842
50	0xbcc83800	-0.024440765
51	0xbbdb9180	-0.0067006946
52	0xbda0011e	-0.07812713
53	0xbd2849f4	-0.041086152
54	0xbd21585c	-0.039390907
55	0x3dfac75c	0.12245056
56	0x3d83d142	0.06436397
57	0x3d9fe4ce	0.07807313
58	0xbbf53160	-0.0074826926
59	0x3be355a0	0.0069376975
60	0xbdf37d0e	-0.11889087
61	0x3db62358	0.0889346
62	0xbdb0a5e4	-0.08625391
63	0xbddf29a2	-0.10896613
