python/model_pth/tripletmlp/triplet_hu_trained_3.pth (torch, 5791 bytes, 4 tensors)

fc1.weight f4 [32, 7]
0	0xbeb3b262	-0.35097033
1	0xbf3a2825	-0.72717506
2	0x3e14bf1d	0.14526029
3	0x3d135968	0.035973936
4	0x3d512437	0.051059928
5	0xbe067662	-0.13131097
6	0xbe360c7f	-0.17778204
7	0xbed5186b	-0.41620192
8	0x3e32a06c	0.17444009
9	0xbed3afa7	-0.4134495
10	0xbe283068	-0.16424716
11	0x3e20950b	0.15681855
12	0xbe4c0dfe	-0.19927213
13	0x3e1257db	0.14291327
14	0xbdbd8ba2	-0.092551485
15	0x3f9eb1b0	1.2397976
16	0xbf8f4094	-1.1191583
17	0xbf10b25f	-0.5652217
18	0x3f0460ae	0.5171002
19	0x3ed32696	0.41240376
20	0xbcdba80e	-0.026813533
21	0x3f216d26	0.6305717
22	0x3e70213d	0.2345018
23	0x3eb04c4e	0.34433216
24	0x3de1f57a	0.11033149
25	0x3d6ed8d2	0.058312245
26	0x3d9c14e0	0.07621169
27	0xbbdeab05	-0.0067952895
28	0x3f3d9d63	0.7406828
29	0x3fd083e7	1.6290253
30	0xbf0de2af	-0.55424017
31	0xbe3a91cc	-0.1821968
32	0x3d6e7e25	0.05822577
33	0xbd89016c	-0.06689724
34	0xbc89ccca	-0.016821284
35	0xbe33dd54	-0.17564899
36	0xbedfc620	-0.43705845
37	0xbe444102	-0.19165424
38	0xbe835cc3	-0.2565671
39	0x3e6dcd43	0.23222832
40	0xbe851323	-0.25991163
41	0xbe5bf45a	-0.21479931
42	0xbe8fc74a	-0.28081733
43	0xc0099c8c	-2.1501799
44	0x3f5b512a	0.8567072
45	0x3efb76c7	0.49114057
46	0x3dc12379	0.09430594
47	0xbe9f9ec1	-0.31175807
48	0x3d236ce5	0.03989877
49	0x3ea7124e	0.32631153
50	0x3e4c4cdb	0.19951193
51	0xbe36b8d2	-0.17843941
52	0x3d792603	0.060827266
53	0x3ea863af	0.32888553
54	0x3e8a490f	0.27008864
55	0xbd3f9ef4	-0.04678245
56	0x3df7042e	0.12061344
57	0xbe98df39	-0.29857805
58	0x3d13b4ff	0.036061283
59	0xbe0b3214	-0.13593322
60	0xbcae950f	-0.021311311
61	0x3daa2fe8	0.08309919
62	0xbdcfc4b2	-0.101449385
63	0xbe4209a4	-0.1894899
64	0x3c4c6f32	0.012477683
65	0xbe89ad5b	-0.26890072
66	0xbe914632	-0.28373867
67	0xbe454d78	-0.19267833
68	0x3e86d8e2	0.26337343
69	0xbdd91fcc	-0.10601768
70	0xbeba1aa2	-0.36348444
71	0xbdfd9786	-0.123824164
72	0xbed82af4	-0.4222027
73	0x3e308133	0.17236786
74	0x3c9353b5	0.01798425
75	0xbe0758c2	-0.13217452
76	0x3e4b69cd	0.19864579
77	0xbf21d0a6	-0.63209
78	0xc025a13d	-2.5879662
79	0x3dcac635	0.09901086
80	0xbdc9988d	-0.0984355
81	0x3f7eea9d	0.9957674
82	0x3f3e9b83	0.7445604
83	0xbc82542f	-0.015909282
84	0xbe427c32	-0.18992689
85	0xbd2f6f81	-0.042830948
86	0x3d4e5e6b	0.050383013
87	0xbed30f99	-0.41222838
88	0xbd8a4ee3	-0.06753328
89	0x3c5c7185	0.0134548
90	0xbd4764ad	-0.048679996
91	0xbb04c0e0	-0.0020256564
92	0x3e408a76	0.18802819
93	0x3f0c9f73	0.549308
94	0x3d15245e	0.036411636
95	0x3e38003d	0.17968841
96	0xbb9a997c	-0.004718004
97	0xbd7ee8fb	-0.062233906
98	0xbe87aab4	-0.26497424
99	0xc00d5b8e	-2.208713
100	0x3f84b4ec	1.0367713
101	0x3f19c85e	0.6007136
102	0x3af73bc1	0.0018862413
103	0xbcb266eb	-0.02177759
104	0xbc282d93	-0.010264772
105	0xbe548486	-0.20753679
106	0xbf902ec2	-1.1264269
107	0xbe9d3041	-0.30700877
108	0x3e94de82	0.2907601
109	0x3eea2867	0.4573395
110	0xbdce49f8	-0.10072702
111	0xbd15dc28	-0.03658691
112	0xbf2f2ea0	-0.6843052
113	0xc021feea	-2.5311837
114	0x3d37e5f2	0.044897027
115	0x3c91fc27	0.01782043
116	0x3f40d586	0.7532581
117	0x3f7da17f	0.9907455
118	0x3d32712f	0.04356497
119	0x3e850f25	0.25988117
120	0x3ddab9cb	0.106799684
121	0x3edb07a4	0.42779267
122	0x3db8157d	0.089884736
123	0x3dcdbf5c	0.100462645
124	0x3d9dd63a	0.07706876
125	0x3c4c52ab	0.012470881
126	0x3f05e481	0.52301794
127	0x40188f6c	2.3837538
128	0xbf434b1c	-0.7628648
129	0xbf2c8c8b	-0.6740195
130	0xbbdc66bb	-0.0067261136
131	0xbc581920	-0.013189584
132	0x3d2e701c	0.042587385
133	0x3e855834	0.26043856
134	0x401bd674	2.4349642
135	0xbeeb8d84	-0.46006405
136	0xbf71d91b	-0.944719
137	0x3d57ed14	0.05271633
138	0xbc1596b1	-0.009130166
139	0x3c935f3b	0.017989745
140	0x3e146a48	0.14493668
141	0xc00367d6	-2.0532126
142	0x3f968444	1.1759114
143	0x3ea1fe5d	0.31639376
144	0x3acc364c	0.0015580147
145	0xbd25622e	-0.040376835
146	0x3cdee417	0.027208371
147	0xbdf29669	-0.11845095
148	0x4004812e	2.0703845
149	0xbf5bc0f5	-0.85841304
150	0xbf6fc8b9	-0.93665653
151	0xbee4ec70	-0.44711637
152	0xbe782ff3	-0.24237041
153	0x3d172d58	0.036908478
154	0xbe616161	-0.22009803
155	0xbfc47231	-1.5347348
156	0x3f57cdb3	0.8429825
157	0x3e76aee6	0.24090156
158	0x3e1af7bc	0.15133566
159	0x3dafb7b4	0.085799605
160	0xbd0262c4	-0.03183247
161	0x3c1f0030	0.009704635
162	0x3cbf0c89	0.023321407
163	0xbdede814	-0.11616531
164	0xbe4dcbc5	-0.20097263
165	0x3dddc529	0.10828621
166	0xbd40f870	-0.04711193
167	0xbd8cccd7	-0.068750076
168	0xbea9c58b	-0.33158526
169	0x3e70e9ba	0.2352666
170	0xbeb56dc6	-0.35435313
171	0xbeb6bf75	-0.35692945
172	0x3e17b892	0.14816502
173	0x3e8cf951	0.27533963
174	0x3dde9470	0.10868156
175	0x3ee2058f	0.44144866
176	0x401b2c0f	2.4245641
177	0xbf5cf01b	-0.8630387
178	0xbf1cbfc7	-0.6123013
179	0x3cdd07f2	0.026981328
180	0xbd004707	-0.031317737
181	0x3c8fa04b	0.017532488
182	0x3f18ea2a	0.59732306
183	0x401a948e	2.415317
184	0xbf107230	-0.56424236
185	0xbf4a66bb	-0.79063004
186	0x3d4483c9	0.047977243
187	0xbd51af9c	-0.051192865
188	0x3c184b78	0.009295337
189	0x3eedb770	0.46429014
190	0x40157b14	2.335637
191	0xbf2d2275	-0.676307
192	0xbf376709	-0.71641594
193	0x3d100934	0.035165027
194	0x3c4df084	0.01256955
195	0xbc1097f7	-0.008825294
196	0xbdff403b	-0.12463423
197	0xbeb8236b	-0.35964522
198	0xbc14eaa6	-0.009089148
199	0xbe59d11f	-0.2127118
200	0x3d9e7edc	0.0773904
201	0xbe64d999	-0.22348632
202	0x3df7099a	0.12062378
203	0x3e75faa7	0.24021398
204	0xbec382ed	-0.38185826
205	0xbec00d6d	-0.37510243
206	0xbdde0e8d	-0.10842619
207	0xbdc6d4ab	-0.09708532
208	0xbe198ffe	-0.14996335
209	0x3e669789	0.22518744
210	0x3e97948b	0.29605517
211	0x401a6c63	2.4128654
212	0xbf0ca613	-0.5494091
213	0xbf663be6	-0.8993515
214	0xbc063492	-0.008191245
215	0xbcf3584a	-0.029705185
216	0x3aab749c	0.0013081017
217	0x3f1f3d9d	0.6220339
218	0x3ff1bb79	1.8885337
219	0xbf440e7e	-0.76584613
220	0xbed7d0c6	-0.4215147
221	0xbd0fa85a	-0.035072662
222	0x3be49695	0.0069759586
223	0x3c948a37	0.018132312

fc1.bias f4 [32]
0	0xbf11562a	-0.567721
1	0xbe984290	-0.29738283
2	0x3dc3c94a	0.09559877
3	0xbf6fc374	-0.9365761
4	0xbfa655f5	-1.2994982
5	0xbe6c7f7a	-0.23095503
6	0xbebc7c64	-0.36813653
7	0xbf32c860	-0.69837
8	0xbe9ba0e3	-0.30396184
9	0xbeb9bec1	-0.36278346
10	0xbe7efd07	-0.2490121
11	0x3f013356	0.5046896
12	0x3e610280	0.2197361
13	0xbfa31d54	-1.2743325
14	0x3e311c40	0.17295933
15	0x3eb83270	0.3597598
16	0x3f527201	0.82205206
17	0xbf2905ad	-0.66024286
18	0xbfcbd77c	-1.5925136
19	0xbfc6912c	-1.5513053
20	0xbef0ae07	-0.47007772
21	0xbfbcf1c5	-1.4761282
22	0xbf718d88	-0.94356585
23	0xbea9c6a5	-0.33159366
24	0xbea4f3e3	-0.3221732
25	0xbf9c0922	-1.2190287
26	0xc01baaef	-2.432308
27	0xbfd69fcc	-1.6767516
28	0xbeb6848e	-0.35648006
29	0x3dcc40cf	0.09973299
30	0xbfacb934	-1.349402
31	0xbf5566b8	-0.8335986

fc2.weight f4 [16, 32]
0	0x3d080201	0.033205036
1	0xbd0a9e3f	-0.03384232
2	0x3fa6cd94	1.3031487
3	0xbea13b54	-0.31490576
4	0x3f23fb6a	0.640555
5	0xbd4f5274	-0.050615743
6	0xbf9971a7	-1.1987809
7	0x3dadc495	0.08484761
8	0x3dd403db	0.10352298
9	0xbe02062d	-0.12697668
10	0x3d28d155	0.04121526
11	0xbbc297d8	-0.0059385113
12	0xbd2d8162	-0.042359717
13	0xbe5ef66c	-0.2177369
14	0xc01fa6b6	-2.4945502
15	0xbe45fdf1	-0.19335152
16	0x3d7baaa6	0.06144204
17	0xbf10fd53	-0.5663654
18	0x3ee8762b	0.45402655
19	0x3e10b3cd	0.14131089
20	0xbfcd18f8	-1.6023245
21	0xbcd7c45c	-0.026338749
22	0xbf4749b0	-0.77846813
23	0x3e539ea1	0.20665981
24	0xbbbd81c0	-0.0057832897
25	0x3f1a8f3e	0.6037482
26	0x3dcc2c4e	0.09969388
27	0x3ee22c02	0.441742
28	0x3c1ed359	0.009693944
29	0xbd98cbe6	-0.074607655
30	0x3f525066	0.8215393
31	0x3f37789d	0.71668416
32	0x3e071d3e	0.13194749
33	0xbd3ef1d1	-0.046617333
34	0xbf280e58	-0.65646887
35	0xbf13ac13	-0.5768444
36	0x3e83991e	0.25702757
37	0xbd992d62	-0.07479359
38	0x3f703aba	0.9383961
39	0x3ed2754e	0.4110512
40	0x3d8f5e5b	0.07000419
41	0xbe59007d	-0.21191593
42	0x3d50dd37	0.050992217
43	0x3f3cbd37	0.7372622
44	0x3c80311a	0.015648413
45	0x3e5d1e91	0.21593691
46	0x3fad3e02	1.3534548
47	0x3e78d89e	0.24301383
48	0x3eccde1a	0.400132
49	0x3eb0ee0f	0.34556624
50	0xbf0b79ee	-0.54482925
51	0xbf21a86b	-0.6314761
52	0x3e9cffec	0.30664003
53	0x3de1c190	0.11023247
54	0xbf1f985f	-0.62341875
55	0xbdae85d6	-0.08521621
56	0xbe001c53	-0.12510805
57	0x3e86caee	0.26326698
58	0xbe56c580	-0.20973778
59	0xbef87953	-0.48530063
60	0x3e0f265b	0.13979475
61	0x3e033bb8	0.1281575
62	0xbe76196f	-0.2403314
63	0xbee163b0	-0.44021368
64	0x3e148d5d	0.14507051
65	0x3e28f079	0.16497983
66	0xbeb15627	-0.34636042
67	0xbe73028d	-0.23731442
68	0x3e618c40	0.22026157
69	0x3e53e359	0.20692195
70	0x3eb171df	0.3465719
71	0x3ed3ee23	0.4139262
72	0xbe17d46a	-0.14827123
73	0x3e46a9fb	0.1940078
74	0x3d140dfe	0.036146156
75	0xbf245c85	-0.64203674
76	0x3b9ddf3c	0.0048178714
77	0x3e6b19c5	0.22959049
78	0x3ff36f1e	1.9018285
79	0xbde4f7b4	-0.11180058
80	0xbe67a361	-0.22620918
81	0xbe2cb063	-0.16864161
82	0xbe0c4bed	-0.13700838
83	0x3f21388b	0.629769
84	0x3f97c2c2	1.185631
85	0xbc00ff59	-0.00787338
86	0x3ed94437	0.42434856
87	0xbda22f73	-0.079192065
88	0xbdedaaf8	-0.11604875
89	0xbf5d2703	-0.8638765
90	0xbf085227	-0.53250355
91	0xbf698d13	-0.9123089
92	0x3d5ea3f9	0.054355595
93	0xbd37e7f7	-0.044898953
94	0x3e0089a3	0.12552504
95	0x3eb42729	0.35186127
96	0x3e0ebdb4	0.13939553
97	0xbe3309a5	-0.17484148
98	0x3f20333b	0.6257817
99	0x3e7a05a8	0.2441622
100	0x3f023a55	0.5087026
101	0x3e802c03	0.25033578
102	0x3ed9d7f7	0.4254758
103	0x3e54e503	0.20790486
104	0x3eb218f6	0.3478467
105	0x3d17d423	0.037067544
106	0xbd6d5edc	-0.057951793
107	0x3e495227	0.19660245
108	0x3df1277e	0.11775111
109	0xbeb44c04	-0.35214245
110	0x3f29891a	0.66224825
111	0x3e9ca65a	0.30595666
112	0x3faca306	1.3487251
113	0xbeb63582	-0.35587698
114	0xbeb61ea1	-0.35570243
115	0x3e4ad7f2	0.19808939
116	0xbf02f516	-0.5115522
117	0x3da70239	0.08154721
118	0xbf0577b6	-0.5213579
119	0x3d8ea6f5	0.06965438
120	0x3df0f352	0.1176516
121	0xbd3fa2ef	-0.046786245
122	0x3ef418d0	0.4767518
123	0xbf08c57d	-0.53426343
124	0x3d904f4a	0.07046373
125	0x3e13e246	0.14441785
126	0xbf694af5	-0.9113
127	0xbdeffbdd	-0.11717961
128	0x3cb626f8	0.022235379
129	0x3e4a8b2b	0.19779651
130	0x3d744f27	0.059645798
131	0xbc99f369	-0.018792825
132	0x3e37c56d	0.17946406
133	0x3e947a22	0.2899943
134	0xbf016718	-0.50547934
135	0xbea38d38	-0.3194368
136	0xbe3762c0	-0.17908764
137	0x3dae76d5	0.08518759
138	0x3ba94a33	0.005166316
139	0xbf03b750	-0.5145159
140	0x3d6e5c93	0.058193754
141	0x3e1f109a	0.15533677
142	0xbf25f7ae	-0.64831054
143	0x3d4c6f3d	0.049910773
144	0x3e00873a	0.12551585
145	0x3e6e4738	0.23269355
146	0xbec8be6d	-0.39207783
147	0x3ecc069d	0.39848796
148	0xbf9e246c	-1.2354865
149	0x3de67c1e	0.11254142
150	0xbe332576	-0.17494759
151	0x3e444358	0.19166315
152	0x3e13ec3f	0.1444559
153	0x3dd4419a	0.10364075
154	0x3ee85183	0.45374689
155	0x3ba52e52	0.005040922
156	0x3da56e2d	0.08077655
157	0xbe0adef7	-0.13561617
158	0x3ed7ccc9	0.42148426
159	0x3ef61f38	0.48070693
160	0x3dbe4ed4	0.09292379
161	0xbe0855af	-0.13313936
162	0x3e8d567e	0.2760505
163	0x3bdc3761	0.006720469
164	0xbe040c34	-0.1289528
165	0xbe2cb85a	-0.168672
166	0x3f1fb8a7	0.6239113
167	0x3e7f4a5b	0.24930708
168	0x3cdd9ab3	0.027051305
169	0x3e13d660	0.14437246
170	0xbc65d8cf	-0.014028742
171	0x3f656f01	0.89622504
172	0xbd9627bf	-0.073318
173	0xbe14d8bf	-0.14535807
174	0x3ec8fdaa	0.3925603
175	0x3f238862	0.6387998
176	0x3ee93753	0.45550022
177	0xbe76dfc0	-0.24108791
178	0xbecddb30	-0.4020629
179	0x3cd22d72	0.025656436
180	0x3fcf14d5	1.6178232
181	0xbeac75e3	-0.3368369
182	0xbeaa8c72	-0.33310276
183	0x3d945977	0.072436266
184	0x3dfe7cb2	0.124261275
185	0xbf2a8a4a	-0.6661726
186	0x3bf44cdc	0.0074554514
187	0xbe14f743	-0.14547448
188	0x3c33246c	0.010933977
189	0xbdd18ab0	-0.10231531
190	0xbee76fb8	-0.45202422
191	0xbf0b0f33	-0.5432007
192	0xbe022c54	-0.12712222
193	0x3c8512fe	0.016244408
194	0x3e2e2c5a	0.17009106
195	0x3e1af388	0.15131962
196	0x3db19196	0.086703464
197	0xbe1ff9d6	-0.15622649
198	0x3fa2d16e	1.2720163
199	0xbeee7286	-0.4657175
200	0x3e0466d5	0.12929852
201	0x3c01c4eb	0.007920484
202	0x3b39b8f7	0.0028339007
203	0x3faf50e9	1.3696567
204	0x3d77c8d9	0.060494278
205	0x3d56bc2a	0.05242554
206	0x3de66e49	0.11251504
207	0x3f2ccdc7	0.6750149
208	0x4007b9bf	2.120712
209	0xbd597dab	-0.053098362
210	0xba429b71	-0.0007423675
211	0xbf16c7d5	-0.5889867
212	0x3f5e7a48	0.86905336
213	0xbf8d76af	-1.1051844
214	0xbe297e6e	-0.16552135
215	0x3e47a822	0.19497731
216	0xbe14697a	-0.14493361
217	0xbe9885cb	-0.29789576
218	0xbf469f4a	-0.77586806
219	0xbee4267e	-0.44560617
220	0x3bd096d0	0.0063656345
221	0xbe37a932	-0.17935637
222	0xbea5290b	-0.32257876
223	0x3e981661	0.29704574
224	0x3e741ff6	0.23840317
225	0xbe3c605b	-0.18396132
226	0xbe5c23c5	-0.2149802
227	0xbeb4daa3	-0.35323057
228	0xbf06d0b3	-0.526622
229	0xbe025b3a	-0.12730113
230	0x3fa868fc	1.3157039
231	0x3ea388a2	0.3194018
232	0x3dcd95d3	0.10038342
233	0xbd82d133	-0.06387558
234	0x3e47878b	0.194853
235	0xbdf21d77	-0.11822026
236	0x3d2b38b5	0.041802127
237	0xbec67076	-0.38757676
238	0xbe19c86d	-0.15017863
239	0x3d77bc7f	0.0604825
240	0x3f9442af	1.158285
241	0xbe9cd38c	-0.30630147
242	0xbe161112	-0.1465495
243	0xbd8ec560	-0.0697124
244	0xbddc8669	-0.10767824
245	0xbdbf497d	-0.09340189
246	0x3f468b23	0.77556056
247	0x3b1da403	0.0024054057
248	0xbd620c68	-0.055187613
249	0x3c00f3da	0.007870639
250	0xbe6d19b1	-0.23154332
251	0xbdb736e8	-0.089460194
252	0x3c103b2e	0.008803172
253	0x3e08ad16	0.13347277
254	0xbed15e04	-0.4089204
255	0x3e68ed12	0.22746685

fc2.bias f4 [16]
0	0xbe3c27f5	-0.18374617
1	0xbdb89b6d	-0.0901402
2	0x3ea6d922	0.32587534
3	0x3e70b6b2	0.23507193
4	0xbccd2dca	-0.025046248
5	0x3e38bae9	0.1804005
6	0x3e030f14	0.1279872
7	0x3e9ea356	0.3098399
8	0xbe1b9be4	-0.15196186
9	0xbe2149cd	-0.15750809
10	0x3e93c70d	0.288628
11	0xbe135d1e	-0.1439099
12	0xbe1d3dfc	-0.15355676
13	0x3d58d991	0.052941862
14	0x3d0e91cb	0.034807008
15	0x3e340c8f	0.17582916
