python/model_pth/tripletmlp/triplet_hu_trained.pth (torch, 5771 bytes, 4 tensors)

fc1.weight f4 [32, 7]
0	0x3b6e07a7	0.003632048
1	0xc03811b5	-2.8760808
2	0x3fab23bc	1.337028
3	0x3f4a1bd8	0.78948736
4	0x3c65f661	0.014035792
5	0xbb4381b5	-0.002983195
6	0xbd2756b7	-0.040854182
7	0xbebfe80c	-0.37481725
8	0xbe12c527	-0.1433302
9	0xbe9e80c7	-0.30957624
10	0xbd646110	-0.05575663
11	0x3da73284	0.08163932
12	0x3d129c48	0.035793573
13	0xbe4986dd	-0.19680353
14	0x3e444378	0.19166362
15	0x402d6c36	2.7097297
16	0xbf215737	-0.63023704
17	0xbf667354	-0.90019727
18	0xbc8c3507	-0.01711513
19	0x3d14899c	0.036264047
20	0x3da7b1c4	0.08188203
21	0x3f94dfda	1.1630814
22	0x40237154	2.553792
23	0xbf11a6fb	-0.56895417
24	0xbf7beb0a	-0.98405516
25	0x3bf33ca0	0.0074229985
26	0x3db25d40	0.08709192
27	0x3c70d3ed	0.014698965
28	0xbe70e9df	-0.23526715
29	0xbea5e26a	-0.32399303
30	0x3d8dfd66	0.069330975
31	0xbecf431a	-0.40480882
32	0x3e2d6aa0	0.16935205
33	0xbbfff7a4	-0.0078115035
34	0x3e94cb9a	0.29061586
35	0x3fb7e166	1.4365661
36	0x40258248	2.5860767
37	0xbf8bd4c2	-1.0924304
38	0xbf6e3220	-0.93045235
39	0x3cdd6362	0.027024928
40	0x3cc57f90	0.024108678
41	0xbd575c63	-0.05257834
42	0x3ed2d05e	0.41174597
43	0x4033d478	2.809843
44	0xbf0dea29	-0.55435425
45	0xbf466e74	-0.7751229
46	0x3d1fe495	0.039036352
47	0x3db22543	0.08698513
48	0x3d6462e2	0.055758364
49	0x3f77b8be	0.9676627
50	0x3fda0f33	1.7035888
51	0xbf6183e4	-0.88091874
52	0xbf77d19a	-0.968042
53	0xbe3572bd	-0.1771955
54	0xbe96dfbe	-0.29467577
55	0xbd0e305e	-0.034714095
56	0xbf0db960	-0.55360985
57	0xbf4f1311	-0.8088847
58	0x3d54437d	0.051822174
59	0xbd3ce24d	-0.046114255
60	0xbe193898	-0.14962995
61	0xbe387dfc	-0.18016809
62	0xbe566250	-0.2093594
63	0x3eac3877	0.3363683
64	0xc02fb753	-2.7455642
65	0x3f994315	1.1973597
66	0x3f2e1f59	0.6801658
67	0xbd6c152e	-0.057637386
68	0xbcbb4c08	-0.022863403
69	0xbccdbc27	-0.025114132
70	0xbf458a35	-0.7716401
71	0xc029e2a3	-2.6544578
72	0x3f1667e7	0.5875229
73	0x3ee0f3eb	0.43936095
74	0xbf953b19	-1.165866
75	0x3e1ef7c4	0.15524203
76	0xbc45bc4b	-0.012068818
77	0xbe9e4091	-0.30908635
78	0xc0481016	-3.1259818
79	0x3f1bc99b	0.608545
80	0x3e9883f1	0.29788163
81	0x3fadaa23	1.3567547
82	0xbd40b1d8	-0.047044605
83	0x3c9acb0b	0.018895647
84	0xbe1baed2	-0.15203407
85	0xbedefc19	-0.4355171
86	0xbe566cab	-0.20939891
87	0xbe8a59f1	-0.27021745
88	0xbdba9980	-0.09111309
89	0xbf02fcd0	-0.5116701
90	0xbd99265a	-0.07478018
91	0xbe881bd3	-0.26583728
92	0xbe83810c	-0.25684392
93	0xbe252072	-0.16125658
94	0xbe92b3a3	-0.28652677
95	0xbda883d8	-0.08228272
96	0xbdafd290	-0.085850835
97	0x3eb34bcf	0.35018775
98	0x3fcd2bbb	1.602897
99	0xbf06ffba	-0.5273396
100	0xbee0833d	-0.43850127
101	0xbf2239ff	-0.63369745
102	0xbe190076	-0.14941582
103	0x3e0177bd	0.12643333
104	0x3d51d2c8	0.051226407
105	0xbe329fdd	-0.17443796
106	0xbffb0023	-1.9609417
107	0xbec9ce5e	-0.39415258
108	0xbf263755	-0.6492818
109	0x3f9c6796	1.2219112
110	0x3f90bb27	1.1307114
111	0x3ce079a3	0.02740175
112	0x3f346c36	0.70477617
113	0x3f20d024	0.628176
114	0x3edd1095	0.43176714
115	0xbe9a9a3a	-0.3019579
116	0x3bbc10a8	0.0057392903
117	0x3d6dc923	0.058053147
118	0xbcafbc49	-0.021452086
119	0x3f45e266	0.7729858
120	0xbebc9403	-0.36831674
121	0x3f62b470	0.88556576
122	0xbc8ff4e1	-0.017572822
123	0x3c952635	0.018206695
124	0x3d465da1	0.048429135
125	0xb989a3d2	-0.00026252732
126	0x3f3a3c53	0.727483
127	0x3effc9d5	0.49958673
128	0xbe48d01d	-0.19610639
129	0x3eb752f3	0.35805473
130	0x3de2e1ca	0.11078222
131	0x3dbe94cc	0.093057245
132	0xb9da0c8f	-0.00041589557
133	0xbe7e571b	-0.24837916
134	0xc048aca6	-3.1355376
135	0x3eaa103f	0.3321552
136	0xbe2a090a	-0.1660501
137	0x3f86dee5	1.0536772
138	0x3f7a5ee9	0.9780107
139	0x3b352df0	0.002764579
140	0x3fa5364d	1.2907196
141	0x402954a2	2.6457906
142	0xbf41d9db	-0.75723046
143	0xbf84a58d	-1.0363022
144	0x3a9eb844	0.0012109359
145	0x3d56ae0a	0.05241207
146	0xbbfca1d0	-0.0077097192
147	0x3f91dd44	1.139565
148	0x402d1ac7	2.7047594
149	0xbf755bdd	-0.958433
150	0xbf59e238	-0.8511081
151	0x3dd3bd92	0.10338892
152	0x3af0a391	0.0018359293
153	0x3bdb4ac5	0.006692263
154	0x3eb9af81	0.3626671
155	0xbff73b59	-1.9314986
156	0x3fb6f433	1.4293274
157	0x3e62a8d1	0.22134711
158	0x3d48a2ea	0.048983492
159	0x3cb67249	0.022271292
160	0xbcbb5e93	-0.022872245
161	0x3fbf3eaa	1.4940999
162	0xbf5c1071	-0.8596259
163	0xbea793c4	-0.32729924
164	0xbf6e2a08	-0.93032885
165	0x3e78c34a	0.24293247
166	0xbe0810e2	-0.1328769
167	0x3e8597b4	0.26092303
168	0x3c7592df	0.01498863
169	0xbea4e1db	-0.32203564
170	0xbef7fefd	-0.48436728
171	0x3e56886c	0.20950478
172	0x3d3ff4e2	0.046864398
173	0xbe335c49	-0.17515673
174	0x3df07e52	0.11742844
175	0x3fa97ae6	1.3240631
176	0xbed0660d	-0.4070286
177	0xbf3f13ec	-0.74639773
178	0xbf5e8055	-0.8691457
179	0xbe91ab3f	-0.28450963
180	0xbe54ea32	-0.20792463
181	0x3e8366d0	0.25664377
182	0x3f87914d	1.0591217
183	0x3e14cba7	0.14530812
184	0x3edce041	0.43139842
185	0xbe2bcb5a	-0.16776791
186	0x3d6bbb0d	0.057551432
187	0x3cebcd8b	0.028784534
188	0x3b13e7c7	0.002256857
189	0xbec980ca	-0.3935607
190	0x3d3eaa5c	0.046549186
191	0xbe85ecdd	-0.26157275
192	0x3e099119	0.13434257
193	0xbe05589f	-0.13022088
194	0xbb467236	-0.0030280477
195	0xbc293339	-0.010327154
196	0x3e6e8d29	0.23296036
197	0xbfed9ed9	-1.8564101
198	0xbfa0b0b0	-1.2553921
199	0xbf448039	-0.7675815
200	0x3fb847c7	1.4396905
201	0x3fcc2f6a	1.595197
202	0xbc16288c	-0.009164941
203	0x3fa0c186	1.2559059
204	0x3f4e96c1	0.8069878
205	0x3d258986	0.040414356
206	0xbe99c5bf	-0.3003368
207	0x3d0eec70	0.034893453
208	0x3e0e792c	0.13913411
209	0xbbb194a8	-0.0054193325
210	0xbf031b77	-0.51213783
211	0xc03aa741	-2.9164584
212	0x3e8ccb6f	0.27498958
213	0x3f322da9	0.6960092
214	0x3daa96ab	0.08329519
215	0xbf9d247e	-1.2276762
216	0x3d91c042	0.071167484
217	0xbe1c4c09	-0.1526338
218	0x4031bfad	2.777324
219	0xbee21bf4	-0.44161952
220	0xbf76bb7f	-0.96379846
221	0x3c8c1179	0.017098175
222	0x3baeb761	0.005331919
223	0x3d199bb8	0.03750202

fc1.bias f4 [32]
0	0xbf816165	-1.0107847
1	0xbe23efad	-0.16009398
2	0xc0408ce0	-3.0085983
3	0xbfdbb175	-1.716353
4	0x3e4a4901	0.19754411
5	0xbf4a78f8	-0.79090834
6	0xc026df8b	-2.607394
7	0xbf5b8d55	-0.8576253
8	0xbe59084e	-0.21194574
9	0xbfb6d3f2	-1.428343
10	0x3f7e8ae5	0.99430686
11	0x3fa4ad25	1.286534
12	0xbd823ce7	-0.063592725
13	0x3e4feb7e	0.20304677
14	0x3fae3d66	1.3612487
15	0x3f52c6ea	0.8233477
16	0xbfa5d1ec	-1.2954688
17	0xbfd013ef	-1.6256083
18	0xbf81be6b	-1.0136236
19	0x3f712b36	0.9420656
20	0xbffd9252	-1.9810278
21	0xbffe99ce	-1.9890687
22	0xbfeb90dd	-1.8403584
23	0x3f3defb0	0.7419386
24	0xbda7df92	-0.081969395
25	0x3fc1bbcc	1.5135436
26	0xbf88df95	-1.0693232
27	0xbe8684d6	-0.2627322
28	0x3f93b26a	1.1538823
29	0xbec69f0e	-0.38793224
30	0x3f33a0f0	0.70167446
31	0xc0309598	-2.7591305

fc2.weight f4 [16, 32]
0	0xbf1d85d8	-0.61532354
1	0xbde2bc3d	-0.1107106
2	0xbeacbeb2	-0.3373924
3	0x3e2b0604	0.16701514
4	0x3e619d99	0.22032775
5	0x3d646802	0.055763252
6	0xbe0c3f66	-0.1369606
7	0x3d23edd1	0.04002172
8	0xbddf1fc4	-0.10894731
9	0x3f64c668	0.89365244
10	0xbed8e3dc	-0.42361343
11	0xbf450f9b	-0.7697694
12	0x3ea649fd	0.32478324
13	0xbe00891a	-0.125523
14	0x3c3fda4a	0.011709759
15	0xbeb3e448	-0.35135102
16	0xbf1aee1c	-0.60519576
17	0x3e4dab35	0.20084842
18	0x3f1097d5	0.5648168
19	0x3f271bf6	0.6527704
20	0x3eb9a54b	0.3625892
21	0xbe4eaa3c	-0.20182127
22	0xbec60f70	-0.38683653
23	0x3f25bd34	0.64741826
24	0x3d863689	0.065533705
25	0xbf0a3133	-0.5398132
26	0x3e77b18e	0.24188825
27	0xbd83ebaa	-0.06441434
28	0xbf2392f4	-0.6389611
29	0xbea16272	-0.3152042
30	0xbd730dd7	-0.05933937
31	0x3d04ade6	0.032392405
32	0x3ef42e49	0.47691563
33	0x3e2b71c7	0.16742621
34	0xbe29e533	-0.16591339
35	0x3e003a71	0.12522294
36	0xbdaadca3	-0.08342864
37	0xbe0fe8f7	-0.14053713
38	0xbcb5f4fa	-0.02221154
39	0xbe7cda79	-0.24692716
40	0xbd929cbd	-0.07158802
41	0xbf426178	-0.75929976
42	0xbe90e8ae	-0.2830252
43	0xbe2f63fb	-0.17127983
44	0xbf01ebce	-0.50750434
45	0x3c08f530	0.0083592385
46	0xbebbaf04	-0.36656964
47	0xbe1dca4f	-0.15409206
48	0xbed62b16	-0.41829747
49	0xbd81431c	-0.06311628
50	0xbe1d2a5e	-0.15348193
51	0xbe0beb46	-0.13663968
52	0xbd395ec1	-0.04525638
53	0x3e0c9ce8	0.1373173
54	0x3f9402b9	1.1563331
55	0xbd953d21	-0.0728705
56	0xbdc1b8b0	-0.094590545
57	0x3ee0816d	0.43848744
58	0x3e1b8803	0.15188603
59	0x3daf9e29	0.085750885
60	0xbeaba03f	-0.33520696
61	0xbdfa256a	-0.122141674
62	0xbed54229	-0.4165204
63	0x3eaec86f	0.34137294
64	0x3d5532c8	0.052050382
65	0xbd8f62da	-0.07001276
66	0x3dded497	0.10880392
67	0x3d556c70	0.052105367
68	0xba0c3839	-0.0005348954
69	0x3e81afc2	0.25329405
70	0x3c30fd8f	0.010802641
71	0xbd349b62	-0.044093497
72	0xbe17f534	-0.14839631
73	0x3f976923	1.182896
74	0xbf54f113	-0.8318035
75	0x3e3c8c05	0.18412788
76	0x3dd7f8cc	0.10545501
77	0xbd40b3c0	-0.047046423
78	0xbeac76a5	-0.3368427
79	0xbe85fa9c	-0.26167762
80	0xbe858b14	-0.2608267
81	0x3f5de5b8	0.8667865
82	0x3c9d1ec2	0.019179706
83	0xbf95f3ca	-1.1715024
84	0xb9855057	-0.00025427595
85	0xbea3c3cc	-0.3198532
86	0xbf2afcfe	-0.66792285
87	0x3f7a484b	0.9776656
88	0xbd1c8a13	-0.038217615
89	0x3d69a808	0.057045013
90	0xbdec1fe4	-0.1152952
91	0xbe607686	-0.21920213
92	0xbed53622	-0.41642863
93	0x3c8419cf	0.016125588
94	0xbf6ca8a1	-0.9244481
95	0x3e31079e	0.17288062
96	0x3eaf54b9	0.34244326
97	0xbe0f3e66	-0.13988647
98	0x3e30ef79	0.17278852
99	0xbe0d2a98	-0.1378578
100	0x39278721	0.000159767
101	0xbd9e8ac4	-0.07741311
102	0xbf034f04	-0.51292443
103	0xbf0098f1	-0.5023337
104	0x3d393e92	0.045225687
105	0x3f042673	0.5162117
106	0xbeb8dd0a	-0.3610614
107	0xbe167a68	-0.14695132
108	0x3eeb0b10	0.45906878
109	0xbe0e5092	-0.13897923
110	0xbf394094	-0.72364163
111	0xbeebf98b	-0.46088824
112	0xbea3e75e	-0.32012457
113	0xbf26909d	-0.6506441
114	0x3e374526	0.17897472
115	0x3e434f05	0.19073112
116	0x3e26ea9d	0.16300435
117	0xbe352498	-0.1768974
118	0x3ee19e4b	0.4406608
119	0xbf596f47	-0.8493542
120	0xbc899e2a	-0.016799051
121	0xbf9c285d	-1.2199818
122	0xbec1af69	-0.3782914
123	0xbe239b2e	-0.15977165
124	0x3e9ac79e	0.3023042
125	0xbdfbbbf3	-0.12291708
126	0xbe99b7f9	-0.30023172
127	0xbe20e04e	-0.15710565
128	0xbf744d0a	-0.9543005
129	0x3d9e00fe	0.07715033
130	0xbc038bef	-0.008028968
131	0x3f4bcbfc	0.7960813
132	0xbd0304e3	-0.031987082
133	0x3e888dff	0.26670834
134	0xbea3b55b	-0.319743
135	0xbe005484	-0.1253224
136	0xbdd2b9f3	-0.10289373
137	0xbf93210a	-1.1494458
138	0x3f2564fc	0.64607215
139	0xbe3fc902	-0.18729022
140	0x3d75a751	0.05997402
141	0x3dacbf3a	0.08434911
142	0x3da71993	0.08159175
143	0x3cf8ef88	0.030387655
144	0xbe0cae7f	-0.1373844
145	0x3e944e8b	0.28966174
146	0x3e71d4a3	0.2361627
147	0xbe339b2c	-0.17539662
148	0x3dd6e52a	0.10492928
149	0x3ecfa648	0.4055655
150	0xbf6b0cb8	-0.9181628
151	0xbed30ecd	-0.4122223
152	0x3e36259b	0.17787783
153	0x3f99b954	1.2009683
154	0xbe85ba73	-0.26118812
155	0xbe2eb951	-0.1706288
156	0x3f7493f7	0.95538276
157	0xbec9f42d	-0.39444104
158	0x3f0e9613	0.55697745
159	0xbea9b3ba	-0.33144933
160	0xbe4ca4ac	-0.19984692
161	0x3e2a606d	0.16638346
162	0x3e3d3dc7	0.18480597
163	0x3db5a6aa	0.08869679
164	0x3d449e5d	0.04800259
165	0xbe2c932c	-0.16853017
166	0x3f1ae510	0.6050577
167	0xbdb51095	-0.088410534
168	0xbe5f3027	-0.21795712
169	0xbef4aa37	-0.47786114
170	0xbedf5bcf	-0.43624732
171	0x3d0a6b00	0.03379345
172	0x3e615079	0.22003354
173	0xbc662a00	-0.0140480995
174	0xbdd070f9	-0.10177798
175	0xbfa49a1e	-1.2859533
176	0xbe95522f	-0.29164264
177	0x3e81d0bf	0.25354573
178	0xbd4c4b42	-0.04987646
179	0x3e846584	0.258587
180	0xbee12e81	-0.43980792
181	0x3e9c45dd	0.3052205
182	0x3f3181c5	0.6933864
183	0x3f4d2322	0.80131733
184	0xbeb154cf	-0.34635016
185	0x3d943bd3	0.07237973
186	0xbec2d787	-0.3805506
187	0x3db25b91	0.08708871
188	0xbf4d1569	-0.80110794
189	0xbec7c27f	-0.39015576
190	0xbee11a49	-0.43965366
191	0xbd6969c2	-0.056985624
192	0xbea62d34	-0.32456362
193	0x3cd3da10	0.025860816
194	0xbd8db6b6	-0.06919615
195	0x3c043619	0.0080695385
196	0xbdc1c506	-0.09461407
197	0xbe1507db	-0.14553778
198	0x3ec8825c	0.39161956
199	0x3e964ef9	0.29357126
200	0x3e665121	0.22491886
201	0x3eaea39e	0.34109205
202	0xbe1c16e7	-0.15243112
203	0xbec0daf6	-0.37667054
204	0xbcc47856	-0.023983162
205	0xbb3c38c0	-0.002872035
206	0xbec29773	-0.38006172
207	0xbf4a952d	-0.79133874
208	0x3cf51442	0.029916886
209	0x3e3ca641	0.18422796
210	0x3e363061	0.17791893
211	0xbefffa46	-0.4999563
212	0xbde88d9e	-0.11355136
213	0xbdd3c610	-0.10340512
214	0x3f12d4e0	0.5735607
215	0xbc34f1db	-0.011043991
216	0x3d717850	0.05895263
217	0x3f5847de	0.8448466
218	0x3d17e7a1	0.037086133
219	0xbdd53a90	-0.104115605
220	0x3fa879d7	1.3162183
221	0x3d4434e7	0.047902014
222	0xbdf9a6fe	-0.12190054
223	0xbd85dace	-0.06535874
224	0x3ebfd796	0.37469167
225	0x3df6a8b6	0.12043898
226	0x3eae4084	0.34033597
227	0x3edfceaf	0.43712375
228	0xbe53dc02	-0.20689395
229	0x3e6c0ba4	0.23051316
230	0xbec5ce2f	-0.38633868
231	0xbeaa6008	-0.3327639
232	0xbe673ddf	-0.22582196
233	0xbf3943da	-0.7236916
234	0x3d419434	0.04726048
235	0x3d934656	0.0719115
236	0xbded1538	-0.11576313
237	0xbd96bed4	-0.07360616
238	0x3e1ee5f2	0.15517405
239	0xbe00be32	-0.12572554
240	0xbe159ecd	-0.14611359
241	0xbe0aad47	-0.13542663
242	0xbe889f72	-0.26684147
243	0xbd13fae4	-0.03612794
244	0x3d7b665f	0.061376926
245	0x3dbee2c9	0.093205996
246	0xbfb5d0ba	-1.4204323
247	0x3edae700	0.42754364
248	0x3e252997	0.16129147
249	0xbf892452	-1.0714209
250	0x3de0bb3e	0.109732136
251	0xbcba4ea7	-0.022742582
252	0x3efb66a7	0.49101755
253	0xbb01edc2	-0.0019825553
254	0x3e333d44	0.1750384
255	0x3e15d269	0.14631046

fc2.bias f4 [16]
0	0xbdbf2bb1	-0.09334505
1	0xbdd1030a	-0.10205658
2	0xbd1371c3	-0.035997164
3	0x3d31dc07	0.043422725
4	0xbae76918	-0.0017655222
5	0xbc5a05bd	-0.013307032
6	0xbe19d0be	-0.15021035
7	0xbe91883d	-0.28424254
8	0x3e1f3551	0.15547682
9	0x3db53618	0.08848208
10	0x3cd8e272	0.026475165
11	0xbe126c29	-0.14299072
12	0xbe374508	-0.17897427
13	0x3c172caf	0.009226962
14	0x3cf571d2	0.0299615
15	0xbd7e81e7	-0.062135603
