python/model_pth/tripletmlp/triplet_hu_trained_4.pth (torch, 5791 bytes, 4 tensors)

fc1.weight f4 [32, 7]
000000 62 b2 b3 be 25 28 3a bf 1d bf 14 3e 68 59 13 3d
       -0.35097033 -0.72717506 0.14526029 0.035973936
000010 37 24 51 3d 62 76 06 be 7f 0c 36 be 6b 18 d5 be
       0.051059928 -0.13131097 -0.17778204 -0.41620192
000020 6c a0 32 3e a7 af d3 be 68 30 28 be 0b 95 20 3e
       0.17444009 -0.4134495 -0.16424716 0.15681855
000030 fe 0d 4c be db 57 12 3e 11 ad 4e be 90 38 91 3f
       -0.19927213 0.14291327 -0.20183207 1.1345387
000040 a2 d6 a1 bf 39 0b 2d bf 83 89 e8 3e c9 f6 b1 3e
       -1.2643626 -0.6759525 0.45417413 0.34758595
000050 1c a9 f7 bc ec 6a 2d 3f 8e c5 3f 3e a3 39 bb 3e
       -0.030232005 0.67741275 0.18727705 0.3656741
000060 f8 65 f2 3c f5 ba 3d 3d b8 9b 8c 3d 4d e7 60 3c
       0.029589638 0.046320874 0.068656385 0.013727021
000070 d3 26 4d 3f 44 a7 ea 3f 19 ab 34 bf 50 86 f5 be
       0.80137366 1.8332295 -0.70573574 -0.47954035
000080 46 fd 15 bc 04 87 1a bd 00 f9 33 bd 54 dd 33 be
       -0.009154623 -0.037726417 -0.043938637 -0.17564899
000090 20 c6 df be 02 41 44 be c3 5c 83 be 43 cd 6d 3e
       -0.43705845 -0.19165424 -0.2565671 0.23222832
0000a0 23 13 85 be 5a f4 5b be d0 d3 cd be 8a 6d 19 c0
       -0.25991163 -0.21479931 -0.40200663 -2.3973107
0000b0 4f 86 50 3f a1 0a de 3e 89 30 29 be c3 1c 86 be
       0.8145494 0.43367484 -0.16522421 -0.26193818
0000c0 e0 b1 c3 bd ea 1d e9 3e 6a cb 60 3e 14 df b9 bc
       -0.09555411 0.45530635 0.21952596 -0.02268938
0000d0 90 84 09 3e 4e 6a 1f 3e c3 de a2 3e dc 37 b0 3c
       0.13429475 0.15567896 0.3181058 0.02151101
0000e0 2e 04 f7 3d 39 df 98 be ff b4 13 3d 14 32 0b be
       0.12061344 -0.29857805 0.036061283 -0.13593322
0000f0 0f 95 ae bc e8 2f aa 3d b2 c4 cf bd a4 09 42 be
       -0.021311311 0.08309919 -0.101449385 -0.1894899
000100 32 6f 4c 3c 5b ad 89 be 32 46 91 be 78 4d 45 be
       0.012477683 -0.26890072 -0.28373867 -0.19267833
000110 e2 d8 86 3e cc 1f d9 bd a2 1a ba be 86 97 fd bd
       0.26337343 -0.10601768 -0.36348444 -0.123824164
000120 f4 2a d8 be 33 81 30 3e b5 53 93 3c c2 58 07 be
       -0.4222027 0.17236786 0.01798425 -0.13217452
000130 cd 69 4b 3e cd 6b 21 bf aa 1a 2e c0 3f 06 0a be
       0.19864579 -0.63055116 -2.7203774 -0.13478945
000140 33 35 52 be 9f 7a 9c 3f 3f 1f 7d 3f 7a d3 06 3d
       -0.20528106 1.2224921 0.988758 0.032916524
000150 32 7c 42 be 81 6f 2f bd 6b 5e 4e 3d 99 0f d3 be
       -0.18992689 -0.042830948 0.050383013 -0.41222838
000160 e3 4e 8a bd 85 71 5c 3c ad 64 47 bd 5b 17 9d 3d
       -0.06753328 0.0134548 -0.048679996 0.0767047
000170 10 a6 90 3d 8a 1a 32 3f 06 0f d4 bb e8 0b 2b 3d
       0.07062924 0.69571745 -0.0064715175 0.0417594
000180 a2 c6 a7 3d 56 4e 30 3d 04 a3 f8 bd 5b 44 20 c0
       0.08192183 0.043043457 -0.12140468 -2.504172
000190 16 e8 9d 3f 3c 6f 2b 3f 63 af 34 3c 28 e7 f1 bc
       1.2336452 0.66966605 0.011028144 -0.02952917
0001a0 53 b6 f4 bb 86 84 54 be c2 2e 90 bf 41 30 9d be
       -0.007468024 -0.20753679 -1.1264269 -0.30700877
0001b0 82 de 94 3e 67 28 ea 3e f8 49 ce bd 28 dc 15 bd
       0.2907601 0.4573395 -0.10072702 -0.03658691
0001c0 53 a1 4f bf 94 f1 29 c0 bc 53 d7 bd 34 b8 f7 bd
       -0.81105536 -2.6553698 -0.10514018 -0.12095681
0001d0 dd 73 20 3f a2 73 5d 3f ed 63 06 bb 01 c2 b2 3e
       0.62676793 0.86504567 -0.0020506338 0.34913638
0001e0 9d 77 22 be fd 18 19 3f b5 02 e7 3d 40 76 9f 3d
       -0.15865941 0.59803754 0.11279813 0.07786226
0001f0 51 96 02 3e bd 4d 0b bd eb 85 1f 3f 58 5d 20 40
       0.12752654 -0.034009684 0.6231372 2.5056973
000200 40 a9 66 bf 60 d1 4c bf dc 3c da 3d cd e3 47 3e
       -0.90102005 -0.8000698 0.10656139 0.19520493
000210 81 fa 9d 3d ea b8 cb 3e 92 68 29 40 44 aa d4 be
       0.077137955 0.39789516 2.6470075 -0.41536152
000220 11 62 83 bf 0b cd 5b 3c d6 56 42 bd dd 71 03 bc
       -1.0264302 0.013415585 -0.047446094 -0.008022753
000230 05 73 84 3e 85 f2 18 c0 36 f5 ac 3f 82 5c ab 3e
       0.25869003 -2.3898022 1.3512332 0.33469015
000240 f6 a5 20 3d c3 8f a6 bc 1a b3 9d 3d 24 4e 48 3c
       0.039220773 -0.020332223 0.077001765 0.012225661
000250 6a c1 0c 40 8a 39 54 bf dc 74 63 bf 10 26 01 bf
       2.199305 -0.829003 -0.8885019 -0.50448704
000260 c1 b0 fc be 0c a6 b8 bd c8 93 24 bd 3e 38 06 c0
       -0.49353603 -0.09016046 -0.040179998 -2.0971828
000270 1a e7 a1 3f 98 e3 f0 3e c1 a1 f4 3b fc 82 6f bd
       1.2648652 0.4704864 0.0074655716 -0.058474526
000280 14 10 d3 bb 30 00 1f 3c 89 0c bf 3c 14 e8 ed bd
       -0.0064411256 0.009704635 0.023321407 -0.11616531
000290 c5 cb 4d be 29 c5 dd 3d 70 f8 40 bd d7 cc 8c bd
       -0.20097263 0.10828621 -0.04711193 -0.068750076
0002a0 8b c5 a9 be ba e9 70 3e c6 6d b5 be 75 bf b6 be
       -0.33158526 0.2352666 -0.35435313 -0.35692945
0002b0 92 b8 17 3e 51 f9 8c 3e 70 94 de 3d 92 a2 17 3f
       0.14816502 0.27533963 0.10868156 0.5923244
0002c0 01 26 2c 40 55 13 69 bf f3 69 21 bf 81 ab 04 3d
       2.6898196 -0.91045123 -0.6305229 0.03239012
0002d0 51 d8 85 3b cf 88 11 3c fe db 31 3f 15 22 29 40
       0.004084625 0.008882715 0.69476306 2.6427052
0002e0 47 2e 15 bf 45 9e 64 bf e6 95 c3 bb c2 39 3f 3d
       -0.5827374 -0.89304 -0.005968797 0.04668594
0002f0 ed 33 00 bc 1f d2 07 3f ea a4 21 40 25 b4 50 bf
       -0.00782488 0.53054994 2.5256906 -0.8152488
000300 5e 34 58 bf 1f 75 d6 3c 9e 01 b8 3c 00 25 50 3c
       -0.84454906 0.026178895 0.022461709 0.012704134
000310 3b 40 ff bd 6b 23 b8 be a6 ea 14 bc 1f d1 59 be
       -0.12463423 -0.35964522 -0.009089148 -0.2127118
000320 dc 7e 9e 3d 99 d9 64 be 9a 09 f7 3d a7 fa 75 3e
       0.0773904 -0.22348632 0.12062378 0.24021398
000330 ed 82 c3 be 6d 0d c0 be 8d 0e de bd ab d4 c6 bd
       -0.38185826 -0.37510243 -0.10842619 -0.09708532
000340 fe 8f 19 be 89 97 66 3e ad d9 eb 3e 9d 41 26 40
       -0.14996335 0.22518744 0.4606451 2.5977547
000350 8c c3 12 bf fe c2 6f bf 6d d1 a6 3c 81 75 79 3c
       -0.5732963 -0.9365691 0.020363534 0.015225769
000360 1c 5a c8 3b d0 f2 e5 3e ae 7e fa 3f d4 d8 7a bf
       0.0061142575 0.44911814 1.956991 -0.97987103
000370 be 5d 2a bf 0b 51 b3 bd a1 a4 a5 3c 8a ac 80 3e
       -0.6654929 -0.08755692 0.020220103 0.25131637

fc1.bias f4 [32]
000000 2a 56 11 bf 90 42 98 be db d3 05 3d a8 d1 a6 bf
       -0.567721 -0.29738283 0.032672744 -1.3032732
000010 06 16 04 c0 7a 7f 6c be 53 ce d8 be e3 88 61 bf
       -2.0638442 -0.23095503 -0.42344913 -0.880995
000020 e3 a0 9b be c1 be b9 be 07 fd 7e be e4 3d 3b 3f
       -0.30396184 -0.36278346 -0.2490121 0.7314131
000030 80 02 61 3e 2f d5 d3 bf 87 64 12 3e 70 32 b8 3e
       0.2197361 -1.6549433 0.1429616 0.3597598
000040 56 10 32 3f 30 b1 72 bf 7f d7 e6 bf 60 bb 01 c0
       0.69556177 -0.94801617 -1.8034514 -2.0270615
000050 d6 e4 12 bf ec 22 b7 bf 15 01 6c bf a5 c6 a9 be
       -0.57380426 -1.4307532 -0.9218915 -0.33159366
000060 e3 f3 a4 be d8 34 a8 bf a0 00 32 c0 aa f2 f1 bf
       -0.3221732 -1.3141127 -2.7812881 -1.890218
000070 8e 84 b6 be cf 40 cc 3d 3a cf ca bf ef 0f 8f bf
       -0.35648006 0.09973299 -1.584449 -1.1176738

fc2.weight f4 [16, 32]
000000 01 02 08 3d 3f 9e 0a bd e1 9f b2 3f d9 34 46 be
       0.033205036 -0.03384232 1.3955041 -0.19356097
000010 db d5 26 3f 74 52 4f bd a8 7d 46 bf 5a 30 c7 3b
       0.6517007 -0.050615743 -0.77535486 0.006078762
000020 db 03 d4 3d 2d 06 02 be 55 d1 28 3d e6 0c 15 3d
       0.10352298 -0.12697668 0.04121526 0.036389254
000030 62 81 2d bd 44 ba 45 be 29 35 29 c0 f1 fd 45 be
       -0.042359717 -0.19309336 -2.6438696 -0.19335152
000040 ab 4e 87 3d dd 28 0c bf 83 72 e2 3e af 7f 5f 3e
       0.066068016 -0.5474985 0.4422799 0.21826051
000050 14 63 cf bf 61 ac 05 3e 76 76 be bf a1 9e 53 3e
       -1.6202111 0.13054039 -1.4879901 0.20665981
000060 c0 81 bd bb d3 6b 13 3f 6d 3b 57 3e c2 00 b0 3e
       -0.0057832897 0.575864 0.21018763 0.34375578
000070 59 d3 1e 3c e6 cb 98 bd ca 2e 3f 3f 20 98 57 3f
       0.009693944 -0.074607655 0.7468077 0.842165
000080 3e 1d 07 3e d1 f1 3e bd 06 e7 55 bf bd ae 13 bf
       0.13194749 -0.046617333 -0.8355564 -0.57688504
000090 17 36 c8 bc 62 2d 99 bd f7 f2 46 3f 3d 51 03 3f
       -0.024439855 -0.07479359 0.77714485 0.51295835
0000a0 5b 5e 8f 3d 7d 00 59 be 37 dd 50 3d d8 b9 72 3f
       0.07000419 -0.21191593 0.050992217 0.94814825
0000b0 1a 31 80 3c 9c 90 f8 3d 58 73 a6 3f 9e d8 78 3e
       0.015648413 0.12136957 1.300395 0.24301383
0000c0 fa 69 d4 3e 4c fe 55 3e 80 43 08 bf 45 62 e6 be
       0.41487104 0.20897788 -0.53227997 -0.4499685
0000d0 c4 63 8f 3e db aa 4b 3e 1b 66 40 bf d6 85 ae bd
       0.28005803 0.19889395 -0.751558 -0.08521621
0000e0 53 1c 00 be c3 b3 11 3e c0 e4 ac bd a0 14 87 be
       -0.12510805 0.1422873 -0.08442068 -0.26382923
0000f0 5b 26 0f 3e b8 3b 03 3e e3 87 3c be 55 26 91 be
       0.13979475 0.1281575 -0.18411212 -0.28349558
000100 5d 8d 14 3e 79 f0 28 3e 9d c2 01 bf 7b 9a 4d be
       0.14507051 0.16497983 -0.5068758 -0.20078461
000110 57 7e 28 3e 59 e3 53 3e 94 53 7b be 71 c4 9c 3e
       0.16454445 0.20692195 -0.24543601 0.30618623
000120 6a d4 17 be fb a9 46 3e fe 0d 14 3d cd 42 79 bf
       -0.14827123 0.1940078 0.036146156 -0.97367555
000130 3c df 9d 3b 33 0c 2a 3e 16 0a f6 3f b4 f7 e4 bd
       0.0048178714 0.16606216 1.9221828 -0.11180058
000140 ee 11 3b be a3 ac 1d bd e0 1c aa 3c fe 23 82 3e
       -0.18268558 -0.038494717 0.020765722 0.25418085
000150 d2 b9 4e 3f 2a 2e a7 bd f7 3f 61 3f 73 2f a2 bd
       0.8075229 -0.08163102 0.8798823 -0.079192065
000160 f8 aa ed bd f0 de 04 bf dc d8 09 bf 50 2d f3 be
       -0.11604875 -0.51902676 -0.53846526 -0.47495508
000170 f9 a3 5e 3d f7 e7 37 bd e0 66 9c 3c 0a ba 1a bf
       0.054355595 -0.044898953 0.019092023 -0.60440123
000180 b4 bd 0e 3e a5 09 33 be 0a 07 0a 3f 31 2d e1 3e
       0.13939553 -0.17484148 0.5391699 0.4397979
000190 a3 72 28 3f 03 2c 80 3e dd 8a e1 3d 0d 0a 56 3e
       0.6579992 0.25033578 0.11012814 0.20902272
0001a0 f6 18 b2 3e 23 d4 17 3d dc 5e 6d bd a2 be ac 3e
       0.3478467 0.037067544 -0.057951793 0.3373919
0001b0 7e 27 f1 3d 15 7e 96 be 9d 66 35 3f 5a a6 9c 3e
       0.11775111 -0.29393068 0.708597 0.30595666
0001c0 f2 7c b2 3f 04 3b 05 be a1 6f 4f be 06 34 34 3f
       1.394438 -0.13010794 -0.20257427 0.7039188
0001d0 a2 d5 36 bf d6 03 18 3d 79 31 e0 be f5 a6 8e 3d
       -0.7141973 0.037113033 -0.43787745 0.06965438
0001e0 52 f3 f0 3d 9c 42 df 3e ca 12 c7 3e 67 51 42 be
       0.1176516 0.43605506 0.38881522 -0.18976365
0001f0 4a 4f 90 3d 46 e2 13 3e 3e 30 80 bf c4 9e 0f be
       0.07046373 0.14441785 -1.0014722 -0.14025408
000200 f8 26 b6 3c 2b 8b 4a 3e 30 64 89 3e 1c ab aa bc
       0.022235379 0.19779651 0.2683425 -0.020833544
000210 52 4d 7c 3e 22 7a 94 3e bf 0f d6 be ca e0 b6 be
       0.2463887 0.2899943 -0.41808888 -0.35718375
000220 c0 62 37 be d5 76 ae 3d 33 4a a9 3b 5c 8f 05 bf
       -0.17908764 0.08518759 0.005166316 -0.52171874
000230 93 5c 6e 3d ff c7 61 3e fd 42 06 be 3d 6f 4c 3d
       0.058193754 0.22048949 -0.13111492 0.049910773
000240 35 dc 80 3d 16 52 f0 3e 51 f3 05 bf c9 fd d4 3e
       0.06292001 0.46937627 -0.52324396 0.41599873
000250 77 ab c7 bf 66 bf 24 be 4f 13 b6 be 58 43 44 3e
       -1.5599202 -0.16088638 -0.35561606 0.19166315
000260 3f ec 13 3e 9e e5 44 3e cf 0d 25 3f 9a eb da 3d
       0.1444559 0.19228217 0.64474195 0.10689469
000270 2d 6e a5 3d f7 de 0a be 14 6f 34 3e 8d 88 af 3e
       0.08077655 -0.13561617 0.17620498 0.34283867
000280 d4 4e be 3d af 55 08 be 20 78 48 3d bb b1 a9 bb
       0.09292379 -0.13313936 0.048942685 -0.005178658
000290 ad 69 8c be 5a b8 2c be 08 5b 85 3e ca c4 5f 3e
       -0.27424374 -0.168672 0.26046014 0.21852413
0002a0 b3 9a dd 3c 60 d6 13 3e cf d8 65 bc 03 3f 8e 3f
       0.027051305 0.14437246 -0.014028742 1.111298
0002b0 bf 27 96 bd 58 12 b9 bd 08 81 e8 be 62 88 23 3f
       -0.073318 -0.09036702 -0.45410943 0.6387998
0002c0 a3 bf d8 3e d4 0b 12 bf 94 46 7a be 0f 33 ac bc
       0.42333707 -0.570493 -0.24440986 -0.02102044
0002d0 18 34 ff 3f 4d ee 41 be 62 2e 5f bf 77 59 94 3d
       1.9937773 -0.18938561 -0.8718015 0.072436266
0002e0 b2 7c fe 3d 1b 0e 69 be 16 d9 eb 3d 90 22 0e bd
       0.124261275 -0.22759287 0.11516015 -0.03470093
0002f0 6c 24 33 3c b0 8a d1 bd b9 e4 9f be 0a 27 7d be
       0.010933977 -0.10231531 -0.3122919 -0.24721923
000300 54 2c 02 be fe 12 85 3c be 17 48 3d d0 26 00 3e
       -0.12712222 0.016244408 0.048850767 0.12514806
000310 24 64 fc 3d d6 f9 1f be 9a 39 28 3f 28 62 ea be
       0.12323788 -0.15622649 0.65712893 -0.45778012
000320 d5 66 04 3e eb c4 01 3c f7 b8 39 3b 8a 63 f6 3f
       0.12929852 0.007920484 0.0028339007 1.9249127
000330 d9 c8 77 3d d0 b9 d8 3d 48 88 97 be c7 cd 2c 3f
       0.060494278 0.10582316 -0.29596162 0.6750149
000340 7a 70 04 40 d7 9d 31 be e4 2f 42 3e dc 37 a8 be
       2.069365 -0.17345367 0.18963581 -0.32855117
000350 5f 2b a4 3f 90 e3 08 bf 19 aa 96 3e 22 a8 47 3e
       1.2825736 -0.5347223 0.2942665 0.19497731
000360 7a 69 14 be a0 dc 9b bd ea 34 52 bf b1 f4 b2 be
       -0.14493361 -0.0761044 -0.8211199 -0.3495231
000370 d0 96 d0 3b 32 a9 37 be f5 78 36 be 6d cf db 3d
       0.0063656345 -0.17935637 -0.17819579 0.10732923
000380 f6 1f 74 3e 5b 60 3c be 01 23 94 be ef 09 c8 bd
       0.23840317 -0.18396132 -0.28932956 -0.0976752
000390 57 86 e9 be 3a 5b 02 be 4f d7 38 3f 2b 78 2a 3f
       -0.45610306 -0.12730113 0.72203535 0.6658961
0003a0 d3 95 cd 3d 33 d1 82 bd 8b 87 47 3e 5a 47 9e 3e
       0.10038342 -0.06387558 0.194853 0.30913812
0003b0 b5 38 2b 3d 2b 9c 1e bf 6e 10 aa be 7f bc 77 3d
       0.041802127 -0.61957043 -0.3321566 0.0604825
0003c0 c0 24 8b 3f 9b a5 b0 bd cc 4b e8 bd ea f9 1e bd
       1.087059 -0.08625337 -0.11342582 -0.038812555
0003d0 e6 b3 19 bd 78 25 58 3d 36 b6 b4 3f 03 a4 1d 3b
       -0.03752508 0.052770108 1.4118106 0.0024054057
0003e0 68 0c 62 bd de 52 56 3e 55 68 84 be c5 87 8d be
       -0.055187613 0.20930049 -0.2586085 -0.27642646
0003f0 2e 3b 10 3c 16 ad 08 3e ad 3b 4f be 7a 6c a6 be
       0.008803172 0.13347277 -0.20237608 -0.32504636

fc2.bias f4 [16]
000000 c9 40 83 be 8f b3 3c bd c7 75 b8 3e a5 ba 80 3e
       -0.25635365 -0.046069678 0.36027357 0.25142398
000010 03 10 17 bd d0 6f 0f 3e 20 fb 39 3e bd 77 aa 3e
       -0.036880504 0.14007497 0.18162203 0.33294478
000020 d3 19 bd bd f4 e3 47 be f0 f8 39 3e 62 44 27 be
       -0.09233441 -0.19520551 0.18161368 -0.1633468
000030 0e d3 e6 bd 3a d6 85 bd e2 d9 04 3e 6a 95 60 3e
       -0.11270724 -0.06535001 0.1297374 0.21931997
