python/model_pth/tripletmlp/triplet_hu_trained_2.pth (torch, 5791 bytes, 4 tensors)

fc1.weight f4 [32, 7]
-0.35097033 -0.72717506 0.14526029 0.035973936 0.051059928 -0.13131097 -0.17778204 -0.41620192
0.17444009 -0.4134495 -0.16424716 0.15681855 -0.19927213 0.14291327 -0.033781696 0.95846
-0.67161894 -0.35782835 0.3276126 0.32241285 -0.06177062 0.52413666 0.29724154 0.17847213
0.101896815 0.083495975 -0.020892274 0.0074041723 0.5248035 1.3159078 -0.5299679 -0.10323167
0.10424471 0.02854246 0.033740487 -0.17564899 -0.43705845 -0.19165424 -0.2565671 0.23222832
-0.25991163 -0.21479931 -0.065232344 -1.040542 0.7252428 0.54527396 0.031159457 0.020790175
0.004902249 0.19374101 0.23948236 -0.37476903 0.035796113 0.3126548 0.33486086 -0.046751514
0.12061344 -0.29857805 0.036061283 -0.13593322 -0.021311311 0.08309919 -0.101449385 -0.1894899
0.012477683 -0.26890072 -0.28373867 -0.19267833 0.26337343 -0.10601768 -0.36348444 -0.123824164
-0.4222027 0.17236786 0.01798425 -0.13217452 0.19864579 -0.6183552 -2.3107955 0.21544302
0.029938055 0.86746955 0.60563934 -0.014099297 -0.18992689 -0.042830948 0.050383013 -0.41222838
-0.06753328 0.0134548 -0.048679996 -0.082539804 0.2717847 0.45037884 0.12151375 0.013135853
-0.015809868 -0.00025334882 -0.23568028 -1.2587725 0.7339052 0.50923115 0.035213467 -0.009614895
-0.010165266 -0.20753679 -1.1264269 -0.30700877 0.2907601 0.4573395 -0.10072702 -0.03658691
-0.68915796 -2.2750611 0.14895906 0.11267965 0.6111869 0.83816826 0.006147444 0.17571445
0.35836297 0.29951963 0.10427581 0.09879381 0.060714785 0.05228785 0.43648025 2.0897663
-0.6721341 -0.54563785 -0.007514345 0.004117991 0.029723521 0.16264817 2.2183447 -0.37418452
-0.7762861 -0.017732548 0.022500213 0.023749169 0.19028386 -0.91348326 0.73255086 0.25086838
0.08606952 0.014534838 -0.023316413 0.03068759 2.123425 -0.5236339 -0.63076466 -0.018395603
0.04190846 -0.009338951 -0.11359045 -0.65542334 0.68855006 0.30732188 -0.011462939 -0.0093770325
0.05965709 0.009704635 0.023321407 -0.11616531 -0.20097263 0.10828621 -0.04711193 -0.068750076
-0.33158526 0.2352666 -0.35435313 -0.35692945 0.14816502 0.27533963 0.10868156 0.26406336
2.093863 -0.75580543 -0.52906144 0.014726085 -0.015226378 0.0045949104 0.4194321 2.2119172
-0.5562212 -0.67966723 -0.011085805 -0.037938982 0.044162918 0.3578902 2.0643332 -0.55534285
-0.57298076 0.010765785 -0.013234028 0.013627459 -0.12463423 -0.35964522 -0.009089148 -0.2127118
0.0773904 -0.22348632 0.12062378 0.24021398 -0.38185826 -0.37510243 -0.10842619 -0.09708532
-0.14996335 0.22518744 0.21727096 2.1882045 -0.4802774 -0.7604787 -0.0074830535 0.007983055
0.024070956 0.45672038 1.3704433 -0.55804783 -0.28231964 -0.010858025 -0.0054630702 0.03780876
00000000: 62b2 b3be 2528 3abf 1dbf 143e 6859 133d
00000010: 3724 513d 6276 06be 7f0c 36be 6b18 d5be
00000020: 6ca0 323e a7af d3be 6830 28be 0b95 203e
00000030: fe0d 4cbe db57 123e ad5e 0abd a25d 753f
00000040: 38ef 2bbf 4735 b7be d7bc a73e 4c13 a53e
00000050: 3103 7dbd d22d 063f 0b30 983e 66c1 363e
00000060: 47af d03d f0ff aa3d 4626 abbc b39e f23b
00000070: 8659 063f ab6f a83f faab 07bf 206b d3bd
00000080: 407e d53d e1d1 e93c 7733 0a3d 54dd 33be
00000090: 20c6 dfbe 0241 44be c35c 83be 43cd 6d3e
000000a0: 2313 85be 5af4 5bbe 8998 85bd 7b30 85bf
000000b0: 83a9 393f 1397 0b3f 1e42 ff3c 2850 aa3c
000000c0: 0ca3 a03b 0b64 463e dd3a 753e bae1 bfbe
000000d0: f29e 123d 4a14 a03e e272 ab3e 847e 3fbd
000000e0: 2e04 f73d 39df 98be ffb4 133d 1432 0bbe
000000f0: 0f95 aebc e82f aa3d b2c4 cfbd a409 42be
00000100: 326f 4c3c 5bad 89be 3246 91be 784d 45be
00000110: e2d8 863e cc1f d9bd a21a babe 8697 fdbd
00000120: f42a d8be 3381 303e b553 933c c258 07be
00000130: cd69 4b3e 874c 1ebf 13e4 13c0 189d 5c3e
00000140: a740 f53c 7c12 5e3f 2e0b 1b3f bd00 67bc
00000150: 327c 42be 816f 2fbd 6b5e 4e3d 990f d3be
00000160: e34e 8abd 8571 5c3c ad64 47bd a10a a9bd
00000170: 5d27 8b3e 0e98 e63e 33dc f83d c337 573c
00000180: b283 81bc e7d3 84b9 2c56 71be 751f a1bf
00000190: 36e1 3b3f f95c 023f ff3b 103d cb87 1dbc
000001a0: 378c 26bc 8684 54be c22e 90bf 4130 9dbe
000001b0: 82de 943e 6728 ea3e f849 cebd 28dc 15bd
000001c0: a86c 30bf 9a9a 11c0 b988 183e 97c4 e63d
000001d0: bf76 1c3f 3292 563f 7f70 c93b 7dee 333e
000001e0: 5a7b b73e a35a 993e 8e8e d53d 6954 ca3d
000001f0: 11b0 783d c92b 563d 577a df3e bbbe 0540
00000200: fb10 2cbf ecae 0bbf e53a f6bb 36f0 863b
00000210: be7e f33c 3e8d 263e 5cf9 0d40 1d95 bfbe
00000220: b0ba 46bf d943 91bc 5e52 b83c 9e8d c23c
00000230: c6d9 423e 0ada 69bf 7488 3b3f d271 803e
00000240: 3745 b03d 8723 6e3c 1002 bfbc 8a64 fb3c
00000250: 32e6 0740 df0c 06bf cb79 21bf 60b2 96bc
00000260: 35a8 2b3d 6602 19bc 1ca2 e8bd d3c9 27bf
00000270: d144 303f 4b59 9d3e 0dcf 3bbc 20a2 19bc
00000280: fe5a 743d 3000 1f3c 890c bf3c 14e8 edbd
00000290: c5cb 4dbe 29c5 dd3d 70f8 40bd d7cc 8cbd
000002a0: 8bc5 a9be bae9 703e c66d b5be 75bf b6be
000002b0: 92b8 173e 51f9 8c3e 7094 de3d 5033 873e
000002c0: da01 0640 777c 41bf 9270 07bf ad45 713c
000002d0: 0f78 79bc e790 963b cebf d63e 0d90 0d40
000002e0: 8364 0ebf acfe 2dbf 3ca1 35bc e865 1bbd
000002f0: 2de4 343d 623d b73e 091e 0440 f32a 0ebf
00000300: deae 12bf fa62 303c 89d3 58bc b545 5f3c
00000310: 3b40 ffbd 6b23 b8be a6ea 14bc 1fd1 59be
00000320: dc7e 9e3d 99d9 64be 9a09 f73d a7fa 753e
00000330: ed82 c3be 6d0d c0be 8d0e debd abd4 c6bd
00000340: fe8f 19be 8997 663e 477c 5e3e 8b0b 0c40
00000350: ebe6 f5be bbae 42bf 6734 f5bb 5ccb 023c
00000360: 7430 c53c 41d7 e93e b06a af3f 39dc 0ebf
00000370: 338c 90be dce5 31bc 8e03 b3bb 5cdd 1a3d

fc1.bias f4 [32]
-0.567721 -0.29738283 -0.021975609 -0.62533396 -0.94758886 -0.23095503 -0.18699579 -0.36679655
-0.30396184 -0.36278346 -0.2490121 0.37639192 0.2197361 -0.88596904 0.1554393 0.3597598
0.67998123 -0.3528018 -1.2963423 -1.1448497 -0.1271662 -1.1504738 -0.539838 -0.33159366
-0.3221732 -1.0026053 -2.0236187 -1.40711 -0.35648006 0.09973299 -0.99912435 -0.6302775
00000000: 2a56 11bf 9042 98be 3106 b4bc e315 20bf
00000010: 2f95 72bf 7a7f 6cbe d37b 3fbe c2cc bbbe
00000020: e3a0 9bbe c1be b9be 07fd 7ebe 71b6 c03e
00000030: 8002 613e dece 62bf 7b2b 1f3e 7032 b83e
00000040: 4013 2e3f 70a2 b4be 8bee a5bf 6f8a 92bf
00000050: db37 02be ba42 93bf d332 0abf a5c6 a9be
00000060: e3f3 a4be 5f55 80bf f882 01c0 2e1c b4bf
00000070: 8e84 b6be cf40 cc3d 9dc6 7fbf de59 21bf

fc2.weight f4 [16, 32]
0.033205036 -0.03384232 0.5265798 -0.2751065 0.4132661 -0.050615743 -0.33727852 -0.13752362
0.10352298 -0.12697668 0.04121526 -0.079905964 -0.042359717 0.013404019 -0.9347756 -0.19335152
-0.09053741 -0.40201497 0.2771174 0.22855027 -0.52517426 -0.13125621 -0.42774704 0.20665981
-0.0057832897 0.50536287 0.1274264 0.55078185 0.009693944 -0.074607655 0.81327593 0.60998327
0.13194749 -0.046617333 -0.74367964 -0.51523 0.14517802 -0.07479359 0.32233226 0.24808013
0.07000419 -0.21191593 0.050992217 0.7703419 0.015648413 0.4437313 0.44654226 0.24301383
0.51664156 0.3333209 -0.33503804 -0.5603968 -0.06670321 -0.33014324 -0.46374765 -0.08521621
-0.12510805 0.16063337 -0.13409704 -0.33405784 0.13979475 0.1281575 -0.12992416 -0.23995134
0.14507051 0.16497983 -0.15323783 -0.24837513 -0.06483531 0.20692195 -0.06656563 0.2746232
-0.14827123 0.1940078 0.036146156 -0.41122758 0.0048178714 0.26030147 0.80480623 -0.11180058
-0.0681163 -0.104396634 0.017110959 0.86902916 0.22668062 -0.18627043 0.09236092 -0.079192065
-0.11604875 -0.42436603 -0.100780405 -0.24884376 0.054355595 -0.044898953 0.26609215 0.30189326
0.13939553 -0.17484148 0.18911573 0.3068188 0.57922 0.25033578 0.062195603 -0.2089773
0.3478467 0.037067544 -0.057951793 0.033150807 0.11775111 0.050314378 0.519295 0.30595666
0.9964952 -0.42001647 -0.12763867 0.28366378 -0.43678385 -0.07774568 -0.28270072 0.06965438
0.1176516 0.18291654 0.412146 -0.20290105 0.07046373 0.14441785 -1.1206306 -0.22295487
0.022235379 0.19779651 0.059725434 0.058017638 0.18303747 0.2899943 -0.055964075 -0.1607849
-0.17908764 0.08518759 0.005166316 -0.46200734 0.058193754 0.11711809 -0.38175747 0.049910773
0.15119722 0.4739627 -0.54054946 0.37789726 -0.35689953 0.017604075 -0.011339642 0.19166315
0.1444559 -0.37604555 0.2244895 0.16045213 0.08077655 -0.13561617 0.38245678 0.36920333
0.09292379 -0.13313936 -0.40540996 -0.0747801 -0.22087047 -0.168672 -0.2701076 0.18603987
0.027051305 0.14437246 -0.014028742 1.2035255 -0.073318 0.021079881 -0.26991642 0.6387998
0.63259304 -0.2625216 -0.5661062 -0.21029706 0.71738243 0.16874644 -0.14565425 0.072436266
0.124261275 -0.7681837 -0.118927285 -0.5476603 0.010933977 -0.10231531 -0.6192531 -0.4307212
-0.12712222 0.016244408 -0.21010831 0.16770972 0.017147306 -0.15622649 0.36967048 -0.62778145
0.12929852 0.007920484 0.0028339007 1.0168253 0.060494278 0.09633926 -0.1848919 0.6750149
1.91771 0.06595361 0.051619004 -0.61933154 0.17697258 -0.726451 -0.28321666 0.19497731
-0.14493361 -0.37605923 -0.70442134 -0.36715323 0.0063656345 -0.17935637 -0.47822827 0.13192983
0.23840317 -0.18396132 -0.43364736 -0.3220636 -0.45868632 -0.12730113 0.79923123 0.37279996
0.10038342 -0.06387558 0.194853 -0.10921115 0.041802127 -0.51663655 -0.29396993 0.0604825
0.78549945 -0.1808802 -0.37380224 0.029407065 0.0522747 -0.2098685 0.3692371 0.0024054057
-0.055187613 0.32002142 -0.25331947 -0.22515288 0.008803172 0.13347277 -0.1854612 0.049441885
00000000: 0102 083d 3f9e 0abd efcd 063f c2da 8cbe
00000010: 9d97 d33e 7452 4fbd c5af acbe fed2 0cbe
00000020: db03 d43d 2d06 02be 55d1 283d bda5 a3bd
00000030: 6281 2dbd 889c 5b3c 744d 6fbf f1fd 45be
00000040: ad6b b9bd e8d4 cdbe 55e2 8d3e 1509 6a3e
00000050: d271 06bf 0768 06be a901 dbbe a19e 533e
00000060: c081 bdbb 765f 013f 117c 023e 0a00 0d3f
00000070: 59d3 1e3c e6cb 98bd da32 503f dd27 1c3f
00000080: 3e1d 073e d1f1 3ebd ca61 3ebf 1de6 03bf
00000090: 8ca9 143e 622d 99bd bc08 a53e b808 7e3e
000000a0: 5b5e 8f3d 7d00 59be 37dd 503d 2035 453f
000000b0: 1a31 803c c030 e33e 30a1 e43e 9ed8 783e
000000c0: 9f42 043f 09a9 aa3e 1b8a abbe 2a76 0fbf
000000d0: b19b 88bd 8908 a9be 5570 edbe d685 aebd
000000e0: 531c 00be 137d 243e bc50 09be a109 abbe
000000f0: 5b26 0f3e b83b 033e d70a 05be ceb5 75be
00000100: 5d8d 143e 79f0 283e 61ea 1cbe 0d56 7ebe
00000110: 60c8 84bd 59e3 533e 9053 88bd 699b 8c3e
00000120: 6ad4 17be fba9 463e fe0d 143d 6c8c d2be
00000130: 3cdf 9d3b 3c46 853e c807 4e3f b4f7 e4bd
00000140: 8f80 8bbd e7cd d5bd 482c 8c3c b278 5e3f
00000150: f71e 683e adbd 3ebe b927 bd3d 732f a2bd
00000160: f8aa edbd 8146 d9be f565 cebd e6d0 7ebe
00000170: f9a3 5e3d f7e7 37bd 3b3d 883e c191 9a3e
00000180: b4bd 0e3e a509 33be 8ea7 413e 5b17 9d3e
00000190: c347 143f 032c 803e d1c0 7e3d 25fe 55be
000001a0: f618 b23e 23d4 173d dc5e 6dbd 24c9 073d
000001b0: 7e27 f13d 7316 4e3d 84f0 043f 5aa6 9c3e
000001c0: 4f1a 7f3f 660c d7be b6b3 02be 613c 913e
000001d0: 22a2 dfbe 2139 9fbd 26be 90be f5a6 8e3d
000001e0: 52f3 f03d 794e 3b3e cd04 d33e 4bc5 4fbe
000001f0: 4a4f 903d 46e2 133e d370 8fbf 484e 64be
00000200: f826 b63c 2b8b 4a3e a8a2 743d e7a3 6d3d
00000210: 2d6e 3b3e 227a 943e 963a 65bd cca4 24be
00000220: c062 37be d576 ae3d 334a a93b 3a8c ecbe
00000230: 935c 6e3d 9cdb ef3d b775 c3be 3d6f 4c3d
00000240: 72d3 1a3e 3dab f23e 7361 0abf c07b c13e
00000250: 89bb b6be 6c36 903c e8c9 39bc 5843 443e
00000260: 3fec 133e 0b89 c0be 93e0 653e 904d 243e
00000270: 2d6e a53d f7de 0abe 60d1 c33e 3808 bd3e
00000280: d44e be3d af55 08be e591 cfbe 4f26 99bd
00000290: de2b 62be 5ab8 2cbe 8b4b 8abe 3c81 3e3e
000002a0: b39a dd3c 60d6 133e cfd8 65bc 200d 9a3f
000002b0: bf27 96bd b7af ac3c 7c32 8abe 6288 233f
000002c0: 9ef1 213f 3b69 86be 56ec 10bf 1d58 57be
000002d0: 60a6 373f decb 2c3e 6326 15be 7759 943d
000002e0: b27c fe3d b0a7 44bf 2690 f3bd 7733 0cbf
000002f0: 6c24 333c b08a d1bd 5f87 1ebf 7d87 dcbe
00000300: 542c 02be fe12 853c a226 57be 19bc 2b3e
00000310: 8278 8c3c d6f9 1fbe 7345 bd3e 49b6 20bf
00000320: d566 043e ebc4 013c f7b8 393b 5527 823f
00000330: d9c8 773d 854d c53d 4d54 3dbe c7cd 2c3f
00000340: 8577 f53f b012 873d 736e 533d 838c 1ebf
00000350: 4d38 353e b1f8 39bf c601 91be 22a8 473e
00000360: 7a69 14be d68a c0be f554 34bf 82fb bbbe
00000370: d096 d03b 32a9 37be 56da f4be 9d18 073e
00000380: f61f 743e 5b60 3cbe 0707 debe 85e5 a4be
00000390: efd8 eabe 3a5b 02be 6b9a 4c3f a3df be3e
000003a0: d395 cd3d 33d1 82bd 8b87 473e 18aa dfbd
000003b0: b538 2b3d 4b42 04bf 3a83 96be 7fbc 773d
000003c0: 7e16 493f a938 39be 0263 bfbe 16e7 f03c
000003d0: ff1d 563d c5e7 56be a50c bd3e 03a4 1d3b
000003e0: 680c 62bd d9d9 a33e 17b3 81be 7a8e 66be
000003f0: 2e3b 103c 16ad 083e 8ae9 3dbe 9383 4a3d

fc2.bias f4 [16]
-0.11240294 -0.08471628 0.34930918 0.16068137 0.039876003 0.16378453 0.16524123 0.2192499
-0.16955252 -0.09932997 0.18474749 -0.14164737 -0.15619723 0.12386056 -0.0033731107 0.21646272
00000000: 8333 e6bd bb7f adbd a7d8 b23e a889 243e
00000010: 0555 233d 22b7 273e ff34 293e 0c83 603e
00000020: 2d9f 2dbe 836d cbbd 722e 3d3e 020c 11be
00000030: 2bf2 1fbe 9baa fd3d 680f 5dbb 67a8 5d3e
