python/model_pth/tripletmlp/triplet_bn2_hu_trained_1.pth (torch, 11027 bytes, 16 tensors)

fc1.weight f4 [32, 7]
0	0x3f056476	0.52106416
1	0xbfbedc9d	-1.4911076
2	0x3ea0ec30	0.31430197
3	0xbe1e9b11	-0.1548884
4	0x3cfee508	0.03111507
5	0xbe31aa69	-0.17350163
6	0xbdcfb18d	-0.10141287
7	0x3f2fdae6	0.6869339
8	0xbe8a70b9	-0.27039126
9	0x3e9d8079	0.3076208
10	0xbf99ac95	-1.2005793
11	0x3f236d24	0.6383841
12	0x3f2a3d41	0.66499716
13	0x3ed0d6df	0.40788934
14	0x3f18a33f	0.59624094
15	0xbf7f3563	-0.99690837
16	0xbe8f1ea8	-0.27953076
17	0x3f3bb546	0.73323476
18	0x3f57d188	0.84304094
19	0x3e098828	0.13430846
20	0x3d8f780e	0.070053205
21	0x3e52f4d4	0.20601207
22	0x3d87a577	0.06623357
23	0xbe9b1cb0	-0.30295324
24	0xbedf4d5a	-0.43613702
25	0x3fac4ce7	1.3460969
26	0x4015bb24	2.3395472
27	0xbe131f0f	-0.14367317
28	0x3f243ec4	0.6415827
29	0xbfbbe31d	-1.4678684
30	0x3d6bcb79	0.057567094
31	0xbe772e15	-0.24138673
32	0xbe3c2ec1	-0.1837721
33	0x3abb7cc9	0.0014304157
34	0x3ce47af4	0.02789066
35	0x3f0b0a0e	0.5431222
36	0xbeab7e76	-0.3349492
37	0xbf60610c	-0.8764808
38	0x3f1e7902	0.61903393
39	0x3e655a4f	0.22397731
40	0xbf26915e	-0.6506556
41	0xbe5ced77	-0.2157496
42	0x3f68be38	0.9091525
43	0xbf8772c9	-1.0581905
44	0x3f04c3f1	0.5186148
45	0x3dc8b6ca	0.09800489
46	0xbeb83d88	-0.35984445
47	0xbe97050a	-0.29496032
48	0xbce34965	-0.027744958
49	0x3e51421d	0.20435376
50	0xbe164436	-0.14674458
51	0x3eded76f	0.43523738
52	0x3c12da70	0.008963212
53	0x3f381fce	0.7192353
54	0xbc8d13ad	-0.017221296
55	0xbf70145b	-0.9378106
56	0x3f29a04c	0.6626022
57	0xbf5a9207	-0.8537907
58	0xbf49d8a8	-0.78846216
59	0x3e8c340b	0.27383456
60	0x3f6fe3f0	0.9370718
61	0xbf31081e	-0.6915301
62	0x3f644b65	0.8917754
63	0x3da414d5	0.08011786
64	0xbe29123d	-0.16510864
65	0xbd7874c8	-0.060658246
66	0x3f243ca2	0.6415502
67	0xbe88a8eb	-0.26691374
68	0x3e54836e	0.20753261
69	0x3e9d3e11	0.30711415
70	0x3f4fa857	0.8111624
71	0x3ca4f79c	0.0201376
72	0xbf83f2d6	-1.0308483
73	0x3fb0704c	1.378427
74	0x3e727bad	0.23679991
75	0xbecadf36	-0.3962342
76	0xbe39704e	-0.18109247
77	0x3e9715da	0.2950886
78	0xbeb021ba	-0.3440073
79	0xbe88b661	-0.26701644
80	0x4028e2bc	2.6388388
81	0x3e8493ad	0.25893918
82	0x3d25b4c0	0.04045558
83	0xbe2e384d	-0.17013665
84	0x3f571807	0.8402104
85	0xbf6978a7	-0.91199726
86	0x3f2644b8	0.64948606
87	0xbecdf12a	-0.40223056
88	0x3e57f52f	0.21089624
89	0xbc89274e	-0.016742375
90	0x3ecc649c	0.3992051
91	0x3f4e8428	0.80670404
92	0xbf0fc625	-0.5616172
93	0xbdf0a856	-0.117508575
94	0xbe13af1a	-0.14422265
95	0x3f5a4fa0	0.8527775
96	0x3f37a9ff	0.7174377
97	0x3eb44403	0.3520814
98	0xbeac3e02	-0.33641058
99	0x3dd35cef	0.1032046
100	0x3fa29a09	1.2703258
101	0xbefa10ad	-0.48840848
102	0x3c8f4fdf	0.01749414
103	0xbd80c741	-0.06288005
104	0xbdc55f43	-0.0963731
105	0x3f7979f2	0.974517
106	0xbf26c4f9	-0.65144306
107	0xbf1145ae	-0.5674695
108	0xbbbea66c	-0.005818179
109	0x3df2cfc8	0.118560374
110	0x3e246086	0.16052446
111	0xbe2efbd0	-0.17088246
112	0x3f2ef23e	0.6833838
113	0xbf9c52ea	-1.2212803
114	0xbef3779e	-0.47552198
115	0x3e56247a	0.20912352
116	0xbde961bf	-0.11395597
117	0x3b083bf8	0.0020787697
118	0x3e989dcb	0.29807886
119	0xbd1d224e	-0.038362794
120	0xbe004b41	-0.12528707
121	0x3fd05803	1.6276859
122	0xbf93c73a	-1.1545174
123	0xbd08c088	-0.033386737
124	0xbef28278	-0.47365165
125	0xbe31fda3	-0.17381911
126	0x3ce6066c	0.028079234
127	0xbe0c313e	-0.1369066
128	0x3fbeaa48	1.4895716
129	0xbf6cb0a6	-0.92457044
130	0x3ec93217	0.39296028
131	0xbf2a05e4	-0.6641524
132	0xbee868a2	-0.45392329
133	0x3f256acc	0.64616084
134	0xbfdf2909	-1.7434398
135	0x3e8bf786	0.27337283
136	0xbb1c0b9e	-0.0023810635
137	0xbe3c9f76	-0.18420205
138	0x3d655617	0.055990305
139	0xbe4dbef8	-0.2009238
140	0x3f454ebf	0.7707328
141	0xbe8e0865	-0.2774078
142	0xbcccecf7	-0.025015337
143	0x3d917fb8	0.071044385
144	0xbd969682	-0.07352926
145	0xbf0beb1f	-0.5465564
146	0x3d6b0d79	0.057385895
147	0x3ec88bd6	0.39169186
148	0xbe9bd149	-0.3043311
149	0xbe969e06	-0.29417437
150	0x3fb14bba	1.3851235
151	0xbc333815	-0.010938664
152	0xbdf4d0a1	-0.11953855
153	0xbf43e95c	-0.76527953
154	0xbf536e0b	-0.8258979
155	0x3eebf545	0.46085563
156	0x3d185a0f	0.03719526
157	0x3eb0d010	0.3453374
158	0x3f361afc	0.71134925
159	0x3f518dd7	0.81857055
160	0xbf79dd95	-0.9760373
161	0x3f94ca25	1.162419
162	0xbde9c079	-0.11413664
163	0x3e5e396a	0.21701589
164	0xbf4510ea	-0.76978934
165	0xbd00ba8d	-0.03142791
166	0x3edb8ccb	0.42880854
167	0x3e995806	0.2994997
168	0x3f96239c	1.1729617
169	0x3b2fdf0a	0.0026835823
170	0xbe16a7c0	-0.14712429
171	0xbf560196	-0.8359617
172	0x3d12fcd8	0.03588566
173	0x3e9d2a32	0.30696255
174	0x3efd3458	0.49453998
175	0x3f262a43	0.64908236
176	0xbf711eef	-0.94187826
177	0x3e912507	0.28348562
178	0xbe971f5e	-0.2951612
179	0xbe22536a	-0.15852132
180	0xbdacb8b0	-0.08433664
181	0x3eb752ff	0.35805508
182	0x3eecce4e	0.46251148
183	0xbfc7d132	-1.5610716
184	0xbdc0df58	-0.094175994
185	0x3e1aca0b	0.15116136
186	0xbee432d3	-0.44570026
187	0x3e0aa3bc	0.13539022
188	0x3d94efb9	0.07272286
189	0x3f571873	0.8402168
190	0xbe246fe2	-0.16058305
191	0x3e73575b	0.23763792
192	0x3eb5c7ac	0.355039
193	0xbea1b36e	-0.31582206
194	0xbe97d84d	-0.29657212
195	0xbf71ccac	-0.9445293
196	0x3e56796c	0.20944756
197	0xbeb71d86	-0.35764712
198	0x3e547feb	0.20751922
199	0x3e5c40db	0.21509115
200	0xbdf60bf9	-0.12014002
201	0x3f011296	0.50418985
202	0xbdcbb8b7	-0.09947341
203	0xbe9d9027	-0.30774042
204	0xbee57348	-0.44814515
205	0x3f31bb29	0.6942621
206	0xbe0e8dc4	-0.13921267
207	0x3fd118d8	1.6335707
208	0x3cef62be	0.029221889
209	0xbf88d085	-1.0688635
210	0x3ec97287	0.3934519
211	0xbfb07ce7	-1.3788117
212	0x3db92e89	0.09042079
213	0x3e341ae1	0.17588378
214	0x3ebcf77d	0.3690757
215	0x3e247717	0.16061054
216	0x3c949f9f	0.01814252
217	0x3eb8913c	0.36048305
218	0xbe869cde	-0.26291555
219	0xbf122869	-0.5709291
220	0x3f672bbe	0.9030112
221	0x3e630009	0.22167982
222	0xbeb72bd7	-0.35775635
223	0x3e48f962	0.19626382

fc1.bias f4 [32]
0	0xbefa1095	-0.48840776
1	0xbe2c6324	-0.16834694
2	0xbe92f097	-0.2869918
3	0x3f3de7e2	0.7418195
4	0xbe5913ba	-0.21198931
5	0x3f28f82d	0.66003686
6	0x3ee4b87d	0.44672003
7	0xbf990acb	-1.1956419
8	0x3e42f673	0.19039325
9	0xbf7e6558	-0.9937339
10	0xbf467428	-0.7752099
11	0x3ed6b5a1	0.41935447
12	0x3ed5b6cf	0.41741034
13	0xbeac3cc4	-0.3364011
14	0x3f50b222	0.8152181
15	0x3d11b279	0.035570595
16	0xbdcba93b	-0.099443875
17	0x3eedd803	0.46453866
18	0x3e179c2e	0.14805672
19	0xbe669493	-0.22517614
20	0x3f722e24	0.94601655
21	0x3f8110be	1.0083234
22	0x3e6a1bfb	0.22862236
23	0xbed9193a	-0.4240206
24	0xbedee970	-0.43537474
25	0x3ec5ce6e	0.38634056
26	0xbeed12aa	-0.46303302
27	0x3fa47115	1.284701
28	0xbf615d9d	-0.8803347
29	0x3f36481f	0.712038
30	0xbf1ab1e5	-0.60427696
31	0xbf8cab37	-1.0989751

fc2.weight f4 [16, 32]
0	0xbe0d642b	-0.13807742
1	0x3d06465c	0.032781944
2	0x3f822393	1.0167106
3	0xbf0649a0	-0.5245609
4	0x3e4d4eb6	0.20049557
5	0x3e89c042	0.26904494
6	0x3f0ee57d	0.5581892
7	0x3f703702	0.93833935
8	0x3f58e1fa	0.8471981
9	0x3e3d7608	0.18502057
10	0x3e8752f5	0.2643048
11	0x3e7cf971	0.2470453
12	0x3f1e53ad	0.6184643
13	0x3f4cdcfd	0.800247
14	0xbe458e82	-0.19292644
15	0x3f00ae5f	0.5026607
16	0x3f486c47	0.7829022
17	0xbe3a1ba2	-0.18174604
18	0xbf2182ae	-0.63090026
19	0x3e20f480	0.1571827
20	0x3f80b540	1.0055313
21	0x3f11f1aa	0.57009375
22	0xbf258394	-0.646539
23	0x3f06d430	0.5266752
24	0x3e936c51	0.28793576
25	0x3f24e6d6	0.6441473
26	0xbd919fb3	-0.07110538
27	0x3f698093	0.91211814
28	0x3e242254	0.1602872
29	0xbecfe0b0	-0.4060111
30	0xbe165f2e	-0.14684746
31	0xbded148f	-0.11576187
32	0x3f85c865	1.045178
33	0xbd8ecf12	-0.06973089
34	0x3e6cb314	0.23115188
35	0xbdf8b31e	-0.12143539
36	0x3f6a8642	0.9161111
37	0xbe3e302c	-0.18573064
38	0x3e0ad6fb	0.13558571
39	0x3e1f49b1	0.15555455
40	0x3f31fbc1	0.6952477
41	0xbc5b0a3f	-0.013369142
42	0xbf12e8f8	-0.5738673
43	0xbeef7004	-0.4676515
44	0x3e3d514a	0.1848804
45	0x3dcf4086	0.10119729
46	0x38e49c8b	0.000109010456
47	0x3f1e8b04	0.6193087
48	0x3f740d15	0.9533246
49	0x3e71ea0c	0.23624438
50	0x3d0c9b8c	0.03432803
51	0x3f4b3e40	0.7939186
52	0xbe8499f9	-0.25898722
53	0xbee12628	-0.43974423
54	0x3ca1388e	0.019680288
55	0xbe11f443	-0.14253335
56	0x3cacb72c	0.021083437
57	0x3e702fc7	0.23455726
58	0x3f896060	1.0732536
59	0xbe0fbdd3	-0.14037256
60	0xbec25dc3	-0.3796216
61	0x3ef7da14	0.48408568
62	0x3f967df0	1.1757183
63	0xbea58194	-0.32325423
64	0xbec013a9	-0.37515
65	0x3da5cc8e	0.08095656
66	0xbf221f59	-0.6332908
67	0x3f091fad	0.5356396
68	0xbf220680	-0.6329117
69	0x3d9db375	0.07700244
70	0xbf9b2e35	-1.2123476
71	0xbed8aa98	-0.42317653
72	0xbec17140	-0.37781715
73	0x3cbcd972	0.023052905
74	0x3e6b7752	0.22994736
75	0x3f1db770	0.6160803
76	0xbf70307c	-0.9382398
77	0xbecb7a84	-0.3974191
78	0x3cb7a20c	0.022416137
79	0xbeb4a85a	-0.35284692
80	0xbf8b6adb	-1.0891985
81	0xbe5eb600	-0.21749115
82	0xbd7171e9	-0.058946524
83	0xbf316389	-0.69292504
84	0x3e35046c	0.17677468
85	0x3d762e2b	0.060102623
86	0x3f181f31	0.59422594
87	0xbd665ee8	-0.056242853
88	0x3ea627e4	0.3245231
89	0xbf92d19a	-1.1470215
90	0xbef1f3aa	-0.47256213
91	0xbed617f4	-0.4181515
92	0x3e7c6cf2	0.24650934
93	0xbe8f05aa	-0.2793401
94	0xbe856796	-0.26055592
95	0x3e3513b9	0.17683305
96	0xbe76fdb0	-0.24120212
97	0x3e052d77	0.13005625
98	0x3ef2fcd4	0.47458518
99	0x3f065df1	0.52487093
100	0xbe8e0f00	-0.2774582
101	0x3f3022b0	0.6880293
102	0xbf11f6f9	-0.57017475
103	0xbf14e66d	-0.581641
104	0x3f76b65d	0.96372014
105	0xbe8531a5	-0.26014438
106	0x3ec208c5	0.37897316
107	0x3e77e372	0.24207857
108	0xbecc2a08	-0.39875817
109	0x3d531a48	0.051538736
110	0xbfac9de2	-1.3485682
111	0x3e94d863	0.2907134
112	0x3f037619	0.5135208
113	0xbf9c7b68	-1.2225161
114	0xbf9850c9	-1.1899654
115	0xbeb43d9b	-0.3520325
116	0xbe8f45af	-0.27982852
117	0xbd9d442d	-0.07679019
118	0xbf130e70	-0.57443905
119	0xbe4fef39	-0.203061
120	0xbe272ecc	-0.16326445
121	0xbf175181	-0.5910874
122	0xbd914602	-0.07093431
123	0xbee5001f	-0.44726655
124	0xbe8d9932	-0.2765594
125	0xbeef6c9f	-0.4676256
126	0xbd9eb1b4	-0.07748738
127	0x3ee5be5b	0.44871792
128	0x3e45f86e	0.1933305
129	0xbfb9f3ca	-1.4527524
130	0x3f0611c2	0.52370846
131	0xbf503464	-0.8132994
132	0xbdae25b9	-0.08503289
133	0x3ec57f58	0.38573718
134	0x3e820e78	0.25401664
135	0x3a987399	0.001163113
136	0x3e6effe3	0.233398
137	0xbe31f547	-0.17378722
138	0xbed32adf	-0.41243646
139	0x3f93ec14	1.155642
140	0xbe769a94	-0.24082404
141	0xbf86b6c0	-1.0524521
142	0x3e97876d	0.2959551
143	0xbf05a81e	-0.5220965
144	0x3e99fb3a	0.30074483
145	0x3ec1f863	0.37884817
146	0xbb47d89b	-0.0030494097
147	0x3e524719	0.20534934
148	0x3e60f102	0.21966937
149	0x3f23969f	0.63901705
150	0xbf2d7b1d	-0.6776598
151	0xbfaf58f3	-1.369902
152	0xbf9dfa04	-1.2341924
153	0x3b6a9725	0.0035795656
154	0x3da1220f	0.07867824
155	0x3e890670	0.26762724
156	0x3ee784cc	0.45218503
157	0xbdb75fae	-0.08953796
158	0x3e808227	0.25099298
159	0xb90a4f03	-0.0001319014
160	0xbee1103e	-0.43957704
161	0x3da44127	0.08020239
162	0x3e53148b	0.20613305
163	0x3e8b508b	0.27209887
164	0xbd92443d	-0.07141922
165	0xbef46281	-0.47731403
166	0xbe07561b	-0.1321644
167	0xbe896877	-0.26837513
168	0x3f4a0146	0.78908193
169	0xbec03848	-0.3754294
170	0xbfd315c5	-1.6491019
171	0xbee2c681	-0.4429207
172	0x3f18ae8d	0.59641343
173	0x3f16a0cb	0.588391
174	0xbe3671c4	-0.17816836
175	0xbe4c0b18	-0.19926107
176	0x3d5348d1	0.051583115
177	0x3d8be33a	0.068304494
178	0x3d8b8251	0.06811965
179	0xbf15aea9	-0.58469635
180	0xbe7466f6	-0.23867401
181	0xbe54c714	-0.20779067
182	0xbf53a4cc	-0.82673335
183	0xbf5b1960	-0.85585594
184	0xbf1e6aa1	-0.6188145
185	0x3f216763	0.6304838
186	0xbe559278	-0.20856655
187	0xbf46ce6e	-0.77658737
188	0xbea3d346	-0.31997126
189	0x3d9fcb96	0.07802503
190	0xbeb340d9	-0.35010412
191	0xbf022cfd	-0.50849897
192	0x3f88342f	1.0640925
193	0x3f6bbacf	0.9208192
194	0xbc068196	-0.008209607
195	0x3ec96545	0.39335075
196	0x3f80f44d	1.0074555
197	0xbd85625f	-0.065129034
198	0xbe33e035	-0.17565997
199	0xbd04438d	-0.032290984
200	0x3ea502fb	0.32228836
201	0x3da7851a	0.08179684
202	0xbda01c7a	-0.078179315
203	0xbf48d9c0	-0.7845726
204	0x3d25d6cf	0.04048806
205	0x3f50ddb9	0.8158832
206	0x3e241491	0.1602347
207	0x3f67115a	0.9026085
208	0x3eb49af5	0.35274473
209	0xbe7a5b8c	-0.24448985
210	0x3d57eb72	0.052714773
211	0x3f3fc919	0.74916226
212	0xbe98f6f3	-0.29875907
213	0xbeea4cca	-0.4576171
214	0x3edd08ca	0.43170768
215	0x3f217831	0.6307402
216	0x3f240b5f	0.6407985
217	0x3dabaa62	0.08382107
218	0x3f7c5ef7	0.98582405
219	0xbe10e2c4	-0.14149004
220	0xbdd1f5e9	-0.10251982
221	0x3ee21629	0.44157532
222	0x3fac12a4	1.3443189
223	0xbe4fde01	-0.20299532
224	0x3f9fe9e2	1.249325
225	0xbedef5d4	-0.43546927
226	0xbd1ce948	-0.03830841
227	0xbde66d77	-0.112513475
228	0x3f5ed851	0.8704882
229	0xbe416c22	-0.18888906
230	0x3e49d1f6	0.19709
231	0x3eab35a9	0.33439377
232	0xbea04639	-0.31303576
233	0x3ec2a0c0	0.38013268
234	0x3f0f658b	0.5601432
235	0x3ef07cd2	0.4697023
236	0x3d8dcbcd	0.069236375
237	0xbd331694	-0.043722704
238	0x3f5c43ec	0.8604114
239	0x3e9278c3	0.2860776
240	0x3e68de7f	0.22741126
241	0x3ea9f13d	0.33191863
242	0x3ed0e64b	0.408007
243	0x3f9ece37	1.2406682
244	0xbeac4037	-0.33642742
245	0xbe1d8e34	-0.15386277
246	0x3f22bc88	0.63568926
247	0x3e2476b9	0.16060914
248	0x3e75d293	0.24006109
249	0xbee987bd	-0.45611373
250	0x3f9d2da6	1.2279556
251	0xbc0e162a	-0.0086722765
252	0x3e824f35	0.25451055
253	0x3f66d9e3	0.9017622
254	0x3f877b66	1.0584533
255	0x3f1da414	0.6157849

fc2.bias f4 [16]
0	0xbc13389d	-0.008985666
1	0x3da4ef66	0.08053474
2	0x3de0e6f6	0.10981552
3	0xbc7359cd	-0.014852953
4	0xbdea6256	-0.11444537
5	0xbdad50e0	-0.08462691
6	0xbe3588b8	-0.17727935
7	0x3d25169d	0.04030477
8	0xbc2c2ab1	-0.010508225
9	0x3a4ef54e	0.00078948296
10	0xbd9fb23a	-0.07797666
11	0xbe1e4ebe	-0.15459725
12	0x3d788faa	0.060683884
13	0xbcbae3ff	-0.022813795
14	0x3e0d1d97	0.13780819
15	0x3cbe124f	0.02320209

bn1.weight f4 [7]
0	0x3ffb1b39	1.9617683
1	0x3ff8c2c4	1.9434438
2	0x3f803f6c	1.0019355
3	0x3f62b2ac	0.8855388
4	0x3ec6baab	0.3881429
5	0x3eafeaf5	0.34358945
6	0x3e0f260d	0.13979359

bn1.bias f4 [7]
0	0xbe553a6c	-0.20823067
1	0x3eb939ac	0.36176813
2	0xbd9f3d17	-0.07775324
3	0xbe8c2c29	-0.27377442
4	0xbd803d42	-0.06261684
5	0xbe1f83c5	-0.1557761
6	0x3d1753c7	0.03694513

bn1.running_mean f4 [7]
0	0x40407fec	3.0078077
1	0x40e18ecf	7.0486827
2	0x411b118b	9.691783
3	0x411de3ef	9.868148
4	0x40b21c9b	5.565992
5	0x407c9dfd	3.9471428
6	0x3eb20f38	0.34777236

bn1.running_var f4 [7]
0	0x3cca4955	0.02469317
1	0x3fa06ff7	1.2534169
2	0x3e246bf1	0.16056801
3	0x3d9f3f9a	0.07775803
4	0x4285b8fe	66.86131
5	0x42b42086	90.06352
6	0x42ce6638	103.199646

bn2.weight f4 [32]
0	0x3fbeec9d	1.4915959
1	0x3fa69965	1.3015562
2	0x3faf0a0d	1.3674942
3	0x3f5a8928	0.85365534
4	0x3f96d788	1.1784525
5	0x3f8cebd9	1.1009475
6	0x3fa5f9ed	1.2966896
7	0x3f9f37f9	1.2438956
8	0x3fc19508	1.5123606
9	0x3f2f672a	0.6851679
10	0x3fb7b3df	1.4351767
11	0x3fce182d	1.6101128
12	0x3f9adb08	1.2098093
13	0x3fb0dab5	1.3816744
14	0x3fa2abab	1.2708639
15	0x3f8a0b3a	1.0784676
16	0x3fb3aed5	1.403773
17	0x3fa46dd4	1.2846017
18	0x3fb6e9cd	1.42901
19	0x3fa5b57f	1.2946013
20	0x3fa13334	1.2593751
21	0x3f871c01	1.0555421
22	0x3fb36025	1.4013716
23	0x3fb1631c	1.3858371
24	0x3f9d85e0	1.230648
25	0x3fbd3e15	1.4784571
26	0x3fb9c605	1.4513556
27	0x3fa202af	1.2657069
28	0x3f829046	1.0200279
29	0x3f6e970e	0.9319924
30	0x3fc2b513	1.521151
31	0x3f81840c	1.0118423

bn2.bias f4 [32]
0	0xbe799c0f	-0.24375938
1	0x3cbcfba0	0.023069203
2	0xbea72973	-0.3264881
3	0x3ee81bb1	0.45333627
4	0xbd526232	-0.051363178
5	0xbda8561c	-0.08219549
6	0xbefde805	-0.4959108
7	0x3e56f17f	0.20990561
8	0xbe98bf95	-0.29833665
9	0x3d0ee94d	0.03489046
10	0xbe8ccc77	-0.27499744
11	0xbeadff1e	-0.339837
12	0xbec2ca62	-0.3804503
13	0xbea7f665	-0.32805172
14	0xbe18319d	-0.14862676
15	0xbed3ad42	-0.41343123
16	0xbd144c08	-0.03620532
17	0x3db872d0	0.09006274
18	0xbe25c52f	-0.16188501
19	0xbe9382dc	-0.28810775
20	0xbea5d1eb	-0.32386717
21	0x3df4cad4	0.11952749
22	0x3e6a5c10	0.22886682
23	0xbec823ae	-0.3908972
24	0xbde24cfd	-0.110498406
25	0xbe198e73	-0.14995746
26	0xbdfe86a9	-0.12428028
27	0xbf15fe0d	-0.58590776
28	0x3c4d93c2	0.012547435
29	0xbc698176	-0.014252057
30	0xbe5c0927	-0.21487866
31	0x3e16e1d7	0.14734589

bn2.running_mean f4 [32]
0	0x3e8e8eda	0.27843362
1	0x3e57df3e	0.21081254
2	0x3de976b3	0.11399593
3	0x3f3a7b51	0.72844416
4	0x3ec3ed76	0.38267106
5	0x3f1de728	0.6168084
6	0x3f0298e0	0.5101452
7	0x00000004	6e-45
8	0x3ed21fb5	0.41039816
9	0x00000004	6e-45
10	0x3e400bfe	0.18754575
11	0x3eefe81b	0.4685677
12	0x3ef819db	0.48457226
13	0x3dd61897	0.10453909
14	0x3f8752d0	1.0572147
15	0x3e8121bc	0.2522105
16	0x3e8b37c3	0.2719098
17	0x3f5bad95	0.8581174
18	0x3f0c7534	0.5486634
19	0x3ed20810	0.41021776
20	0x3f835ca1	1.0262643
21	0x3f5413e5	0.82842857
22	0x3f04a7f2	0.51818764
23	0x3ebf7409	0.37393215
24	0x3ecbc803	0.39801034
25	0x3eede498	0.46463466
26	0x3ea9499d	0.33063975
27	0x3fb56eb1	1.4174405
28	0x00000004	6e-45
29	0x3f5239ea	0.8211962
30	0x3e4aaa01	0.19791414
31	0x3a4ab48c	0.0007732592

bn2.running_var f4 [32]
0	0x3e454437	0.19264303
1	0x3e06a61b	0.13149302
2	0x3d76a190	0.06021267
3	0x3ef57f8c	0.47948873
4	0x3e7bd658	0.24593484
5	0x3ec2603d	0.3796405
6	0x3ee5eaf5	0.4490582
7	0x00000004	6e-45
8	0x3ea3e58e	0.32011074
9	0x00000004	6e-45
10	0x3e0086c5	0.1255141
11	0x3e847e49	0.25877598
12	0x3ebfbad9	0.3744724
13	0x3d87d05c	0.06631538
14	0x3f011b86	0.5043262
15	0x3e352c29	0.17692627
16	0x3e1d4d09	0.15361418
17	0x3ecfaa35	0.40559545
18	0x3e6e36df	0.23263119
19	0x3e9f92db	0.3116673
20	0x3f221504	0.6331332
21	0x3ed50772	0.41607243
22	0x3f3491f2	0.70535195
23	0x3e9e9740	0.3097477
24	0x3eabac09	0.3352969
25	0x3e78cd3b	0.24297039
26	0x3e807f28	0.25097013
27	0x3fa3c1e4	1.2793546
28	0x00000004	6e-45
29	0x3f851f8b	1.0400251
30	0x3dff9baa	0.124808624
31	0x399c6dea	0.0002983653

bn3.weight f4 [23]
0	0x3f4faafc	0.81120276
1	0x4002efc6	2.0458846
2	0x3f7a69a5	0.9781745
3	0x3825eff6	3.9562547e-05
4	0x3ebe0331	0.3711181
5	0x3f059f1f	0.52195925
6	0x3e559fd0	0.20861745
7	0x3f7cdc04	0.9877322
8	0x3f483d75	0.78218776
9	0x3f78feeb	0.97263974
10	0x3f509fd7	0.81493896
11	0x3f5c6015	0.8608411
12	0x3f270db9	0.65255314
13	0x3f78b7fe	0.9715575
14	0x3f56a256	0.83841455
15	0x3f6a4284	0.91507745
16	0x3f1bb05d	0.60815984
17	0x3f05ec6c	0.52313876
18	0x3f43bb15	0.7645734
19	0x3f4fb8bb	0.8114125
20	0x3f165098	0.58716726
21	0x3f39c668	0.7256837
22	0x3f806e95	1.0033747

bn3.bias f4 [23]
0	0x3db2c052	0.087280884
1	0x3e2ab105	0.1666909
2	0x3de333ed	0.110938884
3	0x3c4e39bb	0.012587006
4	0x3bd74154	0.006569067
5	0x3ddbf74c	0.107405275
6	0xbc1fd807	-0.009756095
7	0xbcbad0f1	-0.02280471
8	0x3bebd56a	0.007197072
9	0x3e1ef55f	0.15523289
10	0x3df31448	0.11869103
11	0x3c58f97a	0.013243074
12	0x3ddb1dd0	0.10699046
13	0x3e044d4e	0.12920114
14	0xbd4fc918	-0.050728887
15	0x3cc0ced4	0.023536123
16	0x3de83914	0.11339012
17	0x3ce5874f	0.028018622
18	0x3d87f7f6	0.06639092
19	0xbc5b43b8	-0.013382845
20	0x3d5b723d	0.053575743
21	0x3d788a13	0.060678553
22	0x3c986fe6	0.018608045

bn3.running_mean f4 [23]
0	0x40407fec	3.0078077
1	0x40e18ecf	7.0486827
2	0x411b118b	9.691783
3	0x411de3ef	9.868148
4	0x40b21c9b	5.565992
5	0x407c9dfd	3.9471428
6	0x3eb20f38	0.34777236
7	0xc03a1f23	-2.9081504
8	0xbfa52db1	-1.2904569
9	0x40227cdf	2.5388715
10	0x3f404a67	0.7511353
11	0xbea14eba	-0.31505376
12	0x3fa4aaeb	1.286466
13	0xbfdc0e5f	-1.7191886
14	0xbfd48705	-1.6603705
15	0x402d1ffd	2.7050774
16	0xbf8a1132	-1.0786498
17	0x3f0b9c15	0.5453504
18	0x40196517	2.396795
19	0xc0519538	-3.2747326
20	0x3f8dceb6	1.1078708
21	0xbf4c8339	-0.7988773
22	0x3f7a6ead	0.9782513

bn3.running_var f4 [23]
0	0x3cca4955	0.02469317
1	0x3fa06ff7	1.2534169
2	0x3e246bf1	0.16056801
3	0x3d9f3f9a	0.07775803
4	0x4285b8fe	66.86131
5	0x42b42086	90.06352
6	0x42ce6638	103.199646
7	0x42ad8974	86.76846
8	0x42d0658e	104.19835
9	0x42903c51	72.117805
10	0x42947035	74.219154
11	0x4235b92d	45.430836
12	0x42034da6	32.82583
13	0x42a9ba90	84.86438
14	0x42b11010	88.53137
15	0x428f99c6	71.80034
16	0x41f2c66f	30.346891
17	0x4285153e	66.54149
18	0x4285e10c	66.939545
19	0x42a98bb8	84.77289
20	0x42a52b6b	82.5848
21	0x426161cb	56.3455
22	0x426ccd58	59.20053
