python/model_pth/tripletmlp/triplet_bn_hu_trained_1.pth (torch, 9337 bytes, 12 tensors)

fc1.weight f4 [32, 7]
00000000: 71ec 483f 2ba7 2bbe 28ba 70bf af7c 2bbe
00000010: 84c2 a13e a04e 9ebe 92f0 4fbe be83 9e3f
00000020: 5472 16be f3b9 21bf 57c4 623c f01f 933e
00000030: f1e0 babe 1680 003c 0ab6 263f ec4b 29bf
00000040: 5ebf 81be cca9 103f d180 603f bca4 943e
00000050: 0600 31be 416f 1e3f 3622 2ebf 812c bdbe
00000060: bf2c 3d3e b821 243e 33ec df3e cf7f 933e
00000070: deaf a63e 63d6 b7bf d5f3 aa3e 77ad a9be
00000080: c89e 82be 089e 5fbe 4808 a43e 2c24 523f
00000090: 89be 3fbe f449 3c3f eb88 a43f 4d8e e53e
000000a0: 8c39 623d deeb 783e 7d6f 1a3f 1ed4 5bbf
000000b0: 8425 55be 5154 db3e 92f4 883e ffd3 9b3e
000000c0: 7b97 6d3e f03e 1b3d 6c21 5d3f 52a1 f73e
000000d0: f657 ce3d 5e2a 21bc f87d 0ebf b659 5fbb
000000e0: e2d4 543f 9bdf 58bf 53b8 7d3d b00a 17be
000000f0: 280f c93e ff30 ae3e 13f0 40bd 25d8 24bf
00000100: 495a d93e cf97 6a3f 677d 1ebf f5e1 f8be
00000110: a082 f7ba 03a9 71bf 2725 b73e a6a1 fd3e
00000120: 5ac0 633f e152 cdbe 6edd abbd e64d 37bf
00000130: 7372 5fbd 8b5c 93be bb9b b33f 6460 743e
00000140: 3c00 01be 2557 513e 8bc2 363e 52d7 d4be
00000150: 6cf0 cd3e 9f20 c5bf 94ae a03e a122 a23d
00000160: a17a 053e 664b fe3d ceae a03b 4c5d 8a3e
00000170: d084 1b3f 89be 79bf 6bd1 8ebf bff4 cb3e
00000180: 8214 073e 0f97 cfbe b98b dbbd e873 893f
00000190: 9fa4 2ebd ddaf 34bf 3965 f8be b068 5cbf
000001a0: be1e 04be 2c8a 0a3f 0451 07bf 7e30 d13d
000001b0: d58e fb3e 238e 803f 489c 073f 33f9 4bbe
000001c0: 8b52 423f 413b febe 8a04 27bf c011 1c3f
000001d0: 7f18 bc3e d6a2 8b3e 51c4 8f3e 2f3e 963d
000001e0: 35e1 8b3c 7097 1840 256a 3cbd f0d7 683f
000001f0: 7710 84be db6b a138 25a2 183f 0fad fbbe
00000200: 47ad 50be 1312 073f 18d7 173e 3757 683e
00000210: 31ef 663e 69ac f63e a7b6 b1be de61 d7be
00000220: 956d 7b3e 1050 a6be 917f 60bd 11c4 453e
00000230: 01a5 353f 591f aabf 0854 8cbe 703e 17be
00000240: 06a3 193d 31a8 20be d0f2 003e d6f7 6c3f
00000250: cd64 22bf 0a62 a5be 21ba 41be 498c e53e
00000260: f8c4 113e b5b5 bebd 5bf4 853f 3ac9 95be
00000270: c681 2abd c53b 0cbf 4ca3 77be 2011 19bf
00000280: 6f2d 553e 87ba 163f 6599 64be 9454 77bf
00000290: c171 98bf 35be 8f3e 8432 54be 3873 34be
000002a0: 6d8d 163f f622 76bf 34c7 893e e407 993e
000002b0: 5a6f 6fbe e213 36bd cbe2 273d 8082 4c3f
000002c0: 2d88 8cbf ca9e 653e fdc5 97be 0b01 1dbf
000002d0: 87ac 58be 0888 2abd b4da 2e3e 12ce 2d3f
000002e0: d6fc da3e 4de6 7ebe be3a 3e3d ac98 78be
000002f0: dcd5 903d 276b b33f cf55 87be b357 c6be
00000300: 8afc 32bf 02eb 0c3e 0e49 adbc c466 08be
00000310: 29e3 603f 02a8 cabf 0f8c ce3b a433 793e
00000320: 9a24 fbbd 9ade e23e fa47 523c 793e c33e
00000330: 4a6b d3bf aa2b 1bbe 36d2 d7be b9b5 b5be
00000340: 6fdd b8be aa5c 4b3d c3cb 293f 3ae4 16bf
00000350: df79 04be 4925 063f 7978 903e 8e2a bd3e
00000360: 8cc1 533e b12c 4f3f 2e42 49bf 627c 723f
00000370: 93d1 47be c63d 6dbd 1208 093e c6b8 9ebd
0.7848578 -0.16762988 -0.9403405 -0.16746782 0.31593716 -0.3091936 -0.20306614 1.2383955
-0.1469205 -0.6317436 0.013840756 0.28735304 -0.36499742 0.007843038 0.6512152 -0.6613147
-0.25341314 0.5650909 0.8769656 0.29031932 -0.17285165 0.6188851 -0.6802095 -0.36948016
0.184741 0.16028488 0.43734893 0.28808448 0.3255605 -1.4362301 0.33389154 -0.33140156
-0.25511765 -0.21837628 0.32037568 0.82086444 -0.18725027 0.73550344 1.2854284 0.4483513
0.055230662 0.24308726 0.6032637 -0.8587054 -0.20815092 0.42837766 0.26749092 0.30435178
0.23202316 0.03790182 0.8637912 0.48365265 0.10075371 -0.009836761 -0.55660963 -0.0034080571
0.83137333 -0.84716195 0.061943363 -0.1475017 0.39269376 0.34021756 -0.047103953 -0.6439231
0.42451695 0.9163789 -0.619101 -0.48609892 -0.0018883534 -0.94398516 0.35770532 0.4953739
0.8896538 -0.40102294 -0.08391844 -0.7160324 -0.054552507 -0.28781542 1.40319 0.23864895
-0.12597746 0.20443399 0.1784765 -0.41570526 0.4022249 -1.540058 0.31383193 0.07916761
0.1303506 0.12416725 0.004903651 0.27024305 0.6074953 -0.9755636 -1.1157659 0.39835164
0.13191417 -0.40544936 -0.10720009 1.0738497 -0.042637464 -0.70580846 -0.48514727 -0.8609724
-0.12902352 0.54117084 -0.52857995 0.10214327 0.4913241 1.0043377 0.5297284 -0.1991928
0.759072 -0.49654582 -0.652413 0.60964584 0.3673744 0.2727267 0.28079465 0.07336079
0.01707516 2.384243 -0.045999665 0.90954494 -0.25793812 7.697168e-05 0.5962241 -0.4915547
-0.203786 0.52761954 0.14828146 0.2268952 0.22552182 0.48178414 -0.34709665 -0.42066854
0.24553521 -0.32482958 -0.054809157 0.19313075 0.709549 -1.3290817 -0.2740786 -0.14769912
0.037508987 -0.1568916 0.12592626 0.9256567 -0.6343506 -0.3230136 -0.18918659 0.44833592
0.14235294 -0.093120016 1.0465196 -0.29255086 -0.041627668 -0.547787 -0.24183387 -0.59791756
0.20818113 0.5887837 -0.2232414 -0.9661343 -1.1909715 0.28074804 -0.20722395 -0.17622077
0.5880955 -0.96147096 0.26909792 0.29888833 -0.23382321 -0.044452555 0.04098777 0.7988663
-1.0979058 0.22423854 -0.2964324 -0.61329716 -0.21159564 -0.041633636 0.17075616 0.67892563
0.42771024 -0.2489254 0.04644274 -0.2427699 0.070720404 1.4017075 -0.26432654 -0.38738784
-0.69916594 0.13761523 -0.021153 -0.13320452 0.8784662 -1.5832522 0.0063033174 0.24336106
-0.122628406 0.44310457 0.012834543 0.381336 -1.6517117 -0.15153375 -0.42152566 -0.35490206
-0.3610644 0.04964892 0.6632654 -0.58941996 -0.12937115 0.5240064 0.28216913 0.3694653
0.20679301 0.8092757 -0.7861661 0.94721043 -0.1951354 -0.05792024 0.13381985 -0.077500865

fc1.bias f4 [32]
00000000: 564d af3f 8ab9 803e f77e 56bf e94c 01bf
00000010: a70d afbe af2d f8be 8345 44bf 063b a43f
00000020: b19e a93e 5174 04bc 8b2c 833f e3be 303f
00000030: c67f 1fbe a07e 113d ab83 053f 82af 78bf
00000040: c7b8 dfbe af63 9ebe 1705 1abf eb21 47bf
00000050: 65e6 d13e 9966 eb3e 1e90 823f 43a3 453e
00000060: 5dda 483f 39d4 583f 2bd0 ae3f 7a02 233f
00000070: ae80 5b3e dd9c a63e 89cf 49bf d962 d63e
1.3695476 0.25141555 -0.8378748 -0.5050798 -0.34190103 -0.48472354 -0.76668566 1.2830513
0.33128884 -0.008084373 1.0247968 0.6904127 -0.15576085 0.03552115 0.52154034 -0.97142804
-0.4369566 -0.30935428 -0.60164016 -0.7778613 0.4099609 0.45976713 1.0200231 0.1930056
0.78458196 0.84698826 1.3657278 0.63675654 0.21435806 0.32541552 -0.788323 0.4187229

fc2.weight f4 [16, 32]
00000000: fe45 3f3e 7517 083c c9f8 58bf 30e7 02bf
00000010: 27a6 153f 6b3e 1b3f 970c a6bf 5e5c 2c3f
00000020: 1527 2a3e ebd9 31be 828d 03bd 63d7 33be
00000030: e098 a0be 63da 0e3e 018f 583e 42e2 8dbe
00000040: 5565 873e 4c09 373e 8676 61be c9b3 78bb
00000050: 4fb0 6bbe b2ac 7c3d e96c dd3f 2eb3 503f
00000060: 4296 e03f 0635 0bbe c76a 0e3e 3136 34bd
00000070: 92ae 6e3f a043 02bf 7c1b cfbe 9911 c6bf
00000080: fe58 56bf 165d ed3f 9f14 aabe 5a64 2cbf
00000090: 2597 8cbe f948 f1bd 7378 c2be 19b5 403f
000000a0: 69aa 65bf 17f1 5f3f 7e05 a4bc 57c3 bc3e
000000b0: c173 91bf 56d2 e93e c3b3 eb3d 7451 28be
000000c0: 0c0b c8bd acfc 933f a9e5 18bf 9a55 613e
000000d0: 3d21 1ebf 2189 f0be 805b 41be 3029 35bf
000000e0: f76a bcbd bad8 e0be 0b0a ba3e c086 f0be
000000f0: 6b50 e6be c4a9 56bf 9384 02bf 9791 bd3c
00000100: 114c 5f3f cdf3 aabe 045b e0be 3266 cb3d
00000110: a851 babc 576b adbe 0539 853f 9a85 59be
00000120: e07f a53e 3dc2 933e 15c3 233f 1ee0 4e3f
00000130: 265d 87be a0c7 913f 368c e63e 9b90 2b3e
00000140: eab9 33bf 5b25 8f3f 1284 1ebe 5cd8 5e3e
00000150: beab 903f aea1 e7bf 0376 e13f a790 383f
00000160: 57f1 dfbe a41b b2bd 38df a7be effe 04bf
00000170: f5dd 3a3f 1460 1a3f 0c9a b43e 1f1b 743f
00000180: 4260 0cbf 0fcf 263f 03f0 00bf dadc 6e3c
00000190: 6bcb 0abe c930 35bf 90ff 9e3e 7f1e 42be
000001a0: ae9c 1ebf b1ad d0bd 6bfd 29bf aa9d 84bf
000001b0: 5c6b f83f fae1 1c3f cd21 393d 4298 743e
000001c0: ed58 92bf 80b6 b13d e3cc 523e 9dc3 46be
000001d0: 8bcf 49bf 881f 0f3f 5a7f 09be 9b3f 983e
000001e0: 08f0 bb3e 60ac 48bf eedd 75be 062e 67bf
000001f0: 6cef 123e 30e8 003f 6bdb babd d60c f03b
00000200: 924f 713f 96cc 163f 832b ee3e e94f a83a
00000210: 0329 573e b5a9 48bf fc99 2c3e 11a4 24bf
00000220: e005 01bf bb80 1bbf 7e02 4cbf 6b20 d9be
00000230: 059e a7be 2545 b9bd 4612 8ebf 245c b3be
00000240: 7c95 8e3f f02a 90bf 3d05 0e3e 7d02 193f
00000250: c60d 073f f230 013f 7ac4 dabe 1da3 3f3e
00000260: b77f 2fbf 290d 923f a3ee 2bbf e821 253f
00000270: f12b da3e be8d a13e e4e4 4f3f b7d1 e3be
00000280: 56ff 5bbe ccc0 98be f256 413f 6a14 6f3c
00000290: 62dc 23bf a5af 00bf d662 12bf 7352 ae3f
000002a0: 1b84 5b3f 2930 513f 72ed b33f a336 763e
000002b0: ff48 113e ae8a 503f 7962 943f c8ea 843e
000002c0: 38a1 5bbf 9cc7 473f 6990 cabe 0983 88be
000002d0: b3c6 1d3f 63b0 733f 8e18 0c3e 6035 983d
000002e0: ab55 2f3f 400a 323e 9e22 143f ada2 733f
000002f0: 270f 853f 1873 22bf 62d5 87be 0507 533f
00000300: 5b4e a1bf 2b74 9dbe 6ffc ac3e b2e1 f73e
00000310: d1dc 243f c3a7 d13e b34d 3c3f 1a85 f9be
00000320: e780 d93e 0de2 5d3f ec63 a23d 6bff bdbe
00000330: 84ef b4bd 6413 993e 2ac1 dcbe 7bb9 523f
00000340: f531 9fbd 8ba3 803f b145 e4be 3abb 7fbd
00000350: 94af d33e 6c74 20be 0033 a1bf 050b e6bd
00000360: 1e2a 1fbc 530d 983f c129 5ebf c10a 99bf
00000370: 995f 68bd ee51 a13f 4e77 603e be54 4cbf
00000380: 4138 983f 875d b23d cf80 d8be 8804 62bf
00000390: 5a1f 94bf 43ab 44be 5421 7bbe 7cc1 9abe
000003a0: 3bae 5bbe 8bdf 11bf 54e1 47bf 31fa ffbd
000003b0: d3b2 123d 5620 ad3e 61aa 85be fea4 aabe
000003c0: 7843 e5be a58d 313f 2321 823c eb50 5cbe
000003d0: 53ba 343f f209 013f e71b c7be 77e6 5b3f
000003e0: 92c3 09bf 00ae dc3d 727b d1be 87a3 73bf
000003f0: f886 763f 31ff 173f e6f4 b83b 60c6 513d
0.18679044 0.008306374 -0.84754616 -0.51134014 0.58456653 0.6064212 -1.2972592 0.6732844
0.16616471 -0.17368285 -0.032117374 -0.17562632 -0.31366634 0.13950495 0.21148302 -0.27711684
0.26444498 0.1787464 -0.2201787 -0.0037948957 -0.23016475 0.061688133 1.7298862 0.81523407
1.7545855 -0.13594446 0.1390792 -0.043996993 0.93235123 -0.5088444 -0.40450656 -1.547412
-0.8372954 1.8544033 -0.33218858 -0.67340624 -0.27459064 -0.117814966 -0.3798252 0.75276333
-0.8971315 0.8747725 -0.02002215 0.36867782 -1.136345 0.45668286 0.11508896 -0.16437322
-0.09767732 1.1561484 -0.59725434 0.2200531 -0.6176947 -0.4697962 -0.1888256 -0.7076597
-0.092000894 -0.4391535 0.36335787 -0.46977806 -0.4498323 -0.8385279 -0.5098354 0.023140712
0.87225443 -0.3338913 -0.4381944 0.099316016 -0.022744015 -0.33870956 1.0408026 -0.21242371
0.32324123 0.2885913 0.63969547 0.80810726 -0.26438254 1.1389046 0.45028847 0.16754381
-0.7020556 1.1183275 -0.15480068 0.21762222 1.1302412 -1.8096216 1.7614139 0.7209572
-0.43738815 -0.08696678 -0.3278749 -0.519515 0.7299493 0.60302854 0.35273778 0.95353884
-0.5483438 0.65159696 -0.5036623 0.014579022 -0.1355416 -0.70777565 0.31054354 -0.18956946
-0.61957824 -0.10189379 -0.6640231 -1.0360615 1.9407763 0.6128231 0.04519825 0.23886207
-1.1433388 0.08677387 0.2058597 -0.19410558 -0.7883231 0.5590749 -0.13427487 0.29736027
0.36706567 -0.78388023 -0.2401044 -0.903046 0.14349145 0.5035429 -0.09123882 0.007325749
0.9426204 0.58905923 0.46517572 0.0012841198 0.21011738 -0.7838395 0.16855615 -0.64312845
-0.5039959 -0.607433 -0.796913 -0.42407545 -0.32737747 -0.090463914 -1.1099327 -0.35031235
1.1139369 -1.1263103 0.13869186 0.5976942 0.5275539 0.5046531 -0.42728025 0.18714567
-0.6855425 1.1410266 -0.67161006 0.6450486 0.4261165 0.31553453 0.81208634 -0.44495937
-0.21484122 -0.29834592 0.75523293 0.014592269 -0.6400815 -0.5026801 -0.5718206 1.3618912
0.8574845 0.8171411 1.4056838 0.2404428 0.14188002 0.8146161 1.1592551 0.25960374
-0.85792875 0.78038955 -0.395633 -0.26662472 0.61631316 0.9519102 0.13681242 0.074320555
0.68490094 0.17386723 0.5786532 0.951701 1.0395249 -0.6345687 -0.26529986 0.82432586
-1.2602037 -0.30752692 0.33786342 0.4841438 0.6439944 0.40948305 0.7355606 -0.4873436
0.42481157 0.8667305 0.07929215 -0.3710893 -0.088347465 0.29897606 -0.43116122 0.8231427
-0.077732004 1.0049909 -0.4458442 -0.062434413 0.41344893 -0.15669411 -1.2593689 -0.112325706
-0.009714631 1.1879066 -0.8678246 -1.1956407 -0.056731794 1.2603128 0.21920511 -0.79816806
1.1892167 0.08709245 -0.42285773 -0.88288164 -1.1572068 -0.19205956 -0.24524432 -0.30225742
-0.21453182 -0.56981725 -0.780782 -0.12498892 0.03581507 0.33813733 -0.2610655 -0.33329004
-0.44778037 0.6935676 0.015884941 -0.21515243 0.7059681 0.504058 -0.38888475 0.85898536
-0.5381404 0.10775375 -0.40914494 -0.951714 0.96299696 0.59373766 0.0056444285 0.051214576

fc2.bias f4 [16]
00000000: b59c 41bd 7413 433e 29e5 403e b52d 1b3e
00000010: b613 0abe 354a 11bb e15d aabd 2441 3a3d
00000020: 7f01 533e a180 83bd 2898 d1bd bd32 a23d
00000030: e42d 853e 40c3 ddbd 1da6 08be a36c dcbd
-0.047268588 0.1905039 0.18837418 0.15154155 -0.13484082 -0.0022169475 -0.08318687 0.04547228
0.2060604 -0.064210184 -0.102340996 0.07919834 0.26011574 -0.108282566 -0.13344617 -0.10762908

bn1.weight f4 [7]
00000000: ae9f df3f 2793 0440 9145 7f3f 80b1 c23e
00000010: 77f9 aa3e 1302 dd3d ee09 ee3d
1.7470605 2.0714815 0.99715525 0.38026047 0.33393452 0.10791411 0.11622988

bn1.bias f4 [7]
00000000: 98b4 c8be ea37 b33e 6d9c db3e c591 d0be
00000010: 274b a7bc bedb 0bbe 528e 4c3e
-0.39200282 0.35003597 0.4289278 -0.40736213 -0.020421578 -0.13658044 0.19976166

bn1.running_mean f4 [7]
00000000: 0cc5 3d40 87ec da40 54c7 1941 91f0 1c41
00000010: 66c3 9840 ac1d 8340 82ed 97bf
2.9651518 6.841373 9.611164 9.808732 4.7738523 4.097372 -1.1869357

bn1.running_var f4 [7]
00000000: e444 043d f0b2 a03f c3c3 3c3e 68ac 053e
00000010: dc84 9c42 aef7 a742 11ff bb42
0.03229226 1.2554607 0.18434052 0.13054049 78.25949 83.98375 93.99818

bn2.weight f4 [32]
00000000: 49d8 fa3f 0587 fd3f d7cb cc3f c389 903f
00000010: 0f26 d03f 9c11 c23f 7698 e53f 2794 a83f
00000020: 5a73 b33f 72a6 a23f 6527 b63f 6bb7 af3f
00000030: 3ed4 da3f 5378 e83f bbdd a73f a4dd bd3f
00000040: 00ea db3f 8539 f83f 33d2 bf3f 3cb3 d53f
00000050: 27bd de3f 533d e33f f68d f63f 6051 b73f
00000060: 7e3a d93f d031 d53f 2e39 aa3f f588 ef3f
00000070: 780f cf3f 8775 be3f a8df c53f 2994 f33f
1.9597255 1.980683 1.5999707 1.1292042 1.6261615 1.5161624 1.7937152 1.3170213
1.4019578 1.2707045 1.4230772 1.372785 1.7096021 1.816172 1.3114542 1.4833264
1.7180786 1.9392554 1.4986023 1.6695323 1.7401475 1.775309 1.9262073 1.4321709
1.6970975 1.6655827 1.32987 1.8713671 1.6176596 1.4879616 1.545888 1.902959

bn2.bias f4 [32]
00000000: aaae 923c e4ea 70bf b281 9dbe de57 efbe
00000010: f8a1 3ebf 4723 9bbf d126 29bd 5511 14bf
00000020: 8e1f adbd a97f 45bf a93c 603d f2ba 65bf
00000030: 2fa9 73bf e789 ebbe 3afe 4fbf aa05 e13e
00000040: c450 2abf 4c7d cbbd 580c ebbc 7d33 a53d
00000050: c245 54be a956 12bf 67f5 f83e e856 94bf
00000060: fa62 253d 3fd7 373a 34ad 3b3e 1d33 c9be
00000070: 014d 56bf 4e77 afbe 1cce 13be 048f 88be
0.017905552 -0.94108415 -0.30763012 -0.46746725 -0.74465895 -1.2120141 -0.041296784 -0.57838947
-0.08453284 -0.7714792 0.05474535 -0.8973838 -0.9518003 -0.4600365 -0.81247294 0.43949634
-0.6652949 -0.09936008 -0.02869241 0.08066461 -0.20729735 -0.5716348 0.48624727 -1.1589022
0.040377595 0.000701297 0.1832779 -0.3929681 -0.8371125 -0.3427071 -0.14434093 -0.26671612

bn2.running_mean f4 [32]
00000000: ef14 453f 2d1f a53e 40e5 8f3c 03ac c13c
00000010: 60d8 233f 7231 8b3e 5418 ff3c 0715 0140
00000020: 5195 993e 79c3 5d3f 176c fa3f 31d1 dc3f
00000030: a2a6 183f 6ec7 0a3f aeb5 c23f 80b1 403c
00000040: d26e fa3b 2399 b83f 6c53 113c bb36 d22f
00000050: 30e0 1b3f dc3f 763e 101e 8b3f 082f a73e
00000060: 6887 293f 5fd2 533f b9a0 fe3f 8835 323f
00000070: ec79 dc3e 0c63 873f 84e5 433c 8ff6 463f
0.7698507 0.32250348 0.01756537 0.023641592 0.6400204 0.2718616 0.03113953 2.0169084
0.29996732 0.8662639 1.9564236 1.725134 0.5962926 0.54210556 1.5211694 0.011761069
0.0076426053 1.4421734 0.008869987 3.8237666e-10 0.6088896 0.24047798 1.0868549 0.3265307
0.6622224 0.82742876 1.9892799 0.6961293 0.4306177 1.0577102 0.011956576 0.7771997

bn2.running_var f4 [32]
00000000: 86a1 963e 971c 713e c934 4a3c 12d5 b63c
00000010: 46b2 733f c33f 8f3e 1fde 1e3d 41aa 8040
00000020: eeac 8a3e c305 1c3f f27b 5140 9159 b240
00000030: fb7f 743f 4c7c 243f f69d 5c40 6a4d b53b
00000040: 17ed 143b bed2 f23f fd3e 4e3b 04a4 112d
00000050: 9330 383f 88df 223e a97c 383f f4b8 e93e
00000060: 61f9 183f b572 403f 5587 4a40 5629 113f
00000070: 58a1 253f ebea 0540 b660 bb3b 7a78 253f
0.29420108 0.23546062 0.0123416865 0.022318397 0.951939 0.27978334 0.03878605 4.020783
0.2708506 0.6094629 3.27319 5.5734334 0.9550778 0.6425216 3.4471412 0.00553291
0.0022724324 1.8970563 0.003147065 8.2787145e-12 0.7194912 0.15905583 0.72065216 0.4564892
0.5975552 0.7517503 3.16451 0.567037 0.64699316 2.0924633 0.005718316 0.6463696
