python/model_pth/tripletmlp/triplet_action_hu_trained_1.pth (torch, 10219 bytes, 14 tensors)

attention.0.weight f4 [7, 7]
00000000: c924 283e 5cb0 323f f129 183f d586 3c3f
00000010: 927f 0a3e d92d 1abc 2805 3f3e d68f 71be
00000020: 4f66 3f3e 625f 9e3e 2986 1bbe 4ac4 08be
00000030: 69a9 8f3e 061c 8cbe ce85 19be 051c 673c
00000040: feed 47bc f25d d23e 2299 ad3e df91 aa3e
00000050: 7c23 ca3d e254 3bbd 41aa a63e a39d e53d
00000060: 6c8e 3e3d 6dbe 1c3b 10e2 aabe b14c ee3d
00000070: f495 503e 9c9e 73be 4941 93be d966 67bd
00000080: 01b3 a43a 8e98 26be d6a8 60be 2caf 0f3c
00000090: e820 ab3d a511 d23d eec3 a63d dd67 d9bc
000000a0: bb26 8d3e b5fd d33d 11d3 9ebe 482b bb3d
000000b0: 252d 6abe 73c6 863e 2ca2 8a3d 4daa c23d
000000c0: c967 a13b
0.16420282 0.69800353 0.59439 0.7364324 0.13525227 -0.009410345 0.1865431 -0.23590025
0.18691371 0.30932146 -0.15187897 -0.13356128 0.28058937 -0.2736513 -0.14992449 0.0141058015
-0.012202738 0.410873 0.33905894 0.33314416 0.09870049 -0.045735247 0.32551768 0.112117074
0.046522543 0.0023917214 -0.33375597 0.116357215 0.20369703 -0.23790973 -0.28760746 -0.056494568
0.0012565554 -0.16269132 -0.21939406 0.008769792 0.08355886 0.10257272 0.08142839 -0.026538784
0.27568612 0.10351125 -0.31020406 0.091391146 -0.22868784 0.2632328 0.06769213 0.095051385
0.0049257022

attention.0.bias f4 [7]
00000000: b341 103f b1ad 6e3c 831e 21be 2a9e 3bbd
00000010: 6327 823e dd01 203d 0209 c6be
0.5635025 0.014567778 -0.15734296 -0.045805134 0.25420675 0.039064277 -0.38678747

fc1.weight f4 [32, 7]
00000000: fd8e 783f 754b 483b 06ed 0bbf 0fa6 ecbe
00000010: b0f3 443d 4a64 b63c f0b0 083e 3af4 90be
00000020: 874a 7bbf 52b8 8abe 8596 eb3e 9f54 dd3e
00000030: 2b53 d33e 410f 07be 2381 f83d a35b a93e
00000040: 79d6 29bf c0ea 3f3e 2001 38be 9653 5a3e
00000050: e36e 1b3f 7de3 0d3f 0054 33bf 3e4a db3e
00000060: 8abb 4f3e 84a6 fe3d 604f 503d f4ca d1bd
00000070: 1462 003f c551 8dbf db98 51be ad6a 3e3e
00000080: 958c 8d3d 851b b53d d225 8b3d 4935 1a3e
00000090: 4e10 0b3f 3595 943e 2311 c8bc b27b 18be
000000a0: fa39 913d 6287 73be 7712 353d fc58 85bd
000000b0: 088b 1140 f100 833f c4b9 e33c 6aa5 a1be
000000c0: 77be 05be 1500 f43e c298 d1bd 505b 7fbf
000000d0: efb9 533f 13fa 1c3f c6cf 423e 49d3 193d
000000e0: 36e6 333f dae7 4bbf 02a7 063d 6e30 8fbe
000000f0: b07b 33be 594a d6be 8a24 173f e128 b6be
00000100: dfa8 0a3f 75d6 ebbd 3cb7 12be abf9 9c3e
00000110: 2010 00be c2ae 9a3e 7584 223f 3008 6fbf
00000120: 48bc 3b3e d9ac 4dbe 87a6 08bf b2b3 20bf
00000130: 4fff d53e 50fb 823e f158 5cbf 5057 1f3f
00000140: 44ad 81bc 554a 4b3e 83dd 19be c4db f9bd
00000150: ac69 063f 54ba 8dbf 2777 d23d 51d0 c7be
00000160: 1bd6 013e 6a4d 3d3e c75d 1fbe 5fb5 febb
00000170: 3e32 063f 9e98 cbbc 2f3f 9ebd d76d 023e
00000180: 97a3 373e 0343 8e3b 19f6 353e 4d1f 0ebe
00000190: 7324 c13f e05b 093f 94ae 4c3e e57b 68be
000001a0: d9ec 2abe b0bd 333f 772e 3abf 8320 003e
000001b0: 4a62 a5bd b96d 00be 9bc4 5fbd b315 5d3d
000001c0: cca0 0e3f 01b0 b5bf c0dd 2b3c 4203 753e
000001d0: c6e0 9cbe eadf 583e 9909 b13d 70bc 263f
000001e0: 7dc5 52bf be6a 1ebe b64a 1d3c d8b5 613e
000001f0: c800 a03d 08cd 433e 24ea 253e 3825 113f
00000200: eab2 e63d 1724 c4bd 41c3 16bd b065 7fbe
00000210: 3b45 aa3e 5802 433f 65a9 e5be e187 033c
00000220: 422b 25be 2e52 c53e f897 d63e 5233 8e3e
00000230: bbb3 c9be 98e1 98be 46a5 27be 2b8f 28bf
00000240: c5ef 8c3d 62c4 61be 3cb3 943e e287 653e
00000250: 5cbe 303f a119 5b3e 2137 413f 32d8 a73e
00000260: 638b 04bf 1a3b e0be 09c9 cebe c98a a33d
00000270: 31b5 493f 14e0 55bf d1e3 9a3c c86c 1d3f
00000280: e958 9e3e 6fa7 6e3d 3aba febd e0f8 4a3e
00000290: 2bf2 10be d905 44be dc47 a03c 6265 3b3d
000002a0: bb48 393f 236d 02bf 95e4 34bf 6a92 063e
000002b0: 7b4f 253f 8111 e1bd 3d37 9cbe 3035 06be
000002c0: e525 0abf ff18 403f 17f4 f8be 9d1b aabe
000002d0: 7178 79be beee 00be 6791 513e 6b60 c1bf
000002e0: b149 15bc 401e 41be ab7b 25be d29c c73d
000002f0: 56fe 84be 252a 76be ecde a73e 8df9 90be
00000300: 792c 9fbf 39ec 053f 3f57 833e 3d35 6a3f
00000310: e8da 583f 7d17 72bd 2c2f a63d bffe cabe
00000320: 9d50 213e d815 30bd a4f9 913e eaeb 873f
00000330: 0eb3 8ebe a1b0 0dbe 407b 1d3e e47f 663e
00000340: 9d35 693d 83d2 753d 2289 5f3e b742 dc3e
00000350: 684c e53d 364f f03c 4e89 a0be 6808 f33d
00000360: f404 ba3c 1b4a 33be f54e 0b3f 8510 8b3d
00000370: eba2 f5be bbe7 103f a594 ec3e 3585 173f
0.9709318 0.0030562554 -0.54658544 -0.46220443 0.04808396 0.022264618 0.13348746 -0.2831133
-0.98160595 -0.2709375 0.46013275 0.43228623 0.4127439 -0.13189413 0.12134006 0.33077726
-0.66342884 0.18741894 -0.17969179 0.21320948 0.60716075 0.55425245 -0.7005005 0.4283008
0.20286384 0.12434104 0.050856948 -0.10243788 0.50149655 -1.1040579 -0.20468466 0.18595381
0.069115795 0.088431396 0.06794323 0.15059389 0.54321754 0.29020086 -0.024422234 -0.14890936
0.07091136 -0.23782113 0.044207063 -0.06511113 2.2741108 1.0234662 0.02779854 -0.31571513
-0.13060938 0.47656313 -0.10234214 -0.99748707 0.8270559 0.6131908 0.19024572 0.037555013
0.7027315 -0.7965065 0.032874115 -0.27966636 -0.17527652 -0.41853598 0.5904013 -0.35578063
0.54163927 -0.11515514 -0.14327711 0.30659232 -0.12506151 0.30211455 0.63483363 -0.9337187
0.18333542 -0.20085467 -0.533791 -0.62774193 0.41796347 0.2558236 -0.86073214 0.62242603
-0.01582969 0.19852574 -0.15025906 -0.1220012 0.5250499 -1.1072488 0.10276633 -0.3902612
0.12679331 0.18486562 -0.15563117 -0.007773086 0.52420413 -0.024853047 -0.07726895 0.12737213
0.17933498 0.0043414845 0.1776966 -0.13879128 1.5089248 0.53655815 0.19988471 -0.22703512
-0.16691913 0.70211315 -0.7272715 0.12512402 -0.08075388 -0.12541856 -0.054630857 0.053975772
0.55714107 -1.4194337 0.010489881 0.23927024 -0.3064024 0.21179166 0.08644409 0.6513128
-0.82332593 -0.15470406 0.009600332 0.22042024 0.07812649 0.19121182 0.16202599 0.56697416
0.11264594 -0.09577196 -0.036807302 -0.24941134 0.33255944 0.7617545 -0.448558 0.0080280015
-0.16129783 0.3853926 0.41912818 0.2777353 -0.39394936 -0.29859614 -0.1637164 -0.65843457
0.0688167 -0.2204757 0.29042995 0.22415116 0.69040465 0.21396495 0.75474745 0.3278213
-0.5177519 -0.4379509 -0.40387753 0.079854555 0.787921 -0.8354504 0.01890746 0.6149411
0.30927208 0.058265146 -0.12437864 0.19821501 -0.1415488 -0.19142856 0.019565515 0.045750983
0.723766 -0.5094778 -0.7066129 0.1314179 0.645744 -0.10989667 -0.30510893 -0.13106227
-0.5396407 0.7503814 -0.48623726 -0.33224192 -0.24362351 -0.12591073 0.20465623 -1.510755
-0.009111808 -0.18859196 -0.16160457 0.09746708 -0.25975293 -0.24039514 0.32787263 -0.28315392
-1.2435447 0.5231357 0.256525 0.91487485 0.84709024 -0.05910443 0.08114466 -0.3964748
0.15753408 -0.04298958 0.28510773 1.061887 -0.27870983 -0.1383691 0.15379047 0.22509724
0.056935895 0.060015213 0.21829656 0.4301965 0.11196214 0.029334646 -0.31354755 0.11866838
0.02270744 -0.17508738 0.54417354 0.0679026 -0.4797586 0.5660359 0.46207157 0.5918763

fc1.bias f4 [32]
00000000: 6818 17be 35d1 483d 6e48 0b3f 8771 5a3e
00000010: b855 2dbe 3858 b53f 559a 95bd fe49 a03d
00000020: f17d 2ebf c26c 693f 8fbe 61bf ff00 9bbe
00000030: 76b0 333c d2ff 9e3f 66cb ebbe c1a1 4d3e
00000040: 8e5e fbbe d828 e63d c99c 963f f855 6d3e
00000050: 817e 04bf 06e3 c5be 15ae 0e3f 47a3 e5be
00000060: 6129 72bd a1c7 18be f13f bd3e ee8f 9b3e
00000070: 4db5 a93d 93d1 4b3f fecd aa3f ac99 433f
-0.14755404 0.04902764 0.54407394 0.2133237 -0.1692723 1.4167547 -0.07304827 0.07826613
-0.6816092 0.91181576 -0.88181394 -0.30274197 0.010967365 1.242182 -0.46053618 0.20081235
-0.49095577 0.11238259 1.1766597 0.23177326 -0.5175553 -0.38649768 0.5573438 -0.44851133
-0.059121493 -0.14919902 0.36962846 0.30383247 0.082865335 0.7961666 1.3344114 0.7640636

fc2.weight f4 [16, 32]
00000000: a2cb 7dbf 875b 983d 970c c83d 4bcb 70be
00000010: 0e17 92bf 7dc6 a8be 5a92 f3bd cfa6 0dbf
00000020: 2b00 3fbf 6b61 743e 4359 98be 17e4 ad3d
00000030: 6342 94bc 9f8f b23e a02f 163d 4f55 2dbf
00000040: dab2 6ebf b0c8 7cbf 1e0f d4be 53cf 0bbf
00000050: a5fd 4f3e c551 fcbe 136c 933e 2aca bcbd
00000060: 3e2a a9be 3e68 6c3b 55aa 4d3d c38f c73e
00000070: f222 16be 57ea 8cbf 6033 8dbe ee24 b23e
00000080: 28ab 69be a0ec 3ebf c912 5dbf c64c dfbd
00000090: 20af bd3f d788 c63d 3758 b8be da7c a7bf
000000a0: 3f1b 973e e04c ba3e 01df 333e 2b93 f3be
000000b0: b125 a13f 6d41 263e fcc9 7cbf adb4 cdbe
000000c0: 5474 93be e99a a73e a566 833f 3690 ab3e
000000d0: 4ac5 02bf 20d1 2d3f 7bbb 2f3f 3b89 013e
000000e0: 6565 fcbe 5411 e4bd a91e 1abf a941 7cbe
000000f0: f1de d6bd 8070 773f 37c3 c43e c0a3 a73e
00000100: e37b 29bd 5bdf c73e e7f5 a5be 5b24 bebe
00000110: 5db5 d93d b266 11bf 2af4 7b3e 35fa c83d
00000120: 5cc9 1c3f 0612 05bf bb12 783f 0021 253f
00000130: d111 333f e3d0 0fbf b0dc 673d cd5d ccbe
00000140: 09f2 503f b76c 03bf eb07 fdbe 3757 3bbf
00000150: 1738 013e 08ad 66be 92a9 c8be 4238 a9bd
00000160: 3bef dcbe 053f 5b3e 09f0 6d3e b7bc 49be
00000170: 35d6 843f 33ae 143f f2ea acbd 1075 b7bd
00000180: 53f6 bebe e4e5 4ebd bcf1 16bd 4424 a63e
00000190: f6f4 583f 614c 1ebf bf5f 6f3f d4b1 85bf
000001a0: 2948 013d 1f72 95be 70ef f13e 9970 913e
000001b0: 0c11 223f acc9 f83d f616 233f d36d b83e
000001c0: 6fab 6b3f e473 8a3f 4add 5e3e aa6e a93d
000001d0: bd66 80be 3922 adbe 07bd 003e 66df d73e
000001e0: 1557 97bd fe81 653e ecd2 193f 2f6b 80bd
000001f0: 2677 3bbf 8055 bfbe bcde c8bc 2ca2 f1be
00000200: 5723 43bd d8ce fabd 1eaf 1a3c 1e0b 6dbf
00000210: 356a 95bf d923 9fbe 8c55 26bf 706d ab3e
00000220: 1b8f 833e a086 343f e14b 6fbe 10c7 4bbe
00000230: 47b6 2d3f 8e30 93be b450 88be 9884 17bf
00000240: 0386 83be 6b3a 33bf 4008 f93e 1e96 d8be
00000250: df6b 713e 5891 55bf aab3 f03c 5a2b e7be
00000260: aa0f 36be f924 b93d a1fd 5dbf 26c9 473e
00000270: e4b7 36bf 7e43 f5bd f922 fd3e 0962 0b3f
00000280: 0bc3 d9be 16d2 463e 542a bc3e fa9c abbb
00000290: a6ae 283e f272 5abe ba82 95bd 7119 603c
000002a0: ba7f 143f 4421 1f3d 5a75 093f fb90 4e3f
000002b0: f003 ac3f 29e1 8d3e b87f 49bf d8db 4bbf
000002c0: a6f1 b9bc 8e45 ea3d 0648 90bf 73dc 9ebf
000002d0: 1646 39bd 38a8 efbd ad94 c03d 5550 15bf
000002e0: 360a 5dbf 3201 313f 8323 e8be f1af 9d3e
000002f0: 8d1e 653e e46f 3fbf 7c88 53be 4a84 19bf
00000300: 0d8d 82bf 5d32 56be cfe9 4a3f 38ee e3be
00000310: fa5b 0f3f 1abe 593e 330c 823f c0b0 f3be
00000320: 7022 24bd df43 84be e862 19be f96b 3a3e
00000330: 1cea 11be 549f 26bf fd5e d6bc bdd6 bebe
00000340: f727 613e e661 bdbf 49fc 9e3e e3fd 3a3e
00000350: e956 d93e 1b39 533e 38ba 70be 3002 823e
00000360: d743 f93d c916 fe3d c021 9d3e 0ed1 033f
00000370: b52f 4ebe 6af3 27be bcc0 db3d 331a 06be
00000380: 6395 b3bf 6a11 e83d dc8c bc3d 2f7e eebd
00000390: f432 203d 89fb 59be bfb3 b4be 67f3 853f
000003a0: 0277 16be 1d17 32bf 5425 4bbe ade5 9d3c
000003b0: 3b5a 233e 5349 51bf 46c8 22bf 355d 92be
000003c0: 102a b33e 3cee 463f 7d37 91be d61d 5cbe
000003d0: 7464 273d acb4 b8be 2a0b d0be a573 543d
000003e0: 1cef 1bbe 83f2 f93d 05d7 123f 25ec 50be
000003f0: 1e5c a5bf 3804 033c f893 5fbf 0785 93be
-0.99138844 0.074393325 0.09768026 -0.2351505 -1.1413286 -0.32963935 -0.11893149 -0.55332655
-0.7460963 0.23865287 -0.297556 0.0849077 -0.018098062 0.348752 0.036666512 -0.67708296
-0.93241656 -0.98743725 -0.41417783 -0.54613227 0.20311601 -0.49281135 0.28793392 -0.09218247
-0.3304004 0.0036072875 0.05021127 0.3897687 -0.14661768 -1.1009015 -0.2757826 0.347938
-0.22819197 -0.7457981 -0.8635679 -0.10903315 1.4819069 0.09694069 -0.36004803 -1.3084977
0.29512975 0.36386776 0.17565538 -0.47573218 1.2589628 0.16235895 -0.98745704 -0.40176907
-0.2879969 0.32735375 1.02657 0.33508462 -0.5108229 0.67897224 0.6864545 0.12650006
-0.49296108 -0.111361176 -0.60203034 -0.24634422 -0.104917414 0.96656036 0.38430187 0.3274212
-0.041377913 0.39037594 -0.3241417 -0.37137112 0.106302954 -0.56797326 0.2460486 0.09813348
0.6124475 -0.51980627 0.9690358 0.6450348 0.6994906 -0.5617811 0.05660695 -0.39915314
0.81619316 -0.5133776 -0.49420103 -0.73179954 0.12619053 -0.22526944 -0.39191872 -0.082626835
-0.43151268 0.21410759 0.23236097 -0.19700895 1.0377871 0.58078307 -0.0844325 -0.08957875
-0.37297305 -0.05051221 -0.03685163 0.32449543 0.8474878 -0.61835295 0.9350547 -1.0444894
0.031562958 -0.2918863 0.4725299 0.28406218 0.6330726 0.12147841 0.6370691 0.3602129
0.9205846 1.0816617 0.21764103 0.082730606 -0.25078383 -0.33815172 0.12572108 0.42162627
-0.073896565 0.2241287 0.60087466 -0.06270444 -0.7322868 -0.3736992 -0.02452027 -0.4719404
-0.047641125 -0.122464836 0.009441165 -0.9259509 -1.1673037 -0.31082037 -0.64974284 0.33481932
0.25695118 0.7051792 -0.2336879 -0.19900155 0.6785626 -0.28747982 -0.26624072 -0.59186697
-0.2568818 -0.70011014 0.48639107 -0.4230203 0.23576306 -0.834249 0.029382546 -0.45150262
-0.17779413 0.09040255 -0.8671513 0.19510326 -0.71374345 -0.11975764 0.49440745 0.54446465
-0.42531618 0.19416079 0.36751044 -0.005237219 0.16472873 -0.2133291 -0.07300325 0.013677941
0.58007395 0.038850084 0.5369469 0.8068997 1.3438702 0.27710846 -0.7871051 -0.7963233
-0.022698235 0.11439048 -1.127198 -1.2411026 -0.045232855 -0.11702007 0.09403358 -0.583257
-0.86343706 0.6914245 -0.45339593 0.30798295 0.22374935 -0.74780107 -0.20657533 -0.5996748
-1.0199295 -0.2091765 0.79263014 -0.44517684 0.5599972 0.21263924 1.0159973 -0.47595787
-0.040071905 -0.25833032 -0.14979136 0.18205251 -0.14249462 -0.65086865 -0.02616834 -0.37273207
0.21987902 -1.4795501 0.31051853 0.18260913 0.4244912 0.20627253 -0.23508537 0.25392294
0.121711425 0.1240669 0.30689812 0.5149087 -0.20135386 -0.16401449 0.107301205 -0.13095932
-1.4029964 0.113314465 0.09206554 -0.11645161 0.039111093 -0.2128736 -0.35293385 1.0464906
-0.14693835 -0.6956652 -0.19838458 0.019274557 0.15952389 -0.8175251 -0.63586843 -0.28586736
0.3499303 0.77707267 -0.28362647 -0.21495757 0.040867284 -0.36075342 -0.40633518 0.0518681
-0.15227932 0.122044586 0.57359344 -0.20402582 -1.2918737 0.007996611 -0.8733516 -0.2881243

fc2.bias f4 [16]
00000000: 9388 383e 33f5 a33d 4341 893d 7543 903d
00000010: 5add 0bbe 7de5 4bbc 0e80 8abc f3db 2dbe
00000020: 2e2c 1a3e 6339 1f3e 9c80 e53c b781 9f3d
00000030: 0955 953d 6773 04be a975 463e 9c20 f63d
0.18020849 0.080057524 0.06701901 0.070441164 -0.13658658 -0.012444851 -0.016906764 -0.16978435
0.15055916 0.15549235 0.028015427 0.07788413 0.0729161 -0.12934648 0.19380821 0.120179385

bn1.weight f4 [7]
00000000: 37bc c03f 7334 f23f 2274 8d3f 4101 083f
00000010: bee5 0a3e 44ac 263a 1f3e 713d
1.5057439 1.8922256 1.1051066 0.53126913 0.13564202 0.0006358067 0.058897134

bn1.bias f4 [7]
00000000: d302 28be 1a7c be3e 06b6 9cbe 6515 083d
00000010: 7c64 9c3e 6802 2c3e be08 5abe
-0.16407327 0.37204057 -0.30607623 0.03322353 0.30545413 0.16797793 -0.21292397

bn1.running_mean f4 [7]
00000000: 9600 3c40 dd5c d140 863b 1941 cfba 1c41
00000010: 1582 b540 885b b840 7d7e 573f
2.9375358 6.542586 9.577032 9.795608 5.672129 5.7611732 0.8417738

bn1.running_var f4 [7]
00000000: 8b1d d13c b711 5d3f 8276 823e ee8f 123e
00000010: 9265 8542 1832 8242 4a0c d042
0.025526782 0.86355156 0.2548104 0.14312717 66.69838 65.09784 104.024

bn2.weight f4 [32]
00000000: 9165 f93f a53b 7f3f 14c6 ad3f 8bed c83f
00000010: df03 0740 9df3 a93f 6ab1 d03f 6b25 ed3f
00000020: 6cf1 b63f 2ebd a73f 04ff b03f 3d8f 9f3f
00000030: 9ea2 ec3f 4198 c13f c4d6 cf3f 3516 e43f
00000040: cf95 cf3f 33e9 0040 7077 bb3f a57b ca3f
00000050: 20bd 703f 457d 8a3f 656a aa3f 99d1 873f
00000060: 7b1e de3f e203 873f da39 ab3f 75a7 703f
00000070: 79dc 0940 856f f43f 62ab b63f 95fd 833f
1.9484121 0.99700385 1.3576074 1.5697492 2.1096113 1.327747 1.6304142 1.8527044
1.4292426 1.3104608 1.3827825 1.2465588 1.8487127 1.5124589 1.6237416 1.7819277
1.6217593 2.0142334 1.4645824 1.5818983 0.9403858 1.0819479 1.3313719 1.0610839
1.7353052 1.054806 1.337703 0.9400552 2.1540816 1.9096533 1.4271052 1.0311762

bn2.bias f4 [32]
00000000: 68b3 25bf 3fff 403e 357f abbe d769 dcbe
00000010: 71b9 84bd d92a 3a3e 8e19 0bbe 5076 ffbd
00000020: 68c1 3abe 4195 d6be c9d0 2cbe fa79 fbbe
00000030: 572a 59bf e22f 9b3e 5c1f 11bf cd2f e0be
00000040: e9cf cfbe e813 5bbe cdc9 2c3e 0e11 a2bd
00000050: fc86 c63e 7daf f9be 54d8 31be 9c46 833e
00000060: ac71 a1be 0a46 5cbe 8558 0ebe 58fa a3be
00000070: 8e86 2abe ef6c 95bd c924 133e 312e 3cbd
-0.6472688 0.18847369 -0.3349549 -0.430495 -0.06480683 0.18180408 -0.13583967 -0.12473738
-0.18237841 -0.41910747 -0.1687652 -0.49116498 -0.8483023 0.3030997 -0.56688476 -0.4378647
-0.4058831 -0.21394312 0.16873856 -0.07913409 0.3877486 -0.487667 -0.17367679 0.25639808
-0.31532037 -0.21511093 -0.13900955 -0.32026935 -0.16652891 -0.07296168 0.14369501 -0.04594249

bn2.running_mean f4 [32]
00000000: ea40 ac3e 71db 663f ac62 483f ec2a 963e
00000010: 5edb 853e ceec cc3f 081f 1d3f 4611 1c3f
00000020: 9db5 c132 7833 9b3f c362 b438 2669 223e
00000030: 1b18 b43e 0c03 c23f 43b0 533e 398f 3a3e
00000040: f222 303e cf24 673e 2067 a43f 8eb3 9e3e
00000050: 714d 9b3e c3eb 333f 233a fe3e 0400 0000
00000060: f5c4 a73e 34b7 233e 33a7 633f 5f5a 193f
00000070: fdfe c03e e7d1 5f3f fe67 b43f 930b 8b3f
0.33643275 0.9017859 0.7827556 0.29329622 0.26143926 1.6009767 0.61375475 0.6096386
2.2550745e-08 1.2125082 8.601465e-05 0.15860423 0.3517464 1.515718 0.20672707 0.18218698
0.1720083 0.22572635 1.2843971 0.30996364 0.3033252 0.7028162 0.4965373 6e-45
0.32767454 0.15987855 0.88927 0.5990352 0.3769454 0.8742966 1.4094236 1.0862907

bn2.running_var f4 [32]
00000000: 03a6 813e 469b b43f f035 ee3e c2d2 0a3e
00000010: 2ce3 223e 600d e43f a58a f93e 3322 bf3e
00000020: 801d 8a31 17f2 093f 2c05 9337 1a6d df3d
00000030: 9858 743e 43ba 803f 7b5d af3d e397 703d
00000040: 9c2b 003e e9f2 8c3d 36bc cb3f 9a4f d93d
00000050: 8951 183f 2dac be3f 782f 703e 0400 0000
00000060: 1035 2c3e 2b51 093e f5bf a93f df8e 503f
00000070: c33f 973e 5c42 2b3f 3066 a23f 6ab6 333f
0.2532197 1.4109886 0.46525526 0.1355696 0.15906972 1.7816582 0.4873859 0.3733078
4.0196824e-09 0.53885025 1.7526174e-05 0.10909481 0.23861921 1.0056843 0.08562752 0.0587386
0.12516636 0.06882269 1.5916812 0.10610886 0.5949941 1.4896294 0.23455608 6e-45
0.16817117 0.1340987 1.3261706 0.81468004 0.29540834 0.6689813 1.2687435 0.70200217
